experiments/20251102_014027/model.pt (torch, 231044 bytes, 53 tensors)

registers f4 [1, 32]
00000000: 661d 64bd b58a 0d3e 53fe 713d da0d 573e
00000010: a57f 6fbe 4975 5c3e e931 3fbd d98c 9a3d
00000020: 4495 a83b 29c6 21be 5a78 8c3b 17ee 4abd
00000030: 80dc 18be f106 5d3e cd5d a43d 1080 d03e
00000040: fa45 cfbd c0d5 44bb 7669 553d 269f bc3c
00000050: 3356 1b3e 7b9a 933e c6c2 0ebe 8988 e13d
00000060: f46c 8ebe befa eebc fac7 1c3e c968 033e
00000070: e2ad 0e3e 37b9 1abe e450 413e 3632 2a3d
-0.0556921 0.13822444 0.059080433 0.21001378 -0.23388536 0.21529116 -0.046678457 0.07546396
0.005144747 -0.15798248 0.004286808 -0.049543466 -0.14927864 0.21584679 0.080257036 0.40722704
-0.10120769 -0.0030034631 0.05210253 0.023025107 0.15169601 0.28828797 -0.13941488 0.1101237
-0.278175 -0.029172298 0.1531066 0.12832941 0.13933519 -0.15109716 0.18878514 0.04155179

pe_grid f4 [36, 32]
00000000: d961 9cbe f2ed 973c 66d2 8dbe 2e1a df3d
00000010: 9e6d dd3d 9789 b93d a1e1 88be 94bd b0be
00000020: 5bbe 68be f017 163e 96fc 94be 33ab dfbd
00000030: c26e 02bd 42ec 99bd dc37 3bbe cdd1 25be
00000040: 11b3 ee3c b807 b3bd b419 773e fe0e 953e
00000050: 7ddb c8bd 217f a0bc 08b6 63be e43f 8cbe
00000060: 306b cebd 0092 723e cc4e a9be 0f89 2fbe
00000070: 4910 58be dee3 c8bd e6a6 46bd 9f04 043b
00000080: 0d92 5cbe 5ed6 6a3e 2db9 d23c 8146 193e
00000090: 60bc 17be 6b2f bb3d eb8b c93d 332e 003e
000000a0: fbe9 84be e7a7 033d 9bdc 71be 3274 333e
000000b0: c130 083e 9cc4 a13d 9c65 d1bd 6c90 913d
000000c0: dd99 06be c142 ec3e dd46 8ebe 9903 b83d
000000d0: 907e a1be 11c1 4dbd 5091 59be 4b32 39bd
000000e0: 3b35 303c bd54 9ebc bb7c 703e 81a1 753e
000000f0: 0a83 4ebe d083 30be 7edf 2fbd 630a 213e
00000100: 49bc 623e 7b32 bebd b291 ea3d f7db 253e
00000110: 648c 483e 128e f9bd 74cf 32be d28e 5cbd
00000120: b7c3 323e 4183 ae3e a70b 6fbe ac86 7cbe
00000130: 2bc0 12be ebcd dc3d 4a21 b4bd 7fc9 963d
00000140: b97b ed3d 012b 6b3e 0f04 3bbd 3cb0 58bb
00000150: f06d 953e 0875 b2bb 8785 e8bc d240 60be
00000160: b434 9b3e 631c a4bc 0e02 a2be b7a4 85be
00000170: 091b 203c 64a0 26be b456 54be 2ca5 8cbe
00000180: 1d95 003e 745f 4f3e 6d1f bf3d 500b adbd
00000190: 977c 3abe 8aa0 08be 128a 82bd fcf3 67be
000001a0: 6d0d 15be 1ef8 5b3d 32fc febc dbc8 393e
000001b0: 52c9 f13d 5313 27be 3e9b 9dbd 2cb6 79be
000001c0: 9b56 c83d 5b01 47be 10fc 66be 9e5c 33be
000001d0: 2f81 043f 95de 1bbe 788e 69bd 253c d6bd
000001e0: e849 ce3d ee28 b83d 44ac 3938 f7c5 4cbd
000001f0: 2d33 1abe af97 13be 2c0a debd 1a42 15be
00000200: c5ed 953e e646 223e ac0f dbbd b36d 073e
00000210: a46e e3bd c6a1 a63e 8a32 693e f2ec cfbd
00000220: dbf3 aebc 0414 98be 79a4 fb3d 3205 9cbd
00000230: 69c8 d9bd 76b3 e53c e407 ed3d 912e 783d
00000240: 378f 81be aa9e 833d 9d22 f03d 5db6 973c
00000250: 1585 6c3e c36f 333e 037a 57bd f64a ad3e
00000260: ec9a 6cbd 582b 6f3e 7673 aabe 1a63 463e
00000270: 4185 783e 3cac 60be 59be e2bc 93cb 0a3d
00000280: de1a 843e 5569 38bd 05e9 87be cb36 f1bd
00000290: 1189 0d3e 9f5f 6c3e f661 67bc 3016 c6bc
000002a0: cf3c 253e b002 bd3d 9292 6a3d 2ff8 a5bc
000002b0: 5702 7c3e ec06 763e 94f2 933e bbc1 9dbd
000002c0: 9a50 1cbe 9eac 703e adf5 0bbe ca10 d13d
000002d0: 3d35 783e d81e a43e 2c61 373d 1f66 053e
000002e0: baeb 5a3d 6968 303d d0b1 8f3d 4364 4ebd
000002f0: a23c 7fbd 6a46 e83d 8510 0ebd 6f33 68be
00000300: 46e1 94bd aa5a d73d a408 683c bd2f 06bf
00000310: 7e17 5ebc 8c08 08be 417f e83e 5485 85be
00000320: 0b9f 5c3e 4133 013e 36c6 58be 5369 293d
00000330: 45bd 123c c4a5 babd 26e6 e1bd 202a 263e
00000340: 18b1 bd3d eb4c 60be 21b8 1e3f 238f e0bd
00000350: cd8a c0bd 6acc bbbe 736f 4a3e a2d2 fbbc
00000360: 57f5 f63d 67ef 8b3c dad8 8ebe c7a2 adbc
00000370: 1e9f 503d c5b3 6d3d 619b 2abe ee91 173d
00000380: 3819 c33d b072 8cbd 1c09 b2bc 460f d2bd
00000390: 7b95 633d 6c5f 373c afc4 773e 6268 debc
000003a0: d8ed 0abb 5ce1 e93d b324 52be 901f 6bbd
000003b0: d5bb 32bd b5a7 23be 68e3 1d3e a826 2f3d
000003c0: d58e 3dbe 3e62 2dbe 76c9 3dbe b86c 993d
000003d0: 14ef 4d3e cee9 a0bd 74e7 89bd 0f06 7e3d
000003e0: 5308 663d 92f1 e33d ca43 1f3e c082 8cbe
000003f0: 3064 0abe d463 3fbe 9825 a4bd f03b 83be
-0.30543402 0.018546078 -0.27699584 0.10893665 0.108119234 0.09059446 -0.2673464 -0.34519637
-0.22728865 0.14657569 -0.29098958 -0.109213255 -0.031843908 -0.07515766 -0.18283027 -0.16193314
0.02913812 -0.087417066 0.24130899 0.29113 -0.09807489 -0.01959187 -0.22237408 -0.27392495
-0.10079038 0.23688507 -0.3306793 -0.17142127 -0.21099962 -0.09809087 -0.04849901 0.0020144356
-0.21540089 0.22933337 0.025723064 0.14968301 -0.14817953 0.09139904 0.0984114 0.12517624
-0.25959763 0.032142546 -0.2361931 0.17524794 0.13299848 0.078988284 -0.102244586 0.071076244
-0.13144632 0.4614468 -0.2778844 0.08985061 -0.31541872 -0.05023295 -0.21246839 -0.04521398
0.010754879 -0.019327516 0.23485081 0.2398739 -0.20167175 -0.17237782 -0.042937748 0.15726618
0.22142138 -0.09286972 0.114535704 0.16197191 0.19584805 -0.12185301 -0.1746195 -0.05384714
0.17457472 0.34084514 -0.23344289 -0.24660748 -0.14331119 0.10781463 -0.08795412 0.07362651
0.11595864 0.22965623 -0.045658167 -0.0033064028 0.29185438 -0.00544608 -0.028383983 -0.21899727
0.30313647 -0.020033067 -0.31642193 -0.2610223 0.009772071 -0.16272122 -0.207362 -0.27469766
0.12556882 0.20251256 0.09332166 -0.08449423 -0.1821159 -0.13342491 -0.06373991 -0.22651666
-0.14555903 0.05370342 -0.031126115 0.18143027 0.11805977 -0.16315965 -0.07695626 -0.243859
0.09782144 -0.19434111 -0.22557092 -0.175158 0.5175962 -0.15221627 -0.057020634 -0.104606904
0.1007269 0.08992182 4.4267872e-05 -0.04999348 -0.15058585 -0.14413331 -0.10841784 -0.14575997
0.29282966 0.15847358 -0.106963485 0.1322544 -0.111050874 0.32545298 0.22773185 -0.101526156
-0.021356514 -0.2970277 0.1228723 -0.076181784 -0.10633928 0.028039675 0.11573771 0.060591284
-0.25304577 0.06426747 0.11725352 0.018519575 0.23097642 0.17523102 -0.052606594 0.33846253
-0.057764933 0.23356378 -0.33291215 0.19373742 0.24269582 -0.21940702 -0.027678655 0.03388555
0.25801748 -0.045022327 -0.26544967 -0.11778029 0.13821818 0.23083352 -0.014122477 -0.024180502
0.16136478 0.09229028 0.057268687 -0.020259945 0.24610268 0.24026078 0.2889601 -0.07702967
-0.15265122 0.23503348 -0.13667937 0.102082804 0.24239059 0.32054782 0.044770405 0.13027237
0.053447463 0.043068323 0.07016337 -0.050388586 -0.062313683 0.113415554 -0.034683723 -0.2267587
-0.0726953 0.1051534 0.014162216 -0.5241659 -0.013555406 -0.1328451 0.45409587 -0.26078284
0.21545045 0.12617208 -0.21169361 0.04136021 0.008956258 -0.091136485 -0.110302255 0.16227007
0.092622936 -0.21904342 0.6199971 -0.10964801 -0.09401474 -0.36679393 0.19769077 -0.030740086
0.120585136 0.01708193 -0.2789982 -0.021195782 0.050932996 0.05803277 -0.16660835 0.037004404
0.095262945 -0.068578124 -0.02173286 -0.102568194 0.055562478 0.011192184 0.24196123 -0.027149383
-0.0021198895 0.11419937 -0.20521812 -0.057403147 -0.04363616 -0.15981944 0.1541878 0.042761475
-0.18511517 -0.16932008 -0.18533882 0.074914396 0.20110732 -0.07857095 -0.06733599 0.062017497
0.056160282 0.1113006 0.15553203 -0.27443504 -0.13514781 -0.18690425 -0.08014983 -0.25631666

pe_frames f4 [5, 32]
00000000: 8760 39bd de69 903d 19cb 053e 3365 333c
00000010: 9ebb 1c3b 78a8 113e d543 fe3b 0194 403e
00000020: feb9 46bd b128 2dbd 4cdb 233e 78ff 8b3e
00000030: ccd7 0bbd ed36 7a3d aa4f a7bd efd0 57be
00000040: c8ed 593e 73f3 713e c3bc 06be 33aa 32be
00000050: 9491 4c3e 735e 01be 01f2 333e b2cc d03d
00000060: 3719 2bbd b67d 423e 8567 6bbe 1db5 34be
00000070: bd1a 343e 69ef 13bb ee04 50be a6f6 6bbe
00000080: 4a28 d9bc fa74 55be 9d2b 3f3e 2901 ee3d
00000090: ac6a 07be 99df 11bd d232 39be d453 413e
000000a0: 14a6 033e 1637 1cbe 30c9 e5bd c6b4 973e
000000b0: 627a 043e 1268 34be 7ddb e23d 18f8 3cbd
000000c0: ed56 323e af63 94be a346 a6be c9b9 083e
000000d0: 15dd 593d 1a54 efbd 425f e7bd 77d5 0abe
000000e0: 8f81 8bbd 5b2a df3b 3b91 d23d 7955 933e
000000f0: 0fea efbb cd0f b93d e043 29be 1042 e23c
00000100: 4cdc 1fbd 20e6 c5bd 0fea 383e 5fbe 813e
00000110: 6ede 0f3e dae7 e13c 0267 65be 5c72 efbd
00000120: 18c9 b0bd a2f1 2f3e f55a 90bc 52e0 b4bd
00000130: f4f5 b6bd 5190 573d 02ca 5fbe e8d6 a23d
00000140: dc05 413e 2a09 da3c eaad 03be 7c0b 10be
00000150: d885 2fbe 3d43 19be a172 d43d 5130 4a3d
00000160: 72be 103e 448a c63d e6f1 973e 8c2a 8a3d
00000170: 3ae9 08bc 3b64 7d3e b8df ef3d 7928 5e3e
00000180: 3671 c93d cfc7 003e 35d7 afbc 19bd 113e
00000190: 3fa8 e53c 99aa 38bd b852 f93c d229 9fbd
000001a0: 34e5 9cbd fe5a 333e 8818 113e d3f9 803e
000001b0: b766 29be 9e1e 05be 6964 42be 4304 933e
000001c0: 2094 82bd 5587 f4bc 7b19 043e 69d0 b8bd
000001d0: f328 a83e 9384 833e 1af5 b63c a257 59be
000001e0: 493a 023e bf1e 86be 7444 05bd 5b7b 2f3d
000001f0: 6681 3c3e 7107 fdbd efd3 1cbe c6d3 d7bd
00000200: 2cb7 25be ed66 19be 2b72 88be 66d8 79bd
00000210: 6ca6 243d 0c58 a63d e0d9 9b3e 7761 453d
00000220: bd86 913e 643a d73d 126a a9bd 9156 a6bd
00000230: 405b ac3e b038 133e 797f 19be c738 42bd
00000240: 3ea9 073c 1a25 73bd 4d58 14be ffe4 583e
00000250: 3076 363d 4e65 6e3e 89f9 c53d 4dce 8fbe
00000260: ba03 cb3d 5181 d9bc fc29 5bbe c80f 223e
00000270: bc4b 62bd 70d2 cdbb 7f4e df3d 283f 89be
-0.04525807 0.070514426 0.13065757 0.010949421 0.002391554 0.14224422 0.007759551 0.18806459
-0.04851722 -0.042275134 0.16001624 0.27343345 -0.034141347 0.061087538 -0.081694916 -0.21075796
0.21282113 0.23628025 -0.13157944 -0.17447738 0.19977409 -0.12633686 0.17572786 0.101952925
-0.041772094 0.18993267 -0.22988708 -0.17647214 0.17588325 -0.002257312 -0.2031438 -0.23043308
-0.02650847 -0.20845404 0.18668981 0.11621315 -0.13224286 -0.03561363 -0.18085793 0.18879634
0.12856323 -0.15255389 -0.11220014 0.29630107 0.1293731 -0.17617825 0.1107702 -0.04613504
0.17415972 -0.28982303 -0.32475767 0.13352121 0.053189356 -0.11685963 -0.11297466 -0.13557993
-0.06811821 0.006810469 0.10281607 0.28776148 -0.007321603 0.09036217 -0.16529799 0.027619392
-0.03902845 -0.096630335 0.18058036 0.25340554 0.14049694 0.027576376 -0.22402576 -0.11691734
-0.086321056 0.1718202 -0.017621497 -0.08831848 -0.089336306 0.052627865 -0.21854404 0.07951146
0.18849891 0.026615698 -0.12859312 -0.14066881 -0.17140901 -0.14967056 0.10373426 0.049362484
0.14135149 0.09694341 0.2967674 0.067463964 -0.008356387 0.24745266 0.11712593 0.21695127
0.098360464 0.12576221 -0.021464923 0.14232291 0.028034328 -0.04508457 0.030434951 -0.077716485
-0.076609045 0.1751518 0.14169514 0.251906 -0.16543089 -0.12999961 -0.18983616 0.2871419
-0.06375909 -0.029849688 0.12900345 -0.09024126 0.32843742 0.25687084 0.02233367 -0.21224836
0.12717547 -0.26195332 -0.032535985 0.04284225 0.18408737 -0.12354935 -0.15315221 -0.105384395
-0.16183156 -0.1498067 -0.26649603 -0.06099739 0.040197775 0.08122262 0.30439663 0.048188653
0.2842311 0.10509184 -0.082721844 -0.0812198 0.33663368 0.14377093 -0.14990033 -0.04741743
0.008280097 -0.059361555 -0.14486809 0.21181105 0.044546306 0.23280832 0.09666736 -0.28087083
0.0991282 -0.02655092 -0.21402735 0.15826333 -0.055248007 -0.0062811896 0.10903644 -0.26805997

blocks.0.norm1.fc.weight f4 [64, 32]
00000000: 0362 87bc 9805 8ebd e880 73bd 1b22 1ebd
00000010: 5a98 e8bd f29b 8bbd f0e4 aa3d 43b7 af3b
00000020: 365b b4bb d9ea 01be 233d 4dbe 85f1 103e
00000030: 3647 85be 7dd1 7e3d 58e7 17be f461 a43d
00000040: 337b 03be c4c1 f1ba 8eff 033d c2bf 92bd
00000050: accd b83d 2b06 30bd 1d5b 0f3e 9a51 053e
00000060: a903 633d 14cd 0fbe d63c 2dbe c06d 6cbd
00000070: 1e6b 7a3d 7f49 bd3d 7019 643d b6ee a63b
00000080: 7b3f c5bd 9f27 0dbc ef76 cbbd 70d5 0c3e
00000090: 708c 093e a317 2bbe 4f4a 2f3e a6a4 abbd
000000a0: a33a 2fbe 2ff2 cbbd 34d9 353e 5eaa e4bd
000000b0: 3279 da3d 56de ed3c ca2c 073d 3e5e 25bd
000000c0: a769 4bbe c8c5 163e 793d 233d 3b1b 86bc
000000d0: faef 23bd 3057 053e 762e cbbd 45b7 51bd
000000e0: ca16 233e 330a 4b3d 6112 6e3e 9205 69bd
000000f0: 9b79 423e 236b 31be 468e 7ebc 607d 213e
00000100: c334 adbd baf7 973d f180 53bd 5ae3 b93d
00000110: 4d85 12be 2c29 41bc 567d 4a3d 1e9f 713c
00000120: 2084 933d ae9c b5bd c225 08be b269 c63d
00000130: 6bac b0bd c443 9dbd d202 0d3e e28f 353e
00000140: 52c5 f1bd 23a1 db3d b88a 173e afab f23d
00000150: 3c87 9dbd 0586 1d3e bbe4 a93d e2e9 113e
00000160: 89c9 f73d 3662 48be 43f7 f43c 1dac 25bc
00000170: 8186 193e d412 b43d b90c 143e b57e 48bd
00000180: c488 f83c e5c6 f3bc 75ec e7bd 215e 003e
00000190: 036e c7bc 07c4 ecbd 9cd6 143d eeb9 143d
000001a0: 96ef f7bc 7cb4 96bd a8f8 c2bd 9ea7 b83d
000001b0: 1c71 31be e8a2 04be 4f70 233c 9381 36be
000001c0: bada ca3d b750 cfbd d218 213d c843 d2bd
000001d0: 39a4 213d 5ff3 6bbd aa60 b5bc 6660 ee3b
000001e0: 4f57 f6bd bbda 84bc f065 103e a0a2 af3c
000001f0: b727 27bd 86d8 c9bc 6d31 e73d 1bab efbc
00000200: a206 5d3d 5865 09b9 b11a 9a3d 1067 583d
00000210: ac53 eb3d dc27 d53d 52d4 c9bb fa1d 013b
00000220: dc86 a8bc 4a3b b5bc 7b25 44be 5c0e 6ebd
00000230: 5eab 263d b6d8 86bc f324 d2bd 9828 af3d
00000240: 33b3 453e 60c9 083e f892 db3d 0e8b 91bd
00000250: 41c3 58bd 9b78 3f3d d4ba 9c3d 4bc8 a73c
00000260: a0c6 f7bb be30 be3d 7a0f 50bd 1025 d7bd
00000270: 2289 c8bd 98ab 823d 1c3e 2e3b f4d6 7d3d
00000280: 6e59 a23d 86c1 80bd bc3f e33d d222 d43d
00000290: 6453 753a ff28 cdbd 9655 e03d 096a 26be
000002a0: 7198 9f3b 4ccc 5cbe 405b 0d3e 43eb ddbd
000002b0: 099e 79bd 96bd 10be 9756 2bbe 6106 0a3e
000002c0: 0cba 41bd 6bb4 05be 8a15 b8bd 3469 173e
000002d0: 9cf6 f73d feeb d73b 9e13 1b3e c008 953d
000002e0: f37e 453e f1f5 0a3d 9f4d bdbd 0e2f ca3d
000002f0: 2725 3fbe 5c87 50b9 72d4 8cbc 0ac5 f53c
00000300: 54ad 89bd 896d 6d3d 996a 3abd 638a 3dbe
00000310: 3ab9 603c d774 fc3d 8f80 2fbe 67e8 0cbe
00000320: 0118 163e a858 d83d 452c fdbd 0b33 403b
00000330: 99ab 49be 22cc a33d 8147 abbb a2a6 abbc
00000340: deb9 e23d 8e8d c3bc 7c95 28be b4d2 303e
00000350: 1885 48be 55d5 0fbe e401 8fbd 151b 063c
00000360: d3b8 c23d 367c bc3c c29b 37be cb49 3fbe
00000370: 52c9 34be c8ef 203e 6ec6 1ebe ac5a e7bd
00000380: cc61 b1bd 2034 1dbe 06a2 96bd 447c 963d
00000390: 0c6b 2fbe 4421 ecbc 4fc5 ce3c 2c08 2fb8
000003a0: 16c9 94bd 1450 fdbd f2be d8bb 212c f3bc
000003b0: 8f4f 28be d722 353c 2cce 3b3e 761c e4bc
000003c0: 5e52 61bd 7695 183d 7cae 95bd 641b 28be
000003d0: 3616 e3bd de53 22be 28fc 573d ce92 62bd
000003e0: 546d 3c3e 057c f83d e351 a63d bb0b 963d
000003f0: c04d 5cbd e1c6 713b 55a0 17bd 8017 92bd
-0.016526228 -0.06934661 -0.059449106 -0.038606744 -0.11357184 -0.068168536 0.083444476 0.0053624227
-0.0055040373 -0.12687244 -0.20042853 0.14154632 -0.26030892 0.062211502 -0.14834344 0.080264956
-0.12839966 -0.0018444587 0.032226138 -0.07165481 0.09023604 -0.042974632 0.139996 0.1301941
0.055423412 -0.14043075 -0.16917738 -0.057721853 0.06113731 0.09242534 0.05568832 0.0050943745
-0.096312486 -0.008615403 -0.09934794 0.13753295 0.13432479 -0.16708235 0.1711819 -0.083810136
-0.17112212 -0.09958302 0.17758638 -0.111653075 0.106676474 0.029036682 0.0330017 -0.04037308
-0.19864522 0.14723885 0.039853547 -0.016370406 -0.04002378 0.1302154 -0.09920971 -0.05120017
0.15926662 0.049570274 0.23249198 -0.056890078 0.18991701 -0.17326026 -0.01553685 0.15770483
-0.08457329 0.07420297 -0.05163664 0.09076567 -0.14308663 -0.011789601 0.049435936 0.014747409
0.07202935 -0.08867775 -0.13295653 0.096881285 -0.08626636 -0.07678941 0.13770607 0.17730668
-0.11805214 0.10724094 0.14799011 0.11849152 -0.076918095 0.15383156 0.0829558 0.14249375
0.12098987 -0.19568714 0.02990306 -0.010111836 0.14992715 0.08792654 0.14457978 -0.048948962
0.030338652 -0.029757926 -0.113243975 0.12535907 -0.02434445 -0.11560827 0.03633748 0.03631013
-0.03026561 -0.073586434 -0.09520084 0.090163454 -0.17328304 -0.12952769 0.009975507 -0.17822866
0.09905 -0.10122817 0.03933031 -0.102668345 0.039463256 -0.057605144 -0.02214082 0.007274675
-0.120283715 -0.01621758 0.14101386 0.02143985 -0.04080936 -0.02463938 0.11288724 -0.029256394
0.053961404 -0.00013103092 0.07524622 0.052832663 0.114905685 0.10407993 -0.0061593438 0.0019701705
-0.020572118 -0.022122998 -0.19154923 -0.058119163 0.040690772 -0.016460758 -0.10260954 0.085526645
0.1930664 0.13358068 0.107213914 -0.07106601 -0.052920584 0.046745878 0.07652822 0.02048125
-0.0075615197 0.092866406 -0.05079601 -0.10505116 -0.09791781 0.06380385 0.0026587313 0.061972573
0.079272136 -0.06286912 0.11096141 0.10358204 0.00093584345 -0.10017585 0.10953824 -0.16251387
0.0048704674 -0.21562308 0.1380434 -0.10835888 -0.06094173 -0.14134821 -0.1673225 0.13478996
-0.04729657 -0.13057105 -0.08988483 0.14786226 0.12107584 0.0065894118 0.15144202 0.072770596
0.19286709 0.033925954 -0.09243321 0.09872256 -0.18666516 -0.00019886851 -0.017191146 0.030001182
-0.06722513 0.05796579 -0.045511816 -0.18509822 0.013716036 0.12326973 -0.17138885 -0.1376053
0.14657594 0.10563785 -0.12361959 0.00293273 -0.19694366 0.079979196 -0.00522703 -0.02095348
0.110706076 -0.02387121 -0.16463274 0.17267877 -0.19582021 -0.14046223 -0.069827825 0.008185168
0.09507909 0.023008447 -0.1793051 -0.18680494 -0.17654923 0.1571647 -0.15505382 -0.11296591
-0.086612314 -0.15351915 -0.07355122 0.073479205 -0.17130679 -0.028824456 0.025240568 -4.1730862e-05
-0.072649166 -0.12368789 -0.0066145593 -0.029684128 -0.16436599 0.01105567 0.18340367 -0.027845602
-0.055010192 0.037251912 -0.07308671 -0.16416699 -0.11088221 -0.15852305 0.05273071 -0.055315785
0.1840108 0.1213303 0.081210874 0.07326456 -0.053785086 0.0036892223 -0.03701814 -0.071333885

blocks.0.norm1.fc.bias f4 [64]
00000000: 965e b23b f241 0f3e 17fc cf3d ace5 45bd
00000010: e62b 02bd bfa0 71bd 4c29 bcbc e6db 1bbd
00000020: 6f85 11be 9de0 603e 7bd8 3dbe 98b9 34be
00000030: cb67 5dbe 8c37 4b3d 3474 2fbe 66a4 a03e
00000040: 9fb4 2c3e 5f1a 85bd d9f8 36bd 2f72 f73d
00000050: 81ef ecbd d2b3 42be ae6f c4bd 0eea ffbd
00000060: b653 f5bd 55cf 563d 0616 9c3c 69ed 59bd
00000070: 94cc fd3d 9a7c 303e 5c98 12be 380f 82bd
00000080: eeee 303e bcd4 043e c5d1 cbbd 4bb9 f1bc
00000090: 666b 3d3e b3b9 8cbc ec4a 9f3d a901 34be
000000a0: 5bec abbd f3f8 a63d 74a7 063e 8ca7 9dbd
000000b0: 8bc2 a7bd cb8c 673e fd6a 1ebd 1608 c0bc
000000c0: a39c ed3c 7b9b 183e 434e c4bc 1feb 4b3e
000000d0: 07cf 103d 4d3b 5c3b 3f59 c73d 7634 e0bd
000000e0: 9c73 323e 57f8 b9bd f816 f03d 1b79 2bbe
000000f0: 4230 483c 178f 63be b8b4 4bbe 73ff 2e3d
0.0054434044 0.1399 0.10155504 -0.048314735 -0.031780146 -0.05899119 -0.02296891 -0.03805151
-0.14211057 0.21960683 -0.18539612 -0.17648923 -0.21621625 0.04961352 -0.17134172 0.31375426
0.16865776 -0.064991705 -0.044670913 0.12082326 -0.11569119 -0.19013909 -0.09591614 -0.12495814
-0.11978857 0.05244382 0.01905347 -0.053204928 0.12392536 0.17235032 -0.14315933 -0.06350559
0.17278644 0.12971777 -0.0995212 -0.0295073 0.18498 -0.017178392 0.07777962 -0.17578758
-0.083946906 0.08152952 0.13149816 -0.07697973 -0.08191403 0.22612302 -0.03867625 -0.023441356
0.029005354 0.14903061 -0.0239631 0.1991391 0.035353687 0.0033604682 0.09733819 -0.10947506
0.17426914 -0.0908057 0.11723131 -0.16745417 0.012218537 -0.22222553 -0.19893157 0.042724084

blocks.0.attn.W_Q f4 [8, 32, 4]
00000000: 4ad8 88be 4368 cebf 6cb8 febe 902e 153f
00000010: 339c 07be da80 e23f 62bd b4bf a34c bf3f
00000020: 38d6 48bf d448 133e 1206 eb3e b9c4 563f
00000030: f455 5abc 5949 fd3f dd74 b13e 08d3 da3f
00000040: 6966 46bf 96a9 5d40 97d4 30bf 1580 e73e
00000050: f6c7 763f 0660 e53f 5a2f 1740 e1a6 d8bf
00000060: b0fe 1a3f fa8c a1be 8b34 33bf 65b8 8abe
00000070: 3bff 43bf 2e18 123f bb9b c23f 27da 213e
00000080: 85e6 9d3f 9b77 8fbe 0f2f 1cc0 bc50 ff3f
00000090: d6e5 0640 1dbc 113f 333d 98bf 458f 8a3e
000000a0: f9f7 b23f 1a4d 0bbf 8780 1340 5ff0 b03f
000000b0: f150 8b3f f18c 0e3f 0115 2140 1bd6 9b3f
000000c0: daa7 463d 1b3e 82bf 5a32 ecbf c02f 863f
000000d0: cb61 20be c278 813f cad6 e5bd baa6 0a3f
000000e0: 8c69 84bf 3986 86bd c109 b13f 5aa3 8b3f
000000f0: 4830 49bf 6162 93be b097 2b3c 6aff 99bf
00000100: a3c6 c73f 5eff bfbf df34 e8bd b343 2140
00000110: 898c 463f 9b47 2340 c380 f6bd 1587 aebc
00000120: 75e9 b8bf f6d3 9a3e 1789 b03f 0aef 1b3f
00000130: 4aaa 6dbf a49b 6abe cfd6 44bd 3964 803e
00000140: 9404 0fc0 791f 433b 0b99 75bf 2a20 2c3f
00000150: b722 b43f 36dc 7fbf 6a27 a33e 8118 423e
00000160: b72f 463f 411f cb3e cd7f 193f fb1c 103f
00000170: fa23 163f 4913 1440 2afe aebf 7e7d 893f
00000180: 8b34 7b3f 0102 90bd 70fd aa3e c519 e43f
00000190: beb7 9abf 3424 8d3e 2b41 46be 7c2e b7bf
000001a0: 9416 cc3e c886 f23d df00 9b3f b193 1d3f
000001b0: 7915 95bf 0eec 8abe d6c5 db3f 7e9b 78bf
000001c0: a986 df3f 11d4 3ebf 0903 0040 7544 d7be
000001d0: b82a 8e3d 5373 9cbd 968e f93f b911 953e
000001e0: 7711 55bf 9c6f 993f 4d1c a6be 7e4e fc3e
000001f0: 068b 1b3f 5c70 c5bf 46d6 af3e 7e71 f2be
00000200: cecf 7c3e e697 303f c798 f3bc 6892 693e
00000210: 8694 0440 e68a 14bf baea 033f 14bf 90bf
00000220: f1e1 96bd 3eb9 db3f 8594 2c3f 2df0 10be
00000230: 9cef 41bf 3f7c a03e 0c60 063e 7e74 45be
00000240: db74 0cbf 7b3a cd3e 3bc6 89be e491 a63f
00000250: d3d8 aebe c49b c23e bf2c e8bf 61c1 213f
00000260: 7a57 bebf 0390 8a3f acf3 9ebe 709d 97bf
00000270: a1f3 0b3f c92b 483f 9511 86bf e82a 933f
00000280: 2527 1940 8347 0e3f f74b 2c3f a5b7 94be
00000290: 0c65 0e40 1c17 9b3f f246 293e 626a 54bf
000002a0: e24d e2bf d2b0 92bf 397d d2be 5623 083f
000002b0: a592 b4bf a5e1 a93f f80f a1bf 614e 3dbf
000002c0: 6365 24bf 4465 ec3f 8ade 98bd 6086 21bd
000002d0: 95d7 7bbe 0b18 bc3f 2106 8e3e 7c2e 86bf
000002e0: 2467 e73f 2f8f bdbe e4a4 643e 3322 45bf
000002f0: 2fd7 2d3f 3b6b 3f40 8319 473c 9706 6e3f
00000300: a2a0 253f 7cf0 bfbf 7dab c23f b44f f63f
00000310: 399b 93bf 180c a83e c648 273f 407e 90bf
00000320: 2884 1bbf 84de 9bbf 9d07 06c0 bc9b a2bd
00000330: 9fdb a23f aa5b eabf 01d6 01c0 3881 80bf
00000340: bf1b cc3c 9de4 1d3f 299f 7f3f 3a1b 80be
00000350: b5ef 18be 3863 cbbf 45e1 8bbf d0cc 633d
00000360: b9c9 1640 7211 803e be48 993d cc83 933f
00000370: e513 a7bf aacd 7c3f 8fed 3bbe 4d2f 213e
00000380: f333 973f ec2f 4ebf 9722 d2be c5c2 f6be
00000390: fca5 af3f b668 85be 2160 323f 9b85 c43e
000003a0: 7f12 05bb e651 9abe bd94 423f 9b65 943f
000003b0: db21 0fbf c504 9dbf d0d9 833f cdf6 b73f
000003c0: 6aae bcbf c7dc 843f 3cf8 99be e92a 933e
000003d0: 748f 6dbf 9be6 f23e 3770 91be b0d6 e23e
000003e0: 6b32 b7bb 1c84 edbe be0f 443e 9024 fbbd
000003f0: 0db6 febf fad8 fd3f 2794 83be 03ee 953f
-0.26727515 -1.6125568 -0.49750078 0.58274174 -0.13243179 1.7695572 -1.4120295 1.4945263
-0.7845187 0.1438325 0.4590307 0.83893925 -0.013326157 1.9788009 0.34659472 1.7095652
-0.77500015 3.4634757 -0.69074386 0.45214906 0.96398866 1.7919929 2.362265 -1.6925927
0.6054487 -0.3155287 -0.7000205 -0.27093807 -0.76561326 0.57068145 1.5203775 0.15805875
1.2335974 -0.2802094 -2.4403722 1.9946513 2.107778 0.56927663 -1.1893677 0.2706243
1.3981925 -0.5441452 2.3047197 1.3823355 1.0884076 0.5568381 2.516907 1.2174715
0.04849992 -1.0175203 -1.8452866 1.0483322 -0.15662305 1.0114977 -0.112226084 0.54160655
-1.034471 -0.0656857 1.3831102 1.0909226 -0.78589296 -0.28785995 0.010473177 -1.2031071
1.5607494 -1.4999807 -0.11338209 2.519757 0.7755819 2.5512455 -0.12036278 -0.021304647
-1.4446245 0.30239838 1.3791837 0.6091162 -0.92837965 -0.22910935 -0.04805642 0.25076464
-2.2346544 0.0029773398 -0.9593665 0.6723658 1.4073094 -0.9994539 0.31866008 0.1895466
0.7741656 0.39672282 0.59960634 0.5629422 0.58648646 2.313677 -1.3671315 1.0741422
0.9812705 -0.07031632 0.33396482 1.7820364 -1.2087324 0.27566683 -0.19360797 -1.4311061
0.39860976 0.11842114 1.2109641 0.61553484 -1.1647178 -0.2713322 1.716975 -0.9711226
1.746297 -0.7454234 2.0001853 -0.42044416 0.06941742 -0.07639184 1.9496639 0.29115084
-0.83229774 1.1987185 -0.32443467 0.49278635 0.6075901 -1.5424914 0.34343165 -0.47352213
0.24688646 0.6898178 -0.029735936 0.22809756 2.0715652 -0.5802444 0.5153004 -1.1308312
-0.07367314 1.7165906 0.6741412 -0.1415412 -0.7575624 0.31344792 0.13122576 -0.1928272
-0.5486581 0.4008368 -0.2690905 1.3013272 -0.341498 0.38009465 -1.8138655 0.631857
-1.4870446 1.0825199 -0.31045282 -1.1844921 0.54668623 0.7819181 -1.0474116 1.1497469
2.3930142 0.5557787 0.67303413 -0.2904636 2.2249174 1.2116427 0.1653097 -0.8297483
-1.7680018 -1.1460211 -0.41111162 0.5317892 -1.4107252 1.3271986 -1.2582998 -0.7394772
-0.64217204 1.8468404 -0.07464321 -0.03943479 -0.24593957 1.4694837 0.2773905 -1.0482936
1.8078351 -0.37023303 0.22328526 -0.7700531 0.6790647 2.9909198 0.012152079 0.92978805
0.6469823 -1.4995265 1.5208584 1.9243073 -1.1531745 0.32821727 0.6534542 -1.1288528
-0.6074853 -1.2177281 -2.0942147 -0.0793986 1.2723273 -1.8309224 -2.0286868 -1.0039434
0.024915574 0.6167696 0.99852234 -0.25020772 -0.14935191 -1.5889654 -1.0928122 0.055615246
2.3560622 0.2501331 0.074845776 1.1524596 -1.3052946 0.9875132 -0.1835234 0.157407
1.1812729 -0.8054187 -0.41042015 -0.48195472 1.372253 -0.2605645 0.6967793 0.38383183
-0.0020305214 -0.3014061 0.76008207 1.1593508 -0.55911034 -1.226708 1.0300846 1.4372193
-1.4740727 1.0379876 -0.300722 0.28743675 -0.9279702 0.47441563 -0.28405926 0.4430442
-0.005590727 -0.46389854 0.1914663 -0.12262833 -1.9899307 1.9831841 -0.2569897 1.171326

blocks.0.attn.W_K f4 [8, 32, 4]
00000000: a073 633f 8b3c debf 67c7 4d3f 6ceb 1c3f
00000010: 250f 5c3f 43e6 1abf 3d29 10c0 acf5 5ebf
00000020: 8a4b af3d 7095 c33f 0d18 1640 caf3 103e
00000030: 7ccd 943f 9af2 943f fa46 48bf e632 c93f
00000040: f3ff dcbd f56c 883f b5d1 333f 3a2f 32bf
00000050: b25d 3d3f e1dc 833e ee6e bd3f b87e 183f
00000060: 22b1 233f 19d2 b73f 9a86 2c3e 1531 ee3f
00000070: f42e 4dbf 48d5 783f bda7 813f 3a2d b63e
00000080: 7d4f b73f 45fa 6f3f 135c e0bf 3f85 fe3d
00000090: d89b d03f 5dd2 0f3d 7f46 cb3f ee15 813e
000000a0: 3b8b 883f a114 a5be aec4 38bf 703f 9cbf
000000b0: fcf8 bcbf 7669 4bbf 741b 3fbf 8682 26bf
000000c0: 96bf e63f 5767 3440 06d2 893f b3a2 af3f
000000d0: 3943 753e 2202 c5bd 7dde 9d3f 667c 973f
000000e0: 24e3 75be 0a85 a5bf 50aa 983f ed9d 07bf
000000f0: acdd 843e 28a1 773f 2cee b6bf dde3 58bf
00000100: 1573 103d ca20 9c3f 1710 9dbc 437d 9dbe
00000110: ba12 723f b4f2 ab3e 9773 ccbf 7dc5 ad3d
00000120: 3499 753e 919d 0f40 1e3b ae3f b33f 0a3f
00000130: d166 553f abc4 84be eee9 04be f378 a43f
00000140: 7097 85bf eaa4 2fbe fdbf 0540 c749 3d40
00000150: dfa5 443f e54b c6bf 908e 9b3f e212 863f
00000160: af20 56bf 3430 a23f b13e 7a3e 9386 8cbe
00000170: 19fd 7b3e d153 5d3f 0c25 83bd 999a 8f3f
00000180: 2c98 cbbe d996 893e 7e7e ae3f e80b d53f
00000190: 27c8 393e 9ee1 d73f e63c 10c0 2f45 84bf
000001a0: 3a4d 993f 6b21 86be eac0 043f 071e 9a3e
000001b0: db16 193f e349 43bf bce3 eabe 88c3 253f
000001c0: d91e b63f 7cf9 abbe f342 8dbc 751b 2bbf
000001d0: a2d6 6b3d c22f d9bf 2c5e 833f b6bc d03f
000001e0: 7d15 443f a960 de3f 0f4b 6b3f 2df0 cb3e
000001f0: 3d91 493e d243 b3bf aacb 4a3f 6bc2 82be
00000200: ca39 c33e 3ea1 d3bd a5e6 e53e 07f5 6c3f
00000210: 8aae 74bf 191f e23e 6e98 86bd 3e31 bb3f
00000220: 5c2c 79bf b3ca 273c 1ea3 b73f f1a8 903e
00000230: d753 6abf 1dbe 803e e91c 2abe 666f 7f3e
00000240: f11f 55bf c995 6ebf c66e d9bd c267 3bbf
00000250: f3aa 00c0 0099 1c40 daed 433f beb8 d3bd
00000260: 8c6e 81bf 6c20 68bf 9dcc fb3e cca6 0a3e
00000270: f75b a63f 718f 7fbf 2fb2 1ac0 e130 003f
00000280: 907b cf3e 0209 60bf 2b28 f03f 1fdc 6cbd
00000290: 590a 67bf 7cc0 58bf 5c4d c5be 202c cabf
000002a0: 5e87 b2be 5221 13bf f14b 16bf 4fe1 12bf
000002b0: d994 9fbe 1e23 8e3f cb42 923f f63e 913c
000002c0: 4547 553f fd34 fabe 371c f83d b3d4 bfbe
000002d0: 2197 003d 12ec 72be 760d 2a3e 1dff c9be
000002e0: 4a03 b63f 9bef 413f 46ac b2bd 822b 1040
000002f0: 2bb9 123f 29f0 513f 5010 73bf a297 5240
00000300: 3e58 af3e 287a 38bf 637e 76bf a49b 8abf
00000310: 46a9 9fbe 60c1 86bf ffa9 13be 6d38 bc3f
00000320: c806 703e febb 963f 6809 863f 0d16 093f
00000330: fa80 bfbf 70b8 b8bf 6408 923f 105b b93e
00000340: 4254 a8be d617 0e40 ab04 7abe c0d9 563c
00000350: 3bc5 083e 5ca1 e5bd 1b16 02bd e491 c4be
00000360: b3fe 8e3f 78d3 50bf 7009 66be 5e1b b13f
00000370: fc1f 13c0 4531 d53e 36f6 c8bf bde1 47bd
00000380: 2ff1 b5be 2edd 9b3f ab72 a1be 09a2 803e
00000390: 9909 893f c0ae ea3f 0280 f2be 86d3 6b3e
000003a0: b8e0 7cbe d561 9a3f 491c e0be 1a54 f23d
000003b0: 0e97 ae3f a21c 963f 7503 593e 9191 33bf
000003c0: 70f4 963e ec74 f43e 88aa e1bd d16c cc3f
000003d0: 844e 833f ac7f 473f afb7 eabe f335 923f
000003e0: 68ee d43e 415a 59be de03 9fbd ea5e 913d
000003f0: 2d7c 92bf 3199 a53f 40a6 333e 4bc2 6c3f
0.88848305 -1.7362226 0.8038239 0.61296725 0.8596061 -0.605076 -2.252517 -0.87093616
0.0855933 1.527998 2.345218 0.14155498 1.1625209 1.1636536 -0.782333 1.5718658
-0.10791006 1.0658251 0.7024186 -0.6960331 0.7397109 0.25754455 1.4799478 0.5956836
0.6394216 1.4360992 0.16848221 1.8608729 -0.8014977 0.9720044 1.0129315 0.3558138
1.4321133 0.93741256 -1.7528099 0.124277584 1.629756 0.035112727 1.5880889 0.25212044
1.066749 -0.322423 -0.7217511 -1.220686 -1.4763484 -0.79457796 -0.74651265 -0.6504291
1.8027217 2.8188074 1.0767219 1.3721527 0.23951425 -0.096195474 1.2333523 1.1834838
-0.24012429 -1.2931225 1.1926975 -0.5297535 0.25950372 0.9673028 -1.4291434 -0.8472269
0.035266 1.2197506 -0.019172711 -0.3075963 0.94559824 0.33583605 -1.5972775 0.084849335
0.23984224 2.243992 1.3611791 0.5400345 0.8336001 -0.25931296 -0.12979862 1.2849411
-1.043684 -0.17152753 2.089843 2.957628 0.768156 -1.5491911 1.2152882 1.0474513
-0.8364362 1.267096 0.24437977 -0.27446422 0.24608268 0.8645602 -0.064035505 1.1219054
-0.39764535 0.268729 1.3632352 1.6644258 0.18142758 1.6865728 -2.253717 -1.0333613
1.1976693 -0.2619737 0.51856863 0.30101034 0.598005 -0.7628462 -0.45876873 0.6475148
1.4228164 -0.3358878 -0.017243838 -0.6683877 0.057577737 -1.69677 1.0263114 1.630759
0.7659529 1.7373248 0.91911405 0.39831677 0.1968431 -1.4005072 0.79217017 -0.25538954
0.38130027 -0.10333489 0.4490253 0.9256138 -0.95578825 0.4416435 -0.065720424 1.4624403
-0.9733331 0.010241198 1.4346654 0.28253892 -0.9153418 0.25145045 -0.16612591 0.24944839
-0.83251864 -0.93197304 -0.106168315 -0.73205197 -2.010434 2.4468384 0.7653481 -0.10337971
-1.0111861 -0.9067447 0.49179545 0.1354019 1.2996815 -0.9982825 -2.4171255 0.50074583
0.40523958 -0.87513745 1.8762258 -0.05782711 -0.90250164 -0.8466871 -0.38535583 -1.5794716
-0.34868902 -0.5747272 -0.5870963 -0.57375044 -0.3116825 1.1104467 1.1426634 0.017730217
0.83311874 -0.48868552 0.121147566 -0.37466964 0.031394128 -0.23722866 0.16606697 -0.39452448
1.4219754 0.75756234 -0.08724265 2.2526555 0.57313794 0.8200708 -0.94946766 3.290505
0.3424701 -0.72061396 -0.962866 -1.0828748 -0.31183833 -1.0527763 -0.14420317 1.470472
0.23440087 1.1776121 1.047162 0.5354927 -1.4961236 -1.4431286 1.1408811 0.36202288
-0.32876784 2.2202048 -0.24415843 0.013113439 0.13356487 -0.112124175 -0.031759363 -0.38392556
1.1171478 -0.81572676 -0.22464538 1.3836477 -2.2988272 0.41639152 -1.5700138 -0.048799265
-0.3553557 1.2176874 -0.31532797 0.25123623 1.0706054 1.833458 -0.47363287 0.23029909
-0.24695098 1.2061106 -0.4377158 0.11832447 1.3639848 1.1727488 0.21192725 -0.7014399
0.29483366 0.47745454 -0.110188544 1.5970708 1.0258336 0.77929187 -0.45843264 1.1422714
0.4158814 -0.21225835 -0.077644095 0.070981815 -1.1444145 1.2937375 0.17543888 0.9248397

blocks.0.attn.W_V f4 [8, 32, 4]
00000000: eebd 91be d0cb 29bf 0949 453e 0ffa 1b3c
00000010: 3998 253f ec08 b93c e3e9 c3be 983f e73f
00000020: e7bf b33f 2c41 803e 6029 ed3d a1db 23c0
00000030: a4c4 833f fba0 d23f 3dec cabe 47e2 aa3e
00000040: cda5 2c40 24f7 03bd 9e6a 0340 9959 5f3f
00000050: da07 9c3f ec73 8e3e f6ba 8a3d 2026 833e
00000060: 7771 a83e be2f b23e 23cb 18bf 69fa 23bf
00000070: 334b b7bf c08d b63e 7ee7 c33f 4269 4c3f
00000080: 2adf b3bf 22aa 14bd fc68 2cbf 70a1 9b3d
00000090: 2236 943f 9a57 dabf cf73 debe 2e88 213f
000000a0: 12e5 683e fb14 d13e 374d 433f ef10 393f
000000b0: 8d3b d2bf cd14 3a3f be36 91be 6932 a8bf
000000c0: 8c31 5dbe 7088 06bf b0fe 19bf c1b8 963d
000000d0: c1ac 53bf d098 983f 1e19 fb3f f988 f83e
000000e0: c7be 1cbf 6d42 f6bf 1ca9 2bc0 7e0f 2e40
000000f0: 89d2 99bf 4abe f73e e560 be3d 3c6d e2be
00000100: 146f 85bf 99fa bd3f cc32 6ebf 3fbd 493f
00000110: 70ae f83d 8313 bb3f 1129 22bf f902 c8bf
00000120: 8282 2b3e 6b13 913f 0501 5ebf 86e3 1dbe
00000130: cc3e bc3e a372 eabe 087f 3dbf c4b3 a13e
00000140: f238 c73f ca54 c6be 4f71 c33f ea51 4d3f
00000150: 9ede 2dbf 947e 9abe 36a4 063e 2876 f0be
00000160: 4f3a e3bd 6fdd 3f3f 16c9 61bf bbe2 bebe
00000170: cc7a 85be 257a a93f be5b 073f f414 bd3a
00000180: 2ad7 233d 5da7 b3bf 0dc2 24bf 0638 613e
00000190: 39d5 f13e 560a 2ec0 c244 91bf 8d87 07bf
000001a0: e8bd 70be 4304 523d 223c fb3f 16cb 5f3f
000001b0: 86f8 6a3f be13 c3bf 7d6d c7bf a911 df3f
000001c0: 2ef9 04bf 6d64 0b40 e6ce 35bf 0eee 82be
000001d0: 31fd 913f bf90 edbe e116 9ebe 937d 773f
000001e0: 285c 013f 7403 713f 450a cdbf 8d74 62bf
000001f0: 8342 e73f dac7 a43f 49f4 e2bf 0888 0c3f
00000200: ea6a b83f 263f 59bf 272e 15be e93b 773e
00000210: 0af2 973f 09eb 503f 26fc 013f 5228 f73f
00000220: 524c 2a3d e790 60be d951 343f 5188 bd3f
00000230: 3a99 4b3f 75c0 cc3e 4b96 9bbf 5bf9 913f
00000240: d9b6 7f3f 0031 42be ee41 113f 3b13 66be
00000250: c069 553f dea7 f5be 6d0c 013f 5169 c13f
00000260: f614 8abf 051c 833f 00ab 0a3f 3196 1dbf
00000270: 638e 2a3f d472 2f40 61e3 7a3e 05af 3040
00000280: b45d 8a3e 8788 de3e 7f22 153e 3a0d 7d3f
00000290: 4e33 c33f 3cd2 3d3d b380 8bbf 4d36 f03e
000002a0: 162e c1bf 6533 db3f 0a39 053f b1cc f1be
000002b0: ba0b ce3f a42a 9ebf 4ac6 91bf 80b9 7cbf
000002c0: d07c 2f3f 0e40 9fbf 46cc f63e 5f90 073f
000002d0: 4ac6 c4bd 99f0 c6be 78d3 373e e6b6 ce3e
000002e0: fa61 5e3f f1bd 693e 3205 2e3c e704 303f
000002f0: 8195 a13f 2aad c8bf 6919 8f3f 4387 183e
00000300: 83e7 e6bf c184 adbe 5a15 b4bf 7cdc 1dbf
00000310: 59d7 0d3e 0cf0 99bf 069c 913f 84bd 643f
00000320: 5462 a63e b9ad febe 0d55 ccbd fbca 983f
00000330: 0686 2abe 1279 3e40 c492 51bf c09e 853c
00000340: f4af 623f 9588 b4be bd36 f3bc d390 b73e
00000350: fee6 c83f 65c1 343e 88b3 e0be bd3d 88bd
00000360: cdd4 813f a2f7 73bf d2e3 5b3f b75f 31bd
00000370: 2ba2 b9bd cebc 433f ef46 ff3e 38d0 dcbe
00000380: b138 b4be b12d 143f 8a4f 723f c1aa 1040
00000390: d92b 40c0 9750 803f b021 c43e 2184 1fbf
000003a0: 5269 4dbf 3a02 03c0 3ccc df3d 9659 833f
000003b0: eb7d 863f 9f06 143f 38ee a2be d1c1 48bf
000003c0: 7b71 353f 10d6 e8be 4142 123f 3383 3abf
000003d0: d127 2a3f a880 ffbf eff8 df3e f106 8d3f
000003e0: b14b e53e c8d8 a13f 5195 9f3e eb38 f23e
000003f0: 090f 443f 6668 73bf 9f94 863f 8b6c 54be
-0.28465217 -0.6632662 0.19266142 0.009520068 0.646854 0.022587262 -0.3826438 1.8066282
1.4042939 0.25049722 0.11580157 -2.56028 1.0294385 1.6455377 -0.3963336 0.3337576
2.6976197 -0.032218114 2.0533824 0.8724609 1.2189896 0.27822816 0.06773941 0.25615025
0.32899067 0.3480205 -0.5968496 -0.6405397 -1.4319824 0.35655022 1.5305021 0.7984811
-1.4052479 -0.036295064 -0.67347693 0.07599151 1.157902 -1.7057984 -0.4344773 0.6309842
0.22743633 0.4083632 0.76289696 0.72291464 -1.6424423 0.7268799 -0.28362077 -1.3140384
-0.21600932 -0.5255194 -0.6015425 0.07359458 -0.82685477 1.1921635 1.961704 0.48542002
-0.61228603 -1.9239022 -2.6821966 2.7196956 -1.2017375 0.48387367 0.09295825 -0.44223964
-1.0424523 1.4842101 -0.9304626 0.7880439 0.12142646 1.461533 -0.6334391 -1.5625907
0.16749004 1.1334051 -0.86720306 -0.15418825 0.3676666 -0.45790586 -0.7402196 0.31582463
1.5564253 -0.38736564 1.5268954 0.80203116 -0.6791781 -0.30174696 0.13148579 -0.46965146
-0.11095106 0.74947256 -0.8819746 -0.37282357 -0.2607025 1.32404 0.5287436 0.00144258
0.04000012 -1.403545 -0.643586 0.21994027 0.47232988 -2.7193809 -1.1349108 -0.5294121
-0.23509943 0.051273596 1.9627726 0.8741926 0.91785467 -1.52404 -1.5580288 1.7427264
-0.5194272 2.1780045 -0.71018827 -0.25572246 1.1405393 -0.46399495 -0.3087683 0.96675986
0.50531244 0.94145894 -1.6018759 -0.8845909 1.8067173 1.287349 -1.77308 0.5489507
1.4407628 -0.8486198 -0.14568387 0.24143948 1.187074 0.81608635 0.50775373 1.930918
0.04157669 -0.21930276 0.7043739 1.4807225 0.7953068 0.39990583 -1.2155241 1.1404222
0.9988838 -0.18964005 0.56741226 -0.22468273 0.83364487 -0.47979635 0.50409585 1.5110265
-1.0787647 1.0242926 0.54167175 -0.615573 0.66623515 2.7413836 0.245008 2.7606823
0.27024615 0.43463537 0.1456394 0.9884831 1.5250032 0.046343073 -1.0898651 0.46916428
-1.5092189 1.7125059 0.5204016 -0.4722648 1.6097329 -1.2356763 -1.1388638 -0.9872055
0.68549824 -1.2441423 0.48202723 0.5295467 -0.09608133 -0.38855436 0.17951763 0.40373915
0.8686825 0.22826363 0.010621356 0.6875748 1.262375 -1.5677845 1.117963 0.14895348
-1.8039402 -0.33890346 -1.4069016 -0.6166456 0.1385168 -1.2026381 1.137574 0.8935168
0.32496893 -0.49741915 -0.0997716 1.1936945 -0.16652688 2.9761395 -0.8186457 0.01631105
0.88549733 -0.35260454 -0.029689187 0.3585268 1.5695493 0.17651899 -0.4388697 -0.06652401
1.0143067 -0.9529973 0.858945 -0.04330417 -0.09064134 0.7645997 0.49858806 -0.43127608
-0.35199502 0.5788222 0.94652617 2.260422 -3.0026762 1.0024594 0.38306952 -0.6231099
-0.8023883 -2.047011 0.109276265 1.0261714 1.0507177 0.57822603 -0.3182237 -0.7842074
0.7087628 -0.45475817 0.57132345 -0.72856444 0.66467005 -1.9961138 0.4374461 1.1017743
0.4478431 1.2644281 0.31168607 0.4730905 0.7658544 -0.95081174 1.0514106 -0.20744531

blocks.0.attn.W_O f4 [8, 4, 32]
00000000: c6d2 a93f 0524 483f 93f4 ac3f 21dc 7abf
00000010: 8003 ba3f 2454 ddbe f0d4 ef3f 1712 63bf
00000020: ce02 23be 8c54 843f ad14 f03f 39df f8be
00000030: c982 9e3d 1d27 293e 06a7 0b40 a897 08be
00000040: b160 dabe 1e31 d03f 0874 7abe c5c8 cebe
00000050: 4fb0 883e b2e3 00bf 7792 d23f 6c80 d23e
00000060: 4ba5 963f 7f0c 0340 06e7 973d d744 273e
00000070: aff3 9ebf 185d 2640 1790 bfbe f5e0 4a3f
00000080: a16a bbbe e33c 413e a18f 9e3f 6728 0e3f
00000090: 9a87 ddbf 1685 e53f 56ab 1d40 88ff 45bf
000000a0: 4806 8bbf 4c30 0b40 de4a bd3f 598b febe
000000b0: 0db0 8f3e 2a03 7bbf 41ec dd3e 669d aebf
000000c0: edfc 653f f80a 523f 1060 3f3e 890e a33e
000000d0: 769c 063f 2e70 933f 09fd 193f 6648 0940
000000e0: fc76 fb3f 29c7 123f 7453 aa3f c72a aebe
000000f0: c27a 89bf ff2c 853f 7b29 2c3f 7284 4f3f
00000100: 6c6b 6c3e 8044 0e3e 623c 94bf da04 023f
00000110: 0075 433f e9b5 af3e d137 483f 7eea cb3e
00000120: bb76 0240 581d 1ebf e67d 163f b8b0 2dbf
00000130: c027 443e 2035 f03f b10b babf 32dc 1e3f
00000140: 9119 1e3e 4331 2d3f 5f36 763f 392c 8b3f
00000150: 9f11 443f 0743 453f 0f46 b03e 6195 893f
00000160: 6d80 c9be 9df4 aa3e 0995 77bf a00d ab3e
00000170: dd7a 1fbf 7810 633f 96b3 ac3f c1bb 163f
00000180: 47f2 e3bf a8ce 0bbe 93eb a3bf 9d80 223f
00000190: c11a 3c3f f3da e53d 3f1d 1540 ef6c ebbf
000001a0: 6f9e a4bf 1963 61bf d5ea 0ebf 2425 433f
000001b0: 49a7 ea3f 1de9 af3f 0531 253f b56e 853f
000001c0: 6f34 9d3f ab81 713f 24e8 1840 4f62 a63f
000001d0: d08a 1340 11d0 b9bf c6dc 9cbf af81 573c
000001e0: c671 ab3e 3efc a5be 7024 f4bf bcf7 503f
000001f0: 298f 683f 14df 843f 60a2 0a3f ae24 0a40
00000200: 1c08 133d 3e53 e93e 7384 b63e 090c 0140
00000210: 4cea 72be 2488 5e3f 2e4e 41c0 6266 6fbf
00000220: a02b db3f 7710 a93f 6878 943f 8e28 2340
00000230: a96b 2c3f c32c fbbe ec54 9e3f 8737 e0be
00000240: 8013 9cbe 29c0 7e3f c47d 873f 4896 ef3f
00000250: 16fe 813f c85e 35bf c738 983e 7810 373f
00000260: 133d 713f efbd fc3f 2550 a73f 17a9 4bbd
00000270: 8da0 bf3f ab9e c5be 6fae bf3e f929 3e40
00000280: a664 b93f ef4b 2340 1808 503f 366a b73f
00000290: 129c 263f 7f9d c03e 0a4f 8ebf eaa0 b0be
000002a0: f13d 5c3e c1b2 343f f44b 233f 6b08 82be
000002b0: fbc4 793f b7d3 eb3e eb9b 82bf 867f eebf
000002c0: e574 943e d316 0340 1d90 26bf 8765 31bf
000002d0: bdc7 02bf a556 80bf fa9b 5c3e 0775 ce3d
000002e0: 3dc2 33be 48df ad3e 1f3a 12bf 1915 e0be
000002f0: bb02 993d 9ea9 adbe 9df8 91be b089 0b40
00000300: 2d0e 803f 671d 0440 81d2 4c40 1c1b ef3f
00000310: c6d2 82be cdc2 5bbf 3f24 0140 f539 383f
00000320: 8df3 8a3f 7146 4f3b 721a 4f3f 68c8 1f3f
00000330: 73db e73d 62c8 dc3f 6321 833f 2600 ef3e
00000340: 93f0 9b3f 8583 af3f 711d e53e 163f 983f
00000350: e3fc 1cbf a2c0 5fbf 86be 2940 df5b 993e
00000360: edcd 363f 3246 fb3f fbbd 46bf 985f 0340
00000370: bb8d fc3f 5738 9d3f db07 c2be 6120 ec3f
00000380: 9147 ac3e c2e5 99be e054 07bf 7f3a 26be
00000390: e9e9 883f 3d24 903f 74f4 cd3f d708 cc3e
000003a0: d085 79be a074 84bd be74 cf3c 9048 f1bd
000003b0: 3e09 013f 80ed 41bf 838e 2cbf 5ca0 8dbf
000003c0: 3a0e aa3e 37b0 b9be f041 f83f c6ad 30bf
000003d0: 9b33 30bf 7588 2d3f 4175 233f b51c 983f
000003e0: ca13 28c0 6370 dabc 79b3 f43f b2bc 553f
000003f0: c149 293f 8056 c0bd ca27 edbf 5541 8e3e
1.3267448 0.7817996 1.3512138 -0.9799214 1.4532318 -0.43228257 1.8736858 -0.8869948
-0.15919039 1.0338302 1.875631 -0.48607805 0.07739789 0.16518827 2.1820693 -0.13339102
-0.42651895 1.6264989 -0.24458325 -0.4038755 0.26697013 -0.50347435 1.6450948 0.41113603
1.1769193 2.0476377 0.07417111 0.16334854 -1.2418116 2.599432 -0.3741462 0.7924951
-0.3660479 0.18870883 1.2387582 0.555304 -1.7307007 1.793124 2.4635825 -0.77343035
-1.0861292 2.1748228 1.4788473 -0.4971569 0.28064004 -0.980517 0.4334431 -1.3641784
0.8983906 0.82047987 0.18688989 0.31847027 0.5258249 1.151861 0.60151726 2.1450438
1.9645686 0.57335144 1.3306718 -0.34017012 -1.0740588 1.0404357 0.67250794 0.8106147
0.23087853 0.13893318 -1.1580927 0.5078865 0.763504 0.34318474 0.7821017 0.3982734
2.0384967 -0.61763525 0.58785856 -0.67847776 0.19155788 1.8766212 -1.4534818 0.6205474
0.1543944 0.6765329 0.96176714 1.0872871 0.7658939 0.770554 0.3442845 1.0748712
-0.39355794 0.3338975 -0.96711785 0.33408833 -0.6229685 0.88697004 1.3492305 0.5888024
-1.7808312 -0.13653052 -1.2806267 0.634775 0.73478323 0.11223402 2.32991 -1.8392619
-1.286085 -0.88041836 -0.55827075 0.7622855 1.8332301 1.3743016 0.6452792 1.042441
1.2281626 0.9433848 2.3891687 1.2998751 2.3053474 -1.4516622 -1.2254875 0.013153478
0.3348524 -0.32419008 -1.907362 0.8162801 0.90843445 1.0380578 0.54154015 2.1584888
0.035896406 0.4557132 0.35647926 2.0163596 -0.2372219 0.86926484 -3.0203967 -0.935156
1.7122688 1.320815 1.1599245 2.5493503 0.67351776 -0.49057588 1.2369666 -0.43792364
-0.30483627 0.99511963 1.0585256 1.8717737 1.0155666 -0.7084775 0.29730818 0.71509504
0.94233817 1.9745463 1.3071333 -0.049721804 1.4970871 -0.38597617 0.3743777 2.9713118
1.448384 2.5515096 0.8126235 1.4329288 0.65081894 0.3762016 -1.1117871 -0.34497768
0.21508004 0.70585257 0.6378777 -0.25397047 0.97566193 0.46059963 -1.0203832 -1.8632667
0.28995433 2.048268 -0.6506365 -0.69295543 -0.51086026 -1.0026442 0.21543875 0.10080915
-0.17554565 0.33959413 -0.57119936 -0.43766096 0.07471224 -0.3391847 -0.2850999 2.1802788
1.0004326 2.0642946 3.2003481 1.8680148 -0.25551432 -0.8584412 2.0178373 0.71963435
1.0855576 0.003162768 0.8089973 0.6241517 0.113211535 1.7248652 1.0244564 0.466798
1.2182792 1.3712012 0.44749025 1.1894252 -0.61323375 -0.8740331 2.6522536 0.29952905
0.7140797 1.9630797 -0.7763364 2.0527096 1.9730753 1.2282819 -0.37896618 1.8447381
0.3364835 -0.30058104 -0.52863884 -0.16233252 1.0696384 1.1261059 1.6090226 0.39850494
-0.24367452 -0.06467557 0.025324222 -0.11781418 0.5040473 -0.7575302 -0.67404956 -1.1064563
0.3321398 -0.36267254 1.9395123 -0.6901516 -0.68828744 0.6778634 0.6385079 1.1883761
-2.6262078 -0.026664918 1.9117271 0.8349105 0.66128165 -0.093914986 -1.8527768 0.2778422

blocks.0.attn.b_Q f4 [8, 4]
00000000: 1d8e ad3d 12dc c33c 2f68 db3c 4a50 f2bb
00000010: 063b e4bc e2ac 413c 06e6 9bbc f46a 89bb
00000020: f7ea cebc 456d a93d 784f 863d 9973 1dbe
00000030: a1d6 9abd 4603 d43d 9943 c33d 0484 4e3d
00000040: 8e29 09bd 06bf 74bc 632a 6e3c ca4b ee3c
00000050: de1c ef3c 0740 b3bb 4e9a 4f3c 9f8a a0bc
00000060: 19d6 b9bc 57ea 69bd 308c d83a 6f20 cd3c
00000070: a31f a13d 38a1 edba de49 b0bc 47bf b5bc
0.084743716 0.023908649 0.026783077 -0.007394825 -0.027860176 0.011821004 -0.019030582 -0.004193658
-0.025258524 0.08272795 0.06558126 -0.15376128 -0.075604685 0.10352187 0.095343776 0.05041887
-0.033486895 -0.014938122 0.014536473 0.029088873 0.02918857 -0.005470279 0.012671066 -0.01959735
-0.022685098 -0.05710825 0.0016521271 0.02503988 0.07867362 -0.0018129712 -0.021519598 -0.022185935

blocks.0.attn.b_K f4 [8, 4]
00000000: 5321 9339 0eb9 5d38 3ac4 25b9 3813 043a
00000010: 2a00 0a3a ed7e 1f3a 7a08 6b3a 1b51 3a3a
00000020: da6d b43a 8b39 8139 363b 403a 7fa5 58ba
00000030: a681 82ba b260 79b9 d83e 9dba 3393 743a
00000040: 61ca 2d3a 3c4e 6f3a 8cf6 3d3b a572 07bb
00000050: 1d53 3bba baac d3ba ff9a 9039 e5df 833a
00000060: 1504 80b9 523b 7fb9 1efb a1b9 9123 d0b8
00000070: bd48 bb39 c1af feb8 a4f1 5fb8 ea09 5ab9
0.00028062853 5.286285e-05 -0.00015808726 0.0005038264 0.00052643067 0.0006084282 0.00089658017 0.00071074226
0.0013765648 0.0002464767 0.0007333042 -0.0008264407 -0.0009956851 -0.00023782512 -0.0011996878 0.0009329796
0.0006629583 0.00091287843 0.0028986065 -0.0020667699 -0.0007145869 -0.0016149499 0.000275813 0.0010061233
-0.00024417104 -0.00024340794 -0.0003089541 -9.924838e-05 0.00035721614 -0.000121444005 -5.339239e-05 -0.00020793793

blocks.0.attn.b_V f4 [8, 4]
00000000: a178 33bd 47a6 95bb f575 abbd b071 ffbc
00000010: ff2a 92bd 4946 0a3d 415d adbd b612 90bd
00000020: c5f9 2dbd df8d ccbd 4f8e abbd fd2e 3f3d
00000030: 33b9 02be e602 db3c 45c7 c2bc a0c8 c43c
00000040: f287 c9bd 4bbb 0d3d 3883 8fbc 5e4d b9bd
00000050: 2e5e e3b9 6776 acbd 7242 88bc f575 b7bc
00000060: a04b f5bb 5d2f bebd e8bf a43a f23e 22bd
00000070: d6d0 96bc 8c50 153c 5734 bcbd 9421 d1bd
-0.043816213 -0.004566941 -0.08372108 -0.03118214 -0.07137107 0.033758435 -0.084650524 -0.07034819
-0.042474527 -0.09987997 -0.083767526 0.04667567 -0.1276596 0.02673478 -0.02377666 0.024021447
-0.09840383 0.034602445 -0.017518625 -0.0904796 -0.00043366983 -0.08421021 -0.016633246 -0.022395113
-0.007485822 -0.092863776 0.00125694 -0.03961081 -0.018410128 0.009113442 -0.091896705 -0.10211483

blocks.0.attn.b_O f4 [32]
00000000: 64c6 8dbd b4da e93d 258c 543c 7171 b0bd
00000010: 62a1 82bd 0f87 863d 1424 69bc 9085 ac3d
00000020: 89ac 83bd cd0a 2dbd a346 96bd 9fec 8ebb
00000030: bca4 4a3d 1de3 debc 1399 06bd eade 28bd
00000040: c42f 12bd 82d2 8b3c 9d32 cdbc 557e 31bd
00000050: 2a40 2a3d cd5a 8cbd 986d ae3c 704d e7bd
00000060: 85eb 083d 28bc a0bc d531 8f3c 5905 b0bd
00000070: 3bca 6dbd 46af f8ba f8c6 0e3d f98e 03bd
-0.06922606 0.114186674 0.012972866 -0.08615387 -0.063784376 0.06568729 -0.014229793 0.084239125
-0.06429393 -0.04224663 -0.07337692 -0.0043617035 0.04947351 -0.027207905 -0.032860827 -0.041228212
-0.035690084 0.017068151 -0.025048548 -0.04333337 0.041565098 -0.068532564 0.021292493 -0.11294067
0.033427734 -0.01962097 0.017479816 -0.0859477 -0.05805419 -0.0018973134 0.03485772 -0.03211877
