experiments/20251102_031225/model.pt (torch, 911072 bytes, 79 tensors)

registers f4 [1, 32]
000000 c7 49 51 be 8a 2d 0e 3d 5a ba 31 3e a1 06 cf be
       -0.204383 0.0347114 0.17356244 -0.40434745
000010 a7 c1 3d bc 0d 4a 41 bd 55 75 18 3e 65 55 16 3f
       -0.011581815 -0.04718976 0.14888509 0.5872405
000020 b5 e7 90 3f 41 5d 73 be ab 08 25 bd 01 d1 a5 3d
       1.1320711 -0.23766042 -0.04029147 0.08096505
000030 ae 97 20 3e c7 ba 66 3d 96 b4 28 3f 09 8a 87 be
       0.15682861 0.05633047 0.6590055 -0.264725
000040 23 dc 20 39 96 e9 4e 3f 4e 26 32 3f 35 a3 82 bc
       0.00015340796 0.80825174 0.695897 -0.015946964
000050 0d b3 17 be 35 ab 94 bc 03 a7 52 bb 5a 12 84 be
       -0.14814396 -0.018148044 -0.0032143004 -0.2579525
000060 9c a6 23 be 72 9d 01 3d 02 a1 eb 3e 2a 1f c0 3e
       -0.15981525 0.031644292 0.46021277 0.37523776
000070 aa 1a 55 be 19 32 d1 3d 89 1f 42 bd 4c 7b 96 bd
       -0.20810953 0.102146335 -0.047393356 -0.07347736

pe_grid f4 [36, 32]
000000 87 1b 2e 3f 1f 81 e6 3e 27 e8 01 bf d9 a9 89 3e
       0.68010753 0.45020387 -0.5074486 0.26887396
000010 b5 ed cb 3d 1a 9a 75 be b5 29 1b 3e 14 c1 3a 3e
       0.099574484 -0.23984566 0.15152629 0.18237716
000020 7b 45 38 be 21 84 e7 bd b8 f6 fc 3e 16 aa 26 3d
       -0.17995255 -0.113044985 0.4940698 0.04068955
000030 ec da d8 3c d9 16 77 3e 91 73 81 3e de b0 96 3e
       0.026471578 0.2412981 0.25283483 0.29431814
000040 f0 06 98 3e 34 c4 b3 3d 1b 94 a8 bc f3 ed 2a bd
       0.29692793 0.08777657 -0.020578435 -0.041730832
000050 40 82 ca 3e ec 1d b3 bd 9b cd dc 3d 5e 08 1c 3d
       0.39552498 -0.087459415 0.10781404 0.038093917
000060 78 94 eb be 6c d2 ae 3c 0f e7 28 3e 2f 97 d6 bd
       -0.4601171 0.021340571 0.16494392 -0.10478055
000070 32 18 a9 3e ab 49 23 3d 2a 41 87 be b8 70 db be
       0.33026272 0.039865177 -0.26416904 -0.42859435
000080 a0 3f 59 3f 7f 74 c1 be f3 84 07 3f fb c8 94 3f
       0.8486271 -0.37784192 0.5293724 1.1623834
000090 04 8b 22 bc f6 61 f2 3e 63 3c 0b 3f 69 e6 9f 3e
       -0.009920839 0.47340363 0.5438902 0.31230476
0000a0 d6 58 20 bf a5 4b 36 3a f5 59 46 be 32 ca 30 bd
       -0.6263555 0.0006954021 -0.19370253 -0.04316158
0000b0 f9 16 44 bd fa 71 55 bd c3 f0 9b 3d c4 75 82 be
       -0.04787347 -0.05211065 0.07614281 -0.25480473
0000c0 3c f4 90 be 40 4f df 3e e8 c1 b8 bd b5 55 64 3e
       -0.28311336 0.4361515 -0.0902136 0.2229832
0000d0 fb a1 02 3f 8a f2 d8 3d ff 41 12 bc 4d 59 09 3f
       0.5102841 0.10593136 -0.0089268675 0.5365189
0000e0 e9 5b 13 bf c7 3b 22 3f 26 5b 14 bf fb 13 34 3e
       -0.5756212 0.63372463 -0.5795158 0.17585747
0000f0 46 cf 8e 3e 89 e2 26 be cb 29 a3 bd bc d7 83 3e
       0.27892512 -0.16297354 -0.07966956 0.2575053
000100 f3 13 74 be 3e de 30 3f 8b 5b f5 3e 5a ad e2 be
       -0.23835735 0.69089115 0.47921404 -0.44272882
000110 8c 8b 86 be 3f 82 73 be 55 05 35 3e c0 ad 48 3f
       -0.2627834 -0.23780154 0.17677815 0.7839012
000120 0a de 14 3f cd 9b bd be a8 f7 15 3f fd 3b 24 3e
       0.58151305 -0.3703293 0.5858102 0.16038509
000130 4e 5b 0a be 27 7c 37 3f 98 3c 3a bf 7f 5f e8 3e
       -0.13511392 0.71673816 -0.7274871 0.45385358
000140 92 e4 59 be ce 10 8c bc e2 d8 7c be 19 31 0b bd
       -0.21278599 -0.017097857 -0.24692109 -0.03398237
000150 6e 1d 18 bf d2 c1 e8 be e9 e2 63 be 96 56 26 be
       -0.59419906 -0.45460373 -0.22254528 -0.16243967
000160 fe 7b 18 3e ab ac 53 bf 0f 57 13 bd 9b b6 f1 bd
       0.1489105 -0.82685345 -0.035971697 -0.11802407
000170 5b 68 04 3f bf 0a eb be 5d 38 0c bf 95 00 5b be
       0.51721734 -0.45906636 -0.54773504 -0.21386941
000180 89 fb 01 bf 7c 81 a4 be 04 6f 05 bf 68 ed eb 3e
       -0.5077444 -0.3213004 -0.5212252 0.46079564
000190 f3 43 3c 3e 3b b8 ea 3d 03 3e b8 3e e3 4d 1c be
       0.18385296 0.114609204 0.3598481 -0.15264086
0001a0 a3 ce 88 be 6a 95 18 3e 9c 48 d9 bd ee 60 13 3d
       -0.2672015 0.14900747 -0.10609552 0.03598111
0001b0 a7 55 ac bd fa be 42 bf ff 67 e2 bc 90 3f 8c 3e
       -0.084147744 -0.7607266 -0.02763748 0.27392244
0001c0 ed ce 88 be 69 27 3c bd b3 77 4d 3d c7 89 d6 3d
       -0.26720372 -0.045936022 0.050162982 0.10475498
0001d0 75 66 03 bf e1 9e 5c 3e 60 e7 84 3e e5 9f c9 3e
       -0.5132821 0.21544982 0.25957775 0.39379802
0001e0 73 c2 fa bc bb 46 0b bf 1e 02 05 bf 8b 20 38 bf
       -0.030610299 -0.544048 -0.51956356 -0.71924657
0001f0 8e 6a ab be 28 d8 f2 3e 6d c9 35 bf f9 31 8a be
       -0.33479732 0.4743054 -0.71010476 -0.2699125
000200 de ab d7 3e 2a 56 48 be 53 d4 5e be b6 23 a4 3e
       0.42123312 -0.19564119 -0.21760683 0.32058495
000210 06 f6 c4 be b2 74 e1 bb f0 1a 78 3f 8c ae 67 bd
       -0.3846895 -0.0068803662 0.96916103 -0.056562945
000220 b6 a6 92 3b 24 6a 3b bd 8b d4 b6 3d 33 84 0a bf
       0.00447544 -0.04575552 0.08927258 -0.5410797
000230 fb a6 55 be 1c 60 66 3d d9 8d 29 bf d8 0f c9 3e
       -0.20864479 0.056244 -0.6623207 0.392699
000240 ee 1b 13 3f 50 70 c7 3d be 55 5d bf 71 9c 92 bd
       0.5746449 0.09738219 -0.8645896 -0.07158745
000250 bd 8b 30 bd 89 7f 8d 3e 24 74 b5 be 1e 6a 88 be
       -0.043102015 0.27636364 -0.3544017 -0.2664346
000260 37 e6 8d 3e cc d9 08 3e b3 e0 4d bf 90 e9 21 3f
       0.27714702 0.13364333 -0.8042099 0.63247013
000270 5c 4f fc be b0 e4 a1 be 0f 10 ac be ad 53 02 bf
       -0.49279296 -0.31619787 -0.33606002 -0.5090893
000280 1c 16 a5 be e1 46 98 be 37 b9 a3 bd 8f 9a 08 3e
       -0.3224343 -0.29741576 -0.07994311 0.1334021
000290 a3 dc a3 3d 28 37 2e be d5 83 03 3f ee 0f 1a 3c
       0.080010675 -0.17013228 0.51373035 0.009403212
0002a0 d6 58 06 3d ed e2 39 3f fe 5a 35 3b 25 34 fd ba
       0.032799564 0.72611886 0.0027672644 -0.0019317908
0002b0 58 1b ba 3e 5f 12 46 bf 68 82 ba 3e 55 99 9f bd
       0.36348987 -0.7737178 0.36427617 -0.07792918
0002c0 4e 0d 35 3d 56 81 05 3d fb b2 96 be c8 0e d9 3d
       0.04420214 0.032594047 -0.29433426 0.105985224
0002d0 43 5f 5a 3e 1f 45 13 3f 6b d8 65 be f4 a8 dc be
       0.21325402 0.57527345 -0.22445838 -0.4309765
0002e0 88 dc 75 3e 0a 44 9f be 05 02 84 3e b4 15 20 3e
       0.24009907 -0.31106597 0.2578279 0.15633279
0002f0 bc 6f 5e be ad b5 60 3e d4 d6 37 3e 26 88 2b bd
       -0.21722311 0.21944304 0.17953044 -0.04187789
000300 70 fd 8a be 12 0e 89 3e d5 72 26 bf d8 d8 3e be
       -0.27146482 0.26768547 -0.6501897 -0.18637407
000310 15 61 e9 be 60 f6 de 3e ec a8 9c bf 04 a4 55 3e
       -0.4558188 0.43547344 -1.2239051 0.20863348
000320 ac a1 7c bf ac 26 2a 3f 5a e9 4b 3c 5d 59 a4 3d
       -0.9868419 0.6646526 0.012445772 0.08024857
000330 79 67 89 bd bd 48 ee 3e 07 a9 5b 3f 6e 1f 84 3e
       -0.06709189 0.4653987 0.8580479 0.2580523
000340 1c 97 a9 be 8d 0b 81 bf cc a9 58 3f 99 f9 13 3e
       -0.331231 -1.008165 0.8463409 0.14450683
000350 a1 5d 45 3d a9 85 43 bc ba 36 56 bf f8 8e 9d 3e
       0.048184995 -0.0119337225 -0.83677256 0.3077314
000360 6b 42 2f be 63 48 9e be 32 44 e2 3d af d0 b4 be
       -0.1711518 -0.30914602 0.110481635 -0.35315463
000370 99 53 21 be 56 09 d1 bd ae 43 b3 3e ab 23 60 3e
       -0.15754546 -0.10206859 0.35012573 0.21888606
000380 bb 97 de be 1b 0c 83 be 43 2c 48 bd b1 8c 06 3d
       -0.43475136 -0.25595173 -0.048870336 0.032849018
000390 f3 d6 9a 3e f2 55 e4 be 85 5d f4 bd 7f 0c 31 bf
       0.30242118 -0.4459682 -0.119319 -0.6915969
0003a0 d1 27 22 bf 36 d7 34 3e 92 33 8d 3e 63 66 15 3e
       -0.63342005 0.17660221 0.27578408 0.14589839
0003b0 ec a9 c2 be 9a f7 79 3e 0c 4d 2b 3f ed ea ea 3e
       -0.38020265 0.24410859 0.6691444 0.4588236
0003c0 f9 ca e1 3e a8 47 61 be 57 10 6e be ff 7a d7 be
       0.44100168 -0.21999991 -0.2324842 -0.42086026
0003d0 83 ed 04 3f 4e 0e 18 3e c0 ca 8a 3e bd 77 31 3d
       0.51924914 0.14849207 0.2710781 0.043327082
0003e0 17 92 a3 3d 0b ba f3 3d ee a5 b2 bf 25 3b 7b be
       0.07986849 0.11900719 -1.3956888 -0.2453428
0003f0 40 7f 16 3e 79 40 b7 3e 98 1e 06 3f 77 b5 88 3e
       0.1469698 0.35791376 0.5239043 0.26700947

pe_frames f4 [6, 32]
000000 2d 1a 81 bc 63 45 b1 be 2e 7a d4 bd d3 b3 b0 3e
       -0.015759552 -0.3462325 -0.103748664 0.34512195
000010 44 6a 21 3e be ee 5d 3e e4 46 3b 3e b9 7b b6 3d
       0.15763193 0.21673104 0.18288761 0.08910317
000020 af cc 67 3e 3d 8c 04 bc 54 48 d0 bd e7 bc 58 be
       0.22636674 -0.008090076 -0.101700455 -0.2116581
000030 dd ae b1 3e 4d a8 d2 3d ee 83 01 3e b3 8b 15 3e
       0.34703723 0.10286007 0.12647983 0.14604072
000040 cf 0b e9 be dd 7d 8c be b5 34 52 3d ae 00 96 be
       -0.45516822 -0.27439776 0.051319797 -0.29297394
000050 20 f0 90 bd 04 14 ce 3e 25 4b d2 bd f4 98 8b 3c
       -0.0707705 0.40249646 -0.10268239 0.017040707
000060 f0 86 dc 3d 91 08 c0 bd 23 dd 06 3e 0b bd 00 3e
       0.10767925 -0.09376634 0.13170294 0.12572114
000070 d8 30 8a 3e 3d d8 26 3e 99 5f 58 bd 8d bf 3c 3e
       0.2699039 0.16293426 -0.052825544 0.18432446
000080 c1 d1 63 3c 85 80 00 bb 59 cd 40 3d 43 ee 5b 3d
       0.01390499 -0.0019607854 0.047070835 0.05369402
000090 f2 13 c0 bd b2 1f 55 3c c5 69 a4 bd 48 e3 8d 3e
       -0.09378804 0.013008045 -0.080279864 0.27712464
0000a0 7b c6 1d 3d 69 41 0c be fb 52 d5 3a a6 57 11 be
       0.038519364 -0.13696827 0.001627534 -0.14193591
0000b0 ae 2b 80 bd 21 67 17 be 4c 90 8d 3e 1b e9 1a 3d
       -0.06258331 -0.14785434 0.27649152 0.037819963
0000c0 9b 27 52 ba 82 1e 36 3d 80 fd 27 3e d8 2e 23 3e
       -0.0008016766 0.04446269 0.16405296 0.15935838
0000d0 56 88 8c bd c2 b8 9c be 79 71 ed 3d 85 9a e0 3d
       -0.068619415 -0.3060971 0.11593909 0.10966972
0000e0 44 5d 80 3e 35 1f 01 3d 0f 90 49 3d 88 6c 88 3d
       0.25071156 0.031523902 0.04920965 0.06661326
0000f0 4c 57 98 bd 22 2b 08 3c 1f bd 4b bc f4 6e 88 3d
       -0.074385256 0.008311065 -0.012435227 0.06661788
000100 31 e6 d7 3e 63 4f 36 be 8e 8b 88 3e 23 09 94 3e
       0.4216781 -0.17803721 0.26668972 0.2891322
000110 5a d6 1f 3e 9b 23 93 be e3 fe 3b 3d ff a7 3c 3c
       0.15609112 -0.28738102 0.045897376 0.011514663
000120 35 3c 00 be 27 17 d4 3e 75 62 c3 3e 06 8f d9 3d
       -0.12522967 0.41423914 0.38161054 0.10622983
000130 51 61 02 bc a0 ef a8 3d d8 7e bb 3d 77 0e 97 3e
       -0.007957772 0.0824883 0.09155053 0.29503223
000140 fd f4 88 3c 6d 2c 16 be 91 dc 77 bd 57 48 49 be
       0.016718382 -0.14665385 -0.060513083 -0.19656502
000150 86 43 cc 3e e4 4c 6a bd 08 f3 26 be 6f ea 6e 3d
       0.39895266 -0.057202235 -0.16303647 0.058329042
000160 7d fe b6 bd 0b 84 88 ba 35 d8 83 3e 4f c6 c4 bc
       -0.089352585 -0.0010415328 0.2575089 -0.024020342
000170 73 d1 28 be 3d a3 c7 bb 93 1f fa 3b 63 79 b5 be
       -0.16486149 -0.0060924576 0.0076331585 -0.35444173
000180 ac 24 aa bd 7f 84 da ba 06 57 06 bd 7c b0 35 3e
       -0.08307776 -0.0016671567 -0.032797836 0.17743105
000190 dc 38 90 be 85 36 46 3e 36 cf a4 3d e8 a2 45 be
       -0.2816838 0.19356735 0.08047335 -0.19300425
0001a0 02 ac 88 bd fa c5 ce 3b 74 79 80 bd 7a 08 03 3d
       -0.06673433 0.0063102217 -0.06273165 0.031990506
0001b0 96 6a 99 bd 65 e8 46 3c 1f 8d cd bc 18 ad b6 3e
       -0.07491033 0.012140368 -0.025091706 0.35678935
0001c0 ec 4f 0e 3e 85 8b 78 3b 10 8f 08 3e 14 3c d9 bd
       0.13897675 0.0037924957 0.13335824 -0.10607162
0001d0 77 09 1f 3e 14 a9 53 3e 61 e3 be 3e 62 39 0e 3e
       0.15530954 0.20669967 0.3728285 0.13889077
0001e0 f9 aa 20 bb f6 9d 56 be 03 00 12 bd fa eb 52 be
       -0.002451597 -0.20958695 -0.035644542 -0.2059783
0001f0 72 0e a9 be b1 40 fb 3d fe 13 23 3d b8 ca e6 3d
       -0.33018833 0.12268198 0.039813988 0.11269134
000200 8f 76 f2 bd 79 eb 04 bc a9 00 1b be f1 16 12 bd
       -0.118390195 -0.008112782 -0.1513697 -0.03566641
000210 ae 2e 4a bd e4 b3 9d bc 7f 56 19 bd 24 e2 3b 3e
       -0.049360923 -0.019250818 -0.037436005 0.18347985
000220 5c b4 65 3b 6f 67 3c be 31 43 c7 3d 51 32 4d 3d
       0.003505013 -0.18398832 0.097296126 0.050096814
000230 33 81 f8 3c e7 79 00 3f 00 44 08 3d 9c ce 9f 3d
       0.030335044 0.5018601 0.033267975 0.078030795
000240 69 8c aa be da 3a ba 3d 0d 5e 99 bd 38 fd 97 3d
       -0.3331025 0.09093256 -0.07488642 0.074213445
000250 38 1c 58 bb 12 f3 a1 bd 85 61 b4 bd 8e 45 52 3d
       -0.0032975804 -0.0790769 -0.08807663 0.051335864
000260 8a d7 19 3b 4a 91 d8 bd c7 bf be 3d 16 f3 1d 3e
       0.0023474419 -0.10574587 0.093139224 0.15424761
000270 f5 9a a3 bd de 39 ef be 70 f5 14 bb f2 07 19 3d
       -0.0798854 -0.46723837 -0.00227293 0.037361093
000280 98 2d 0a 3e 41 23 31 3e 1f 01 bd 3b c7 ea ef be
       0.13493955 0.17298605 0.005767956 -0.46858808
000290 e4 c8 11 be 1d 53 58 bd d7 4e 5f be c4 c1 ef bd
       -0.1423679 -0.052813638 -0.21807419 -0.1170688
0002a0 76 09 e9 3d c4 55 b8 3e 23 43 80 3e 2a e9 1e 3d
       0.11378758 0.36002934 0.2505122 0.03879658
0002b0 59 44 a0 3d fb c2 b6 3d 64 1d b1 bd 5a 16 0b 3e
       0.07825536 0.08923908 -0.08648184 0.13582745
0002c0 02 19 e4 3d 1a 1b fb bd a9 00 55 3d 63 b5 4c 3c
       0.11137582 -0.122610286 0.052002583 0.012494418
0002d0 67 fd 3e 3e e0 99 88 bd ed 53 cd 3d 41 d2 4b be
       0.18651353 -0.06669974 0.10025773 -0.19904424
0002e0 4a e8 c5 bd 24 1f 8e bc 17 a3 96 3e 6f e0 7e 3e
       -0.09663446 -0.017348833 0.29421303 0.24890302
0002f0 25 d6 f9 bd 3b 53 89 be 93 6b 02 bd 08 43 d8 3d
       -0.12199048 -0.26821312 -0.031840872 0.1055966

frame_rope.sins f4 [1, 20000, 1, 4]
000000 00 00 00 00 00 00 00 00 00 00 00 00 00 00 00 00
       0.0 0.0 0.0 0.0
000010 a4 6a 57 3f a4 6a 57 3f 57 d6 23 3c 57 d6 23 3c
       0.84147096 0.84147096 0.009999833 0.009999833
000020 b7 c7 68 3f b7 c7 68 3f 3e d4 a3 3c 3e d4 a3 3c
       0.9092974 0.9092974 0.019998666 0.019998666
000030 c3 81 10 3e c3 81 10 3e 1f b9 f5 3c 1f b9 f5 3c
       0.14112 0.14112 0.0299955 0.0299955
000040 cf bd 41 bf cf bd 41 bf db cb 23 3d db cb 23 3d
       -0.7568025 -0.7568025 0.039989334 0.039989334
000050 10 7c 75 bf 10 7c 75 bf f4 b6 4c 3d f4 b6 4c 3d
       -0.9589243 -0.9589243 0.049979165 0.049979165
000060 8c 0f 8f be 8c 0f 8f be d1 9c 75 3d d1 9c 75 3d
       -0.2794155 -0.2794155 0.059964005 0.059964005
000070 46 30 28 3f 46 30 28 3f 32 3e 8f 3d 32 3e 8f 3d
       0.6569866 0.6569866 0.06994285 0.06994285
000080 95 46 7d 3f 95 46 7d 3f 50 aa a3 3d 50 aa a3 3d
       0.98935825 0.98935825 0.07991469 0.07991469
000090 32 01 d3 3e 32 01 d3 3e 3e 12 b8 3d 3e 12 b8 3d
       0.4121185 0.4121185 0.089878544 0.089878544
0000a0 f8 44 0b bf f8 44 0b bf 76 75 cc 3d 76 75 cc 3d
       -0.5440211 -0.5440211 0.099833414 0.099833414
0000b0 5c ff 7f bf 5c ff 7f bf 72 d3 e0 3d 72 d3 e0 3d
       -0.9999902 -0.9999902 0.1097783 0.1097783
0000c0 d8 5c 09 bf d8 5c 09 bf ac 2b f5 3d ac 2b f5 3d
       -0.53657293 -0.53657293 0.119712204 0.119712204
0000d0 22 20 d7 3e 22 20 d7 3e d0 be 04 3e d0 be 04 3e
       0.42016703 0.42016703 0.12963414 0.12963414
0000e0 72 98 7d 3f 72 98 7d 3f 64 e4 0e 3e 64 e4 0e 3e
       0.9906074 0.9906074 0.13954312 0.13954312
0000f0 44 79 26 3f 44 79 26 3f 4f 06 19 3e 4f 06 19 3e
       0.65028787 0.65028787 0.14943813 0.14943813
000100 10 68 93 be 10 68 93 be 50 24 23 3e 50 24 23 3e
       -0.2879033 -0.2879033 0.15931821 0.15931821
000110 26 1e 76 bf 26 1e 76 bf 23 3e 2d 3e 23 3e 2d 3e
       -0.9613975 -0.9613975 0.16918235 0.16918235
000120 b3 40 40 bf b3 40 40 bf 87 53 37 3e 87 53 37 3e
       -0.75098723 -0.75098723 0.17902957 0.17902957
000130 69 79 19 3e 69 79 19 3e 3a 64 41 3e 3a 64 41 3e
       0.1498772 0.1498772 0.1888589 0.1888589
000140 c8 b6 69 3f c8 b6 69 3f f8 6f 4b 3e f8 6f 4b 3e
       0.9129453 0.9129453 0.19866931 0.19866931
000150 10 2f 56 3f 10 2f 56 3f 83 76 55 3e 83 76 55 3e
       0.8366556 0.8366556 0.2084599 0.2084599
000160 15 05 11 bc 15 05 11 bc 96 77 5f 3e 96 77 5f 3e
       -0.008851309 -0.008851309 0.21822962 0.21822962
000170 e6 a1 58 bf e6 a1 58 bf f0 72 69 3e f0 72 69 3e
       -0.8462204 -0.8462204 0.22797751 0.22797751
000180 fc d3 67 bf fc d3 67 bf 51 68 73 3e 51 68 73 3e
       -0.9055784 -0.9055784 0.23770262 0.23770262
000190 38 87 07 be 38 87 07 be 77 57 7d 3e 77 57 7d 3e
       -0.13235176 -0.13235176 0.24740396 0.24740396
0001a0 08 37 43 3f 08 37 43 3f 10 a0 83 3e 10 a0 83 3e
       0.76255846 0.76255846 0.25708055 0.25708055
0001b0 0e d5 74 3f 0e d5 74 3f 05 91 88 3e 05 91 88 3e
       0.95637596 0.95637596 0.2667314 0.2667314
0001c0 2a b4 8a 3e 2a b4 8a 3e 7d 7e 8d 3e 7d 7e 8d 3e
       0.2709058 0.2709058 0.27635565 0.27635565
0001d0 e9 e3 29 bf e9 e3 29 bf 54 68 92 3e 54 68 92 3e
       -0.6636339 -0.6636339 0.2859522 0.2859522
0001e0 a4 ef 7c bf a4 ef 7c bf 6c 4e 97 3e 6c 4e 97 3e
       -0.9880316 -0.9880316 0.2955202 0.2955202
0001f0 06 de ce be 06 de ce be a5 30 9c 3e a5 30 9c 3e
       -0.40403765 -0.40403765 0.30505863 0.30505863
000200 4d 2a 0d 3f 4d 2a 0d 3f de 0e a1 3e de 0e a1 3e
       0.5514267 0.5514267 0.31456655 0.31456655
000210 39 fa 7f 3f 39 fa 7f 3f f7 e8 a5 3e f7 e8 a5 3e
       0.99991184 0.99991184 0.324043 0.324043
000220 f7 71 07 3f f7 71 07 3f d2 be aa 3e d2 be aa 3e
       0.5290827 0.5290827 0.3334871 0.3334871
000230 c2 3a db be c2 3a db be 4d 90 af 3e 4d 90 af 3e
       -0.42818266 -0.42818266 0.3428978 0.3428978
000240 38 e5 7d bf 38 e5 7d bf 49 5d b4 3e 49 5d b4 3e
       -0.99177885 -0.99177885 0.3522742 0.3522742
000250 ea be 24 bf ea be 24 bf a9 25 b9 3e a9 25 b9 3e
       -0.6435381 -0.6435381 0.36161545 0.36161545
000260 9f bd 97 3e 9f bd 97 3e 4a e9 bd 3e 4a e9 bd 3e
       0.29636857 0.29636857 0.37092048 0.37092048
000270 4c bb 76 3f 4c bb 76 3f 0e a8 c2 3e 0e a8 c2 3e
       0.9637954 0.9637954 0.3801884 0.3801884
000280 bc bf 3e 3f bc bf 3e 3f d7 61 c7 3e d7 61 c7 3e
       0.74511313 0.74511313 0.38941833 0.38941833
000290 fb 6d 22 be fb 6d 22 be 86 16 cc 3e 86 16 cc 3e
       -0.15862267 -0.15862267 0.39860934 0.39860934
0002a0 28 a1 6a bf 28 a1 6a bf fa c5 d0 3e fa c5 d0 3e
       -0.91652155 -0.91652155 0.40776044 0.40776044
0002b0 30 ef 54 bf 30 ef 54 bf 16 70 d5 3e 16 70 d5 3e
       -0.8317747 -0.8317747 0.41687077 0.41687077
0002c0 a1 03 91 3c a1 03 91 3c bd 14 da 3e bd 14 da 3e
       0.017701926 0.017701926 0.42593947 0.42593947
0002d0 d0 d4 59 3f d0 d4 59 3f cd b3 de 3e cd b3 de 3e
       0.8509035 0.8509035 0.43496552 0.43496552
0002e0 9a db 66 3f 9a db 66 3f 2a 4d e3 3e 2a 4d e3 3e
       0.90178835 0.90178835 0.4439481 0.4439481
0002f0 e8 13 fd 3d e8 13 fd 3d b6 e0 e7 3e b6 e0 e7 3e
       0.123573124 0.123573124 0.45288628 0.45288628
000300 56 ac 44 bf 56 ac 44 bf 52 6e ec 3e 52 6e ec 3e
       -0.76825464 -0.76825464 0.46177918 0.46177918
000310 22 29 74 bf 22 29 74 bf e0 f5 f0 3e e0 f5 f0 3e
       -0.95375264 -0.95375264 0.47062588 0.47062588
000320 ff 55 86 be ff 55 86 be 44 77 f5 3e 44 77 f5 3e
       -0.26237485 -0.26237485 0.47942555 0.47942555
000330 24 94 2b 3f 24 94 2b 3f 5e f2 f9 3e 5e f2 f9 3e
       0.6702292 0.6702292 0.48817724 0.48817724
000340 a0 93 7c 3f a0 93 7c 3f 12 67 fe 3e 12 67 fe 3e
       0.9866276 0.9866276 0.4968801 0.4968801
000350 b4 b6 ca 3e b4 b6 ca 3e a2 6a 01 3f a2 6a 01 3f
       0.39592516 0.39592516 0.50553334 0.50553334
000360 cd 0c 0f bf cd 0c 0f bf 6a 9e 03 3f 6a 9e 03 3f
       -0.5587891 -0.5587891 0.51413596 0.51413596
000370 f4 ef 7f bf f4 ef 7f bf d5 ce 05 3f d5 ce 05 3f
       -0.99975514 -0.99975514 0.52268726 0.52268726
000380 5e 84 05 bf 5e 84 05 bf d2 fb 07 3f d2 fb 07 3f
       -0.521551 -0.521551 0.5311862 0.5311862
000390 fd 50 df 3e fd 50 df 3e 53 25 0a 3f 53 25 0a 3f
       0.43616477 0.43616477 0.539632 0.539632
0003a0 e7 2c 7e 3f e7 2c 7e 3f 4c 4b 0c 3f 4c 4b 0c 3f
       0.99287266 0.99287266 0.54802394 0.54802394
0003b0 43 01 23 3f 43 01 23 3f ad 6d 0e 3f ad 6d 0e 3f
       0.636738 0.636738 0.556361 0.556361
0003c0 23 10 9c be 23 10 9c be 68 8c 10 3f 68 8c 10 3f
       -0.3048106 -0.3048106 0.5646424 0.5646424
0003d0 7f 53 77 bf 7f 53 77 bf 71 a7 12 3f 71 a7 12 3f
       -0.9661178 -0.9661178 0.57286745 0.57286745
0003e0 f2 3a 3d bf f2 3a 3d bf b8 be 14 3f b8 be 14 3f
       -0.7391807 -0.7391807 0.58103514 0.58103514
0003f0 4b 5f 2b 3e 4b 5f 2b 3e 31 d2 16 3f 31 d2 16 3f
       0.1673557 0.1673557 0.58914477 0.58914477

frame_rope.coss f4 [1, 20000, 1, 4]
000000 00 00 80 3f 00 00 80 3f 00 00 80 3f 00 00 80 3f
       1.0 1.0 1.0 1.0
000010 41 51 0a 3f 41 51 0a 3f b9 fc 7f 3f b9 fc 7f 3f
       0.54030234 0.54030234 0.99995 0.99995
000020 33 11 d5 be 33 11 d5 be e5 f2 7f 3f e5 f2 7f 3f
       -0.41614684 -0.41614684 0.9998 0.9998
000030 26 70 7d bf 26 70 7d bf 83 e2 7f 3f 83 e2 7f 3f
       -0.9899925 -0.9899925 0.99955004 0.99955004
000040 30 55 27 bf 30 55 27 bf 94 cb 7f 3f 94 cb 7f 3f
       -0.6536436 -0.6536436 0.9992001 0.9992001
000050 2c 3c 91 3e 2c 3c 91 3e 19 ae 7f 3f 19 ae 7f 3f
       0.2836622 0.2836622 0.99875027 0.99875027
000060 b8 cd 75 3f b8 cd 75 3f 12 8a 7f 3f 12 8a 7f 3f
       0.96017027 0.96017027 0.99820054 0.99820054
000070 bd ff 40 3f bd ff 40 3f 81 5f 7f 3f 81 5f 7f 3f
       0.75390226 0.75390226 0.997551 0.997551
000080 f6 fd 14 be f6 fd 14 be 65 2e 7f 3f 65 2e 7f 3f
       -0.14550003 -0.14550003 0.9968017 0.9968017
000090 d5 3f 69 bf d5 3f 69 bf c2 f6 7e 3f c2 f6 7e 3f
       -0.91113025 -0.91113025 0.9959527 0.9959527
0000a0 64 cd 56 bf 64 cd 56 bf 98 b8 7e 3f 98 b8 7e 3f
       -0.8390715 -0.8390715 0.9950042 0.9950042
0000b0 72 05 91 3b 72 05 91 3b e8 73 7e 3f e8 73 7e 3f
       0.004425698 0.004425698 0.9939561 0.9939561
0000c0 d0 06 58 3f d0 06 58 3f b5 28 7e 3f b5 28 7e 3f
       0.84385395 0.84385395 0.99280864 0.99280864
0000d0 6f 4e 68 3f 6f 4e 68 3f 00 d7 7d 3f 00 d7 7d 3f
       0.9074468 0.9074468 0.9915619 0.9915619
0000e0 d7 04 0c 3e d7 04 0c 3e cc 7e 7d 3f cc 7e 7d 3f
       0.13673721 0.13673721 0.990216 0.990216
0000f0 e8 7a 42 bf e8 7a 42 bf 1a 20 7d 3f 1a 20 7d 3f
       -0.7596879 -0.7596879 0.9887711 0.9887711
000100 2c 29 75 bf 2c 29 75 bf ed ba 7c 3f ed ba 7c 3f
       -0.9576595 -0.9576595 0.98722726 0.98722726
000110 36 e2 8c be 36 e2 8c be 49 4f 7c 3f 49 4f 7c 3f
       -0.27516335 -0.27516335 0.9855848 0.9855848
000120 84 0a 29 3f 84 0a 29 3f 2e dd 7b 3f 2e dd 7b 3f
       0.6603167 0.6603167 0.9838437 0.9838437
000130 bf 1b 7d 3f bf 1b 7d 3f a1 64 7b 3f a1 64 7b 3f
       0.9887046 0.9887046 0.9820042 0.9820042
000140 22 f0 d0 3e 22 f0 d0 3e a5 e5 7a 3f a5 e5 7a 3f
       0.40808207 0.40808207 0.9800666 0.9800666
000150 fc 37 0c bf fc 37 0c bf 3c 60 7a 3f 3c 60 7a 3f
       -0.54772925 -0.54772925 0.9780309 0.9780309
000160 6f fd 7f bf 6f fd 7f bf 6a d4 79 3f 6a d4 79 3f
       -0.99996084 -0.99996084 0.97589743 0.97589743
000170 bf 67 08 bf bf 67 08 bf 34 42 79 3f 34 42 79 3f
       -0.53283304 -0.53283304 0.9736664 0.9736664
000180 fe 2d d9 3e fe 2d d9 3e 9b a9 78 3f 9b a9 78 3f
       0.42417902 0.42417902 0.971338 0.971338
000190 78 bf 7d 3f 78 bf 7d 3f a5 0a 78 3f a5 0a 78 3f
       0.99120283 0.99120283 0.9689124 0.9689124
0001a0 81 9c 25 3f 81 9c 25 3f 56 65 77 3f 56 65 77 3f
       0.6469193 0.6469193 0.96639 0.96639
0001b0 38 93 95 be 38 93 95 be b1 b9 76 3f b1 b9 76 3f
       -0.29213881 -0.29213881 0.9637709 0.9637709
0001c0 57 6d 76 bf 57 6d 76 bf bb 07 76 3f bb 07 76 3f
       -0.9626059 -0.9626059 0.96105546 0.96105546
0001d0 b3 80 3f bf b3 80 3f bf 79 4f 75 3f 79 4f 75 3f
       -0.74805754 -0.74805754 0.9582439 0.9582439
0001e0 18 f4 1d 3e 18 f4 1d 3e ef 90 74 3f ef 90 74 3f
       0.15425146 0.15425146 0.9553365 0.9553365
0001f0 8e 2c 6a 3f 8e 2c 6a 3f 22 cc 73 3f 22 cc 73 3f
       0.91474235 0.91474235 0.95233357 0.95233357
000200 a9 8f 55 3f a9 8f 55 3f 18 01 73 3f 18 01 73 3f
       0.83422333 0.83422333 0.94923544 0.94923544
000210 b7 86 59 bc b7 86 59 bc d5 2f 72 3f d5 2f 72 3f
       -0.013276747 -0.013276747 0.94604236 0.94604236
000220 e7 3b 59 bf e7 3b 59 bf 5f 58 71 3f 5f 58 71 3f
       -0.8485703 -0.8485703 0.9427547 0.9427547
000230 5f 58 67 bf 5f 58 67 bf bb 7a 70 3f bb 7a 70 3f
       -0.9036922 -0.9036922 0.9393727 0.9393727
000240 ea 08 03 be ea 08 03 be ef 96 6f 3f ef 96 6f 3f
       -0.12796369 -0.12796369 0.9358968 0.9358968
000250 2d f2 43 3f 2d f2 43 3f 01 ad 6e 3f 01 ad 6e 3f
       0.76541406 0.76541406 0.93232733 0.93232733
000260 b5 7f 74 3f b5 7f 74 3f f7 bc 6d 3f f7 bc 6d 3f
       0.95507365 0.95507365 0.9286646 0.9286646
000270 6c 85 88 3e 6c 85 88 3e d7 c6 6c 3f d7 c6 6c 3f
       0.26664293 0.26664293 0.92490906 0.92490906
000280 74 bc 2a bf 74 bc 2a bf a7 ca 6b 3f a7 ca 6b 3f
       -0.66693807 -0.66693807 0.921061 0.921061
000290 44 c2 7c bf 44 c2 7c bf 6e c8 6a 3f 6e c8 6a 3f
       -0.98733926 -0.98733926 0.9171208 0.9171208
0002a0 e0 ca cc be e0 ca cc be 33 c0 69 3f 33 c0 69 3f
       -0.3999853 -0.3999853 0.913089 0.913089
0002b0 e8 1b 0e 3f e8 1b 0e 3f fb b1 68 3f fb b1 68 3f
       0.5551133 0.5551133 0.90896577 0.90896577
0002c0 bb f5 7f 3f bb f5 7f 3f ce 9d 67 3f ce 9d 67 3f
       0.9998433 0.9998433 0.90475166 0.90475166
0002d0 81 7b 06 3f 81 7b 06 3f b4 83 66 3f b4 83 66 3f
       0.525322 0.525322 0.90044713 0.90044713
0002e0 6e 46 dd be 6e 46 dd be b2 63 65 3f b2 63 65 3f
       -0.43217796 -0.43217796 0.8960525 0.8960525
0002f0 b3 09 7e bf b3 09 7e bf d2 3d 64 3f d2 3d 64 3f
       -0.9923355 -0.9923355 0.8915683 0.8915683
000300 80 e0 23 bf 80 e0 23 bf 1a 12 63 3f 1a 12 63 3f
       -0.64014435 -0.64014435 0.88699496 0.88699496
000310 44 e7 99 3e 44 e7 99 3e 91 e0 61 3f 91 e0 61 3f
       0.30059254 0.30059254 0.88233286 0.88233286
000320 04 08 77 3f 04 08 77 3f 40 a9 60 3f 40 a9 60 3f
       0.96496606 0.96496606 0.87758255 0.87758255
000330 d1 fd 3d 3f d1 fd 3d 3f 2f 6c 5f 3f 2f 6c 5f 3f
       0.7421542 0.7421542 0.8727445 0.8727445
000340 0e e7 26 be 0e e7 26 be 66 29 5e 3f 66 29 5e 3f
       -0.16299078 -0.16299078 0.8678192 0.8678192
000350 95 14 6b bf 95 14 6b bf ed e0 5c 3f ed e0 5c 3f
       -0.9182828 -0.9182828 0.8628071 0.8628071
000360 a6 4d 54 bf a6 4d 54 bf cc 92 5b 3f cc 92 5b 3f
       -0.8293098 -0.8293098 0.8577087 0.8577087
000370 2c 43 b5 3c 2c 43 b5 3c 0c 3f 5a 3f 0c 3f 5a 3f
       0.022126757 0.022126757 0.8525245 0.8525245
000380 a2 6c 5a 3f a2 6c 5a 3f b6 e5 58 3f b6 e5 58 3f
       0.8532201 0.8532201 0.8472551 0.8472551
000390 ac 5d 66 3f ac 5d 66 3f d3 86 57 3f d3 86 57 3f
       0.8998668 0.8998668 0.841901 0.841901
0003a0 b7 14 f4 3d b7 14 f4 3d 6b 22 56 3f 6b 22 56 3f
       0.119180135 0.119180135 0.8364627 0.8364627
0003b0 83 65 45 bf 83 65 45 bf 87 b8 54 3f 87 b8 54 3f
       -0.7710802 -0.7710802 0.83094066 0.83094066
0003c0 56 d1 73 bf 56 d1 73 bf 32 49 53 3f 32 49 53 3f
       -0.95241296 -0.95241296 0.8253356 0.8253356
0003d0 e6 25 84 be e6 25 84 be 74 d4 51 3f 74 d4 51 3f
       -0.25810164 -0.25810164 0.819648 0.819648
0003e0 f7 6a 2c 3f f7 6a 2c 3f 57 5a 50 3f 57 5a 50 3f
       0.67350715 0.67350715 0.8138785 0.8138785
0003f0 b8 63 7c 3f b8 63 7c 3f e4 da 4e 3f e4 da 4e 3f
       0.9858966 0.9858966 0.8080275 0.8080275

blocks.0.norm1.fc.weight f4 [64, 32]
000000 38 e4 2f bd 08 41 2b 3e d9 7a ea 3e 8f 8c 05 3f
       -0.042942256 0.16724026 0.4579685 0.521676
000010 28 8c e0 3e 5b ad eb bc e2 a8 92 be 36 8e 80 3d
       0.4385693 -0.028769186 -0.28644472 0.062771246
000020 91 5d 29 3e a5 37 81 3d d2 52 f0 3e 83 27 04 3f
       0.16539599 0.063094415 0.46938187 0.5162279
000030 1b af ba 3b fa 7b 13 3e c2 67 41 3f 6f d0 fe bd
       0.0056971437 0.14402762 0.75548947 -0.12442099
000040 05 06 24 3e d0 f1 28 be cf a2 9c bf c7 d0 a5 3e
       0.16017921 -0.16498494 -1.2237185 0.32385847
000050 5e 22 7e be 6c 5a ad be b1 c8 1e be c3 b4 92 be
       -0.24817798 -0.3385805 -0.15506245 -0.28653535
000060 81 48 d8 3e 0a 76 2e 3e 5e bb ba bd d7 cd 4d 3d
       0.42242816 0.17037216 -0.09117769 0.050245132
000070 60 ef 6a 3d 18 cb d2 3c fc c3 ed 3e 2b b1 ae 3e
       0.057357192 0.025731608 0.46438587 0.34119543
000080 dc 2d 10 3f 0e ee 0e bc 9e af 72 3e 8e 7c 12 3f
       0.56319976 -0.008723749 0.23699805 0.57221305
000090 17 90 79 bd d5 b7 c7 bd fd 2f ca 3c 44 a2 7c 3e
       -0.06092843 -0.0975186 0.024681086 0.24671274
0000a0 a5 a0 c3 3e 60 9b 3c be 8f d5 33 bd 71 8e 75 be
       0.382085 -0.18418646 -0.043904837 -0.23980118
0000b0 52 f6 5c bc 64 d1 c4 3d 87 01 3a be b9 81 2f be
       -0.013486462 0.096102506 -0.18164645 -0.17139329
0000c0 58 19 8a be bf 5b 82 be c9 77 6d 3e 07 93 f9 bd
       -0.2697246 -0.25460622 0.23190226 -0.12186246
0000d0 f7 aa 11 3f 9b 56 03 3f 81 62 1c 3f 72 39 09 be
       0.56901497 0.51304024 0.61087805 -0.1340082
0000e0 a1 8a 12 bf d3 d2 cd be ac e3 f3 3e 55 96 ee 3e
       -0.5724278 -0.4019991 0.47634637 0.4659907
0000f0 98 e8 4d 3e af f5 fb 3d 8f 04 f1 3d 42 f2 10 3e
       0.20108259 0.1230272 0.117684476 0.14154914
000100 b7 df df bd 43 d5 e2 be 08 33 d8 3e 77 f9 5f be
       -0.10931342 -0.4430333 0.42226434 -0.21872507
000110 c0 6c 79 3f f9 4d f2 3d b7 0b 1d be 07 e1 2f bd
       0.97431564 0.11831278 -0.153365 -0.042939212
000120 18 68 60 be c4 68 ca 3e 0e 90 ce bd 6a 7b 3b 3e
       -0.21914709 0.39533055 -0.1008607 0.18308797
000130 28 5a 37 3f a2 1d 68 3d 9a a8 ba be c0 49 ea 3e
       0.7162194 0.056668885 -0.36456758 0.45759392
000140 fc ba 5e be 5b 90 8b be 84 d8 14 bd 08 e9 ae 3e
       -0.21751016 -0.27258572 -0.036339298 0.34162164
000150 6b 63 a8 3e ea be 9d 3e 25 d4 93 3e c8 02 dc bd
       0.3288835 0.30809718 0.2887279 -0.10742718
000160 c1 b8 28 3f 8c aa 17 be f0 4f 0e bf 14 29 bf 3e
       0.6590691 -0.14811152 -0.55590725 0.37336028
000170 2c 64 8b be c3 85 85 3e f1 38 a5 bc f1 e4 77 be
       -0.27224863 0.26078615 -0.020168753 -0.24208428
000180 62 2c a4 3e 6d ea 25 be 1b b2 4a bc bc a3 7d be
       0.3206511 -0.16202708 -0.012371565 -0.24769491
000190 1e fb 01 3f 66 10 95 be a2 60 cb 3b d4 2d dd be
       0.507738 -0.29114074 0.006206588 -0.43199027
0001a0 1e c9 e6 3e 57 ad 4a 3d 95 30 d1 bd a0 77 32 3f
       0.45075315 0.049481716 -0.102143444 0.69713783
0001b0 43 6b a2 3d 44 0f aa 3e e0 0c a6 bc 37 81 1c 3f
       0.07930615 0.33214772 -0.020269811 0.61134666
0001c0 a3 40 ca 3e 0f 32 b5 bd 84 fb 8a be 9b 0b 44 bc
       0.3950244 -0.088474385 -0.27145016 -0.011965658
0001d0 08 a3 a3 bc 25 de 85 be 94 de 58 3c 8c 2a 59 3e
       -0.0199752 -0.26146045 0.0132366605 0.21207637
0001e0 15 00 dd 3e d8 d6 21 3c 2d f3 06 be 21 c7 13 3f
       0.43164125 0.009877883 -0.13178702 0.5772572
0001f0 88 be fa 3c 42 35 35 bd 06 c9 47 3e 82 e6 7f 3e
       0.03060843 -0.044240244 0.19510278 0.24990276
000200 ce c8 77 3e 38 f9 1b be 2b 61 8c 3e ef be b2 be
       0.24197695 -0.15231788 0.27417883 -0.34911296
000210 6d a9 81 be 95 fc d1 3d da d1 0a be 35 e5 db 3e
       -0.25324574 0.10253254 -0.13556615 0.4294831
000220 e8 8b 68 3e 71 20 42 bd 99 33 83 bc a7 34 44 3e
       0.2270962 -0.04739422 -0.016015815 0.1916071
000230 f9 4d 94 3e 03 fe 2e bd bb 71 6f bd 34 0c d5 3e
       0.28965738 -0.042722713 -0.05845807 0.41610873
000240 02 15 bd 3c e3 5f c2 bd 9c 00 1e 3e 0c 53 1c bf
       0.023081306 -0.09490945 0.1542992 -0.6106422
000250 3a a9 cb 3e 4e 55 98 3e 85 74 d8 be 7c 5a 61 3d
       0.39777547 0.29752582 -0.42276397 0.055017933
000260 dc 48 84 3e a6 84 58 be 68 7c ef be 70 b0 e4 bd
       0.25836837 -0.21144351 -0.46774602 -0.11166465
000270 38 b5 c8 bd 75 8a b4 be af c4 c5 3d 34 74 59 be
       -0.0980019 -0.35261884 0.09656655 -0.21235734
000280 f5 14 83 3c d7 fa 8d be 5d 0c 03 3e be 71 21 3e
       0.016001204 -0.27730438 0.12797685 0.15766045
000290 c4 37 ae bd 72 e1 83 3e e7 80 8e 3d 12 bb 1c 3c
       -0.0850673 0.2575794 0.0695818 0.009566085
0002a0 22 4b 11 3f 16 d8 20 be b5 65 14 be c4 02 78 3c
       0.5675527 -0.1570743 -0.14491923 0.015137378
0002b0 5f 8d 92 3e a0 8a b4 3e 3b d4 57 3d fe 4c 6b 3f
       0.28623483 0.35262012 0.052692633 0.91914356
0002c0 b5 95 93 be 30 6f 89 be 69 a4 b6 3e 69 80 61 3e
       -0.28825155 -0.26842642 0.3567231 0.22021641
0002d0 8f 08 21 3e ae 3b b6 3e e7 9e 9c bd 88 e6 29 bf
       0.15725921 0.35592407 -0.07647496 -0.6636739
0002e0 ba de 01 bf be 09 f5 be 71 5d c2 3e 3b 43 26 3f
       -0.5073048 -0.47858995 0.37961915 0.64946336
0002f0 47 73 56 3f 23 f5 60 3e 41 2d 90 be 57 32 69 3b
       0.8376965 0.21968512 -0.28159526 0.0035582983
000300 d6 06 f9 bc 2c a8 d9 3e 43 9b 2f 3f 6b df 70 3e
       -0.030398767 0.42511117 0.68596286 0.23522727
000310 ca a1 9d 3e 09 c8 61 bd 07 46 ee 3c dd 94 e4 bd
       0.30787498 -0.05512241 0.029086126 -0.11161206
000320 0a 66 90 3d 90 a0 3d 3e 32 80 e1 3e 8c 1c e2 3e
       0.070507124 0.18518281 0.44043118 0.44162405
000330 ed 57 59 3e 61 d6 dc 3c c9 72 67 3f 78 53 f8 bd
       0.21224947 0.026957693 0.90409523 -0.121252954
000340 a3 99 0b 3f 6e 7a 7b 3d 82 c4 24 bf 99 1c 21 3f
       0.54531306 0.061396055 -0.6436235 0.6293426
000350 10 ae 31 bf cb ba 70 bf f3 cc 69 bf 67 13 b9 3e
       -0.69406223 -0.94035023 -0.9132835 0.36147615
000360 2c a0 ff be ca 67 6d 3d 6b 03 b8 3e 03 37 a2 3e
       -0.4992689 0.05796031 0.35940108 0.31682596
000370 c9 eb 38 3f a6 c3 b2 be df 73 59 3f 37 42 47 3f
       0.7223478 -0.34914893 0.8494243 0.7783541
000380 d3 e9 b2 3e 75 e6 88 be 0f f2 30 3e 87 fa a6 3e
       0.3494402 -0.26738325 0.17279838 0.32613012
000390 06 20 72 3c f4 45 32 bf 42 5a e5 bc d3 94 31 bf
       0.014778143 -0.6963799 -0.02799714 -0.6936771
0003a0 81 03 70 3e 37 2f 22 bf 9a 70 7f 3d 92 74 cd 3e
       0.23438837 -0.63353294 0.062363245 0.40128
0003b0 0e e8 ff bd 2d 60 1e be 5d 6b bd 3c 2e ef f1 3e
       -0.12495433 -0.15466376 0.023122484 0.47252792
0003c0 88 c4 d7 3e e9 ab bd bd 54 17 9f 3e ad 60 45 3e
       0.4214213 -0.09261305 0.31072485 0.1927516
0003d0 6f f9 ce 3d 6c 74 9c be e4 71 90 3e 13 2e 12 be
       0.101061694 -0.30557573 0.28211892 -0.14275388
0003e0 2d 67 c0 3d 59 b4 fb 3d fd ba 04 3e 3c 01 ed bd
       0.09394679 0.12290258 0.12961955 -0.11572501
0003f0 d2 ca 7c bd 3f 27 e0 3d d3 6a 10 3d a3 5b 56 3f
       -0.061716862 0.109449856 0.035258126 0.83733577

blocks.0.norm1.fc.bias f4 [64]
000000 35 8a 69 3f 8e 3c 27 be 48 b2 25 bd fc f9 c2 3e
       0.9122651 -0.16331694 -0.040453225 0.38081348
000010 7e 12 e7 bd a7 44 bc be 84 2e 87 3f 0c a3 8d 3e
       -0.11282824 -0.36771128 1.056107 0.27663457
000020 91 14 52 3f 2e a3 f6 3c 63 3b d5 3c 98 b9 5f 3e
       0.8206263 0.030107107 0.026029294 0.21848142
000030 2c b7 08 be e8 05 7a 3d c1 2d 4e 3f 2c 84 07 bf
       -0.13351125 0.06104079 0.80538565 -0.52936053
000040 b7 33 90 3e 9d 94 4e 3e 29 19 6a 3e 07 31 bd be
       0.28164455 0.20173879 0.2286116 -0.36951467
000050 90 65 e5 be eb 18 54 bd 6f d6 57 3e 6c 25 ea bd
       -0.4480405 -0.051781576 0.21077894 -0.11432919
000060 6d 52 c5 be 21 d1 49 bf 5c d7 32 3e 94 77 ef 3e
       -0.38539448 -0.7883473 0.17464966 0.46770918
000070 62 fb 42 be 75 2a c9 bd 45 c2 de 3d ff 12 4d be
       -0.19041207 -0.09822551 0.10876898 -0.20026778
000080 3d b2 86 3e 2c b0 5c 3f c7 6c 05 bf 47 51 e9 be
       0.2630786 0.86206317 -0.52119106 -0.45569822
000090 71 43 ce be d9 41 2d 3f f4 dc 29 3e de 0d 90 be
       -0.4028583 0.676786 0.16588193 -0.2813558
0000a0 8c d1 da 3e 3c d5 7c be 69 e9 3b 3e 57 01 4e 3e
       0.42737997 -0.24690717 0.18350758 0.20117699
0000b0 a5 ec fa 3e 26 f8 60 be f8 c3 f0 3e 36 47 3e 3f
       0.4900867 -0.21969661 0.47024512 0.7432741
0000c0 3f 86 9f 3e 61 fc 05 bf 04 28 12 3e 1d 04 74 3c
       0.3115711 -0.52338225 0.14273077 0.014893559
0000d0 7d d8 1c bf 51 a6 ca be b7 14 b3 bd 77 a4 af bd
       -0.61267835 -0.39580014 -0.087441854 -0.08576291
0000e0 e9 44 3d be 38 be a4 be 8e 86 a3 bd 19 20 19 3d
       -0.18483318 -0.32176375 -0.07984649 0.037384126
0000f0 d8 ed 95 3e 04 a9 12 be ad fa 0b be 5f 75 8d bb
       0.29283023 -0.14322287 -0.13669844 -0.0043169702

blocks.0.crossattn.W_Q f4 [8, 32, 4]
000000 a0 21 b4 3f 88 d9 7e bf 5e 40 99 3c 3c 2d 13 40
       1.4072762 -0.99550676 0.01870745 2.299636
000010 2a 69 26 3e f1 2e 84 3f 51 09 85 3f b1 f3 fe 3e
       0.16251054 1.0326825 1.0393468 0.49795297
000020 d6 1f 14 40 2e e9 57 bf fe 58 ce be f2 0a 8a bf
       2.314443 -0.8434018 -0.4030227 -1.078459
000030 f5 ef 13 3f c4 7f 8c bf d3 9e b4 bd c0 24 3e 3f
       0.5778802 -1.0976491 -0.08819356 0.74274826
000040 d9 40 bd be 9a 2e 67 be ee 7a af bc c2 14 9f 3f
       -0.36963537 -0.22576371 -0.021420922 1.242821
000050 bd 7f 30 c0 8d b7 1b 3f a2 9b a5 be f8 0c 3f bb
       -2.7577965 0.6082695 -0.323453 -0.0029152017
000060 f6 5a 9e be b6 0e b4 be 9f aa a3 3f e9 3d 04 40
       -0.30928773 -0.35167474 1.2786444 2.0662787
000070 2b 21 2e bf 00 37 4e bf 2f a1 e0 bc 9d 45 00 bf
       -0.6801936 -0.80552673 -0.027420608 -0.5010622
000080 be 43 63 be ce f4 02 3f d4 68 05 40 2e cd 82 3e
       -0.2219381 0.5115479 2.0845232 0.25547165
000090 64 61 3b 3e 8d 9b 46 3f 0d 5a 02 c0 4e d0 19 c0
       0.1829887 0.775811 -2.0367463 -2.403339
0000a0 21 cd ac 3f 3d bd 4b 3e ab 2f a8 bf db e2 24 3f
       1.35001 0.19896407 -1.3139547 0.64408654
0000b0 55 61 31 3c 93 a7 6b 3f eb 3f 90 bf af 78 be bf
       0.010826428 0.9205257 -1.1269506 -1.488058
0000c0 21 bc 35 be 5b a7 ac 3d fe 16 1c bf 6f 18 9b be
       -0.17747547 0.08430358 -0.60972583 -0.3029208
0000d0 0e 83 aa 3f e3 49 e4 3e 17 76 0e bf 16 16 38 3f
       1.3321245 0.4458762 -0.5564894 0.719087
0000e0 1d eb d5 be 42 45 d0 3f 6c 8e a2 3f 8e 52 ec 3e
       -0.4178094 1.6271136 1.2699714 0.46156734
0000f0 2e 86 41 3f 6c b5 fd 3e 9f 8a 42 bf 18 17 d2 bd
       0.75595367 0.49552476 -0.7599277 -0.10258311
000100 53 4f b1 3d 8b 99 16 3f bf 6e e2 bf 66 51 4e bf
       0.08657708 0.5882804 -1.7690047 -0.80592954
000110 6e 20 57 be da af f3 3e b7 1d c3 3f 6d df a6 bf
       -0.21008465 0.47595102 1.5243443 -1.3036934
000120 80 c1 4b 3f 25 fa f0 be 94 60 a4 3f a7 bd d2 bf
       0.7959213 -0.47065845 1.2841973 -1.6464127
000130 86 3e b2 3e c3 58 7f bf 17 57 40 be bf 0e ae 3e
       0.34813327 -0.99744815 -0.18783222 0.33995625
000140 8f d1 3a 3f 5f 01 c4 bd cc 03 75 3e 43 be 99 3e
       0.7297601 -0.09570574 0.2392723 0.3002797
000150 93 24 72 3f a3 23 29 3f 2c 6a 73 bf 14 31 c4 be
       0.9458706 0.6607 -0.9508388 -0.38318694
000160 3b fa f4 3d 10 c8 fe bd 08 ec fa be 9c d2 e6 bf
       0.1196179 -0.12440503 -0.49008203 -1.8033023
000170 17 86 91 bf 05 0f 0f c0 4b cb 05 bf 28 f9 11 3f
       -1.1369046 -2.2352917 -0.52263325 0.5702081
000180 61 35 d7 3f 19 a6 b9 3f 6c 58 28 bf 42 77 23 3f
       1.6813165 1.4503814 -0.6575992 0.6385385
000190 c8 45 75 3f 8a 45 8a be ce c5 af 3f 55 5b 13 3e
       0.958096 -0.2700618 1.373224 0.14390309
0001a0 30 74 e9 be d2 05 c5 3d 19 65 18 3e 18 58 8e bf
       -0.45596457 0.09620251 0.14882316 -1.1120634
0001b0 9c 1a bd 3d 3a 09 2e bf b7 4c 06 c0 99 04 de 3f
       0.09233591 -0.6798283 -2.0984323 1.7345153
0001c0 00 c2 09 bf 2a e6 35 3e a4 02 ab bf 31 f3 b7 3e
       -0.53811646 0.17763582 -1.3360181 0.35927728
0001d0 71 a0 c7 3f ec 1b 73 bd ff b3 d2 3f 56 14 56 3f
       1.5595838 -0.0593528 1.646118 0.8362478
0001e0 8b 58 62 3f 16 c3 82 bf cb 0f 06 3e f7 c6 fe be
       0.88416356 -1.0215786 0.13091962 -0.49761173
0001f0 0e 22 07 3f 5a 9b 36 3f f6 82 c4 3f 63 70 73 3e
       0.5278634 0.713308 1.5352466 0.23773341
000200 d7 3a a7 bf cd f6 9a 3f be 9d 3e 40 b0 32 1f 3f
       -1.3064831 1.2106568 2.9783778 0.6218672
000210 bb b6 99 3f 7c 15 aa bf fd 31 ae 3f 87 bd 05 40
       1.200889 -1.3287807 1.3609005 2.0896928
000220 43 ee 93 be e0 5c be 3e 91 a5 26 3f 40 af e0 be
       -0.28892717 0.37180233 0.65096384 -0.43883705
000230 f3 45 6a 3e c2 1e 39 3f 13 ab 98 3f 3e 44 86 3f
       0.22878246 0.7231256 1.1927208 1.0489576
000240 83 22 a0 3e 3e cb 3e 3f a3 6a 62 bf d7 b9 55 bf
       0.3127633 0.7452887 -0.88443965 -0.83486694
000250 e5 b9 f5 3e 90 b6 78 3f ec ff 0e bf ae 24 bb be
       0.4799339 0.9715357 -0.55859256 -0.36551422
000260 c5 5d bc 3f 9b ba 74 bc 71 cd 9a 3f 95 0d 3a bf
       1.4716116 -0.014937068 1.2093946 -0.72676975
000270 b3 72 65 bf f2 79 6a bf ee 26 9c 3f a5 d7 84 bf
       -0.8962814 -0.91592324 1.219938 -1.037831
000280 78 42 a5 3f 73 02 49 3e 03 d6 11 bf a3 13 8f 3f
       1.291091 0.1962984 -0.5696718 1.1177868
000290 66 a7 12 3f f8 05 fe be ba 11 c6 3d ca 42 a0 3f
       0.5728668 -0.4961393 0.0967135 1.2520382
0002a0 c8 48 6c bf 97 59 e6 bf 5d de e9 3f 7c 33 49 be
       -0.92298555 -1.7996091 1.8270985 -0.19648546
0002b0 cf 4f eb bf 4b 5f 0d 3f 69 7a 14 be 20 23 c8 bd
       -1.8383731 0.5522353 -0.14499821 -0.097723246
0002c0 5d 25 0d 3e 10 54 ee be 25 ab 3a 40 64 87 7d 3f
       0.13783784 -0.4654851 2.9166958 0.99034715
0002d0 8d 12 6f bf ee d4 b4 3f 33 57 d1 3e c0 ad a1 3f
       -0.9338768 1.4127481 0.4088684 1.2631149
0002e0 b6 03 d9 3f d7 50 1a bf 76 31 8b bf e6 98 70 3f
       1.6954257 -0.602796 -1.0874469 0.93983305
0002f0 c3 f6 2e bf d9 a2 91 bf 3c 6d 98 3d 80 d2 0c 3f
       -0.6834528 -1.1377822 0.0744271 0.550087
000300 6b 22 c8 3f 1f 9c 89 bf 61 bf 7f 3f 38 17 0e bf
       1.5635504 -1.0750769 0.99901396 -0.5550418
000310 09 aa 07 bf 34 fe 0d bf 07 a0 0f 3f 5d e6 c1 bf
       -0.5299383 -0.5546601 0.5610356 -1.5148426
000320 b5 7f 4b be b2 1e 89 3e b2 87 e2 bf af fd 08 be
       -0.19872935 0.2678123 -1.7697661 -0.13378023
000330 4e f3 ad bf 58 34 80 3e eb 0a 34 3e 2c ab 9c bf
       -1.3589876 0.25039935 0.1758229 -1.2239738
000340 41 a2 12 bf 46 2a a0 3f f6 bc 42 40 05 a9 ee 3f
       -0.5727883 1.2512901 3.0427833 1.8645331
000350 11 70 00 40 27 07 94 3f 40 e0 a2 3d 9c b5 c0 bf
       2.00684 1.1564683 0.079529285 -1.5055423
000360 09 f2 40 bd 77 d1 01 40 56 7c 8c 3f 99 6f bd 3e
       -0.047105823 2.0284097 1.0975444 0.36999205
000370 2f 06 57 bf 29 82 7a 3e 7b 55 c1 3f 8c 6c 91 3e
       -0.8399381 0.24463715 1.5104212 0.28403127
000380 ec 1b d4 be 6e 3e ac 3d 4a 5c 62 3f b9 e6 8a bf
       -0.41427553 0.08410345 0.8842207 -1.0851661
000390 f6 75 8a 3f f1 9f be 3f 23 11 73 3f 9b c8 88 bf
       1.0817249 1.489256 0.94948024 -1.068622
0003a0 4c 5e 2e be 00 b4 90 bf 1e 8c cf bd ef fa 22 bf
       -0.17028159 -1.1304932 -0.10134147 -0.63664144
0003b0 ac 59 0c 3e b0 10 d2 bc d4 86 66 c0 57 d0 5d bf
       0.13706082 -0.025642723 -3.6019793 -0.86646026
0003c0 76 fb 77 3f ac c8 1a bf 54 14 4a bf 52 a0 9a 3f
       0.96868074 -0.6046245 -0.7893727 1.2080176
0003d0 5b 91 99 3e 12 a1 97 bd db d7 52 3f 90 64 be 3f
       0.2999371 -0.074037686 0.8236062 1.4874439
0003e0 4b 09 84 3f ce ea a1 3d 7f c6 b2 3f ff 10 a2 bf
       1.0315336 0.079061136 1.3966826 -1.2661437
0003f0 ce 0b 10 be 03 f0 c4 3d fc 12 0b 3f fc ae 4c 3e
       -0.14067003 0.09616091 0.5432584 0.19988626

blocks.0.crossattn.W_K f4 [8, 32, 4]
000000 ab f7 cb be 96 17 c4 3f 97 0f dc bf 2b f0 b4 3f
       -0.39837393 1.5319698 -1.7192258 1.4135793
000010 2a 5b 6d be 28 96 e7 be 2c 9e 03 3f 9b ca ef 3f
       -0.23179308 -0.45231748 0.51413226 1.8733705
000020 24 ea 07 40 89 eb b7 3f 2e e1 a4 bf b4 7f 55 3f
       2.1236658 1.4368755 -1.2881219 0.83397985
000030 62 1f a3 be 74 19 3c 3f 2e ed e2 bb cf 43 c4 bf
       -0.3185988 0.7347634 -0.0069252467 -1.5333194
000040 61 97 a3 bf fd c2 58 be cd 84 32 3f 89 e2 27 bf
       -1.2780572 -0.21168132 0.6973389 -0.6558004
000050 cf e4 7a 40 a8 65 d9 3e ce bb 89 3f 08 c8 89 3f
       3.9202154 0.4246037 1.0760438 1.076417
000060 f8 01 f0 bf c9 13 5d 3f a6 35 85 3f ab 73 3f 3f
       -1.8750601 0.86358315 1.0406997 0.7478587
000070 84 b6 81 3f 41 55 a3 bc dd 6e fd 3f 40 12 8e 3f
       1.0133824 -0.019938113 1.9799458 1.109932
000080 94 4c 6f 3e 2d a9 ee 3f 04 fc d1 3d 94 a2 f0 3f
       0.23369056 1.8645378 0.10253146 1.8799615
000090 69 72 98 3f f5 01 16 bf 65 02 d9 3f 22 c6 d5 be
       1.1909915 -0.58596736 1.6953856 -0.41752726
0000a0 18 81 bc 3f bc 08 de bc 00 c3 80 be dc 5f 85 3f
       1.4726896 -0.027103774 -0.25148773 1.0419879
0000b0 03 99 66 bf e9 fe 00 3e f7 3d 4d 3f 13 14 9c 3e
       -0.9007723 0.1259724 0.80172676 0.30484065
0000c0 64 99 18 3f 68 c9 62 3f 80 44 a0 bf 76 1e 28 3e
       0.59609056 0.8858857 -1.2520905 0.1641787
0000d0 8a 02 dd 3c d1 f8 9d 3e f9 a2 31 bf 8d b1 2a 40
       0.02697875 0.30853894 -0.693893 2.6670868
0000e0 7d 28 89 3f 76 cf 83 3f 91 59 15 40 a0 3f a3 bf
       1.0715481 1.0297687 2.3335917 -1.2753792
0000f0 8b be 07 3f 9a 05 7f 3f 7d 64 3a bf 21 98 4f bf
       0.5302512 0.9961792 -0.7280958 -0.81091505
000100 78 d3 1f 3e da 4e ae 3f 5e 09 9a be d5 b5 9a 3e
       0.15608013 1.3617814 -0.30085272 0.30216852
000110 53 6e 11 3f b4 ad 9d 3f 5c d2 11 3f 59 2f ec 3f
       0.56808966 1.2318635 0.5696161 1.8451949
000120 d7 fe ce bf 3a f8 8d 3e 0e 4e 8a bf 40 55 47 3f
       -1.6171521 0.27728444 -1.080507 0.77864456
000130 c0 5c 55 3f 20 d5 8d 3e db 6f 3d bf 97 70 58 bf
       0.8334465 0.27701664 -0.739988 -0.845468
000140 16 d4 5e 3e a6 f6 8a bf 3b 10 45 3f f0 5c 67 bd
       0.21760592 -1.0856521 0.7697789 -0.056485116
000150 b8 b9 ad 3e 1f 38 e0 3e 7e 92 16 3f 78 96 6b bf
       0.33930755 0.43792817 0.5881728 -0.9202647
000160 a3 43 08 3f 8e a9 fc 3e f2 85 35 3f 2d 16 04 bf
       0.53228205 0.4934811 0.7090751 -0.5159634
000170 d8 8b f8 be 21 0e 82 bf 57 57 8c bf ee 07 f5 be
       -0.48544192 -1.0160562 -1.0964154 -0.47857612
000180 42 58 12 bf ce 3a 26 3f b1 63 d3 3f 3b 80 52 be
       -0.5716592 0.6493348 1.6514798 -0.20556729
000190 4b 0c 8a 3f c1 37 07 bc c2 ed 19 be d0 a0 52 40
       1.0785002 -0.008253039 -0.15032104 3.2910652
0001a0 2a 69 a1 be 4d 89 1d bf c2 6b 42 be 1f 37 d2 3f
       -0.31525546 -0.6153763 -0.18986419 1.6423072
0001b0 ae 2e a7 3d 77 7f 0f 3f 5f 98 1f 3f 7c 34 0f 40
       0.081632 0.5605387 0.62341875 2.2375784
0001c0 c3 d8 26 40 70 46 b8 bf 95 57 8f bf bb ed d8 be
       2.60698 -1.4396496 -1.1198603 -0.42368874
0001d0 36 fc bc bd 74 bd 11 3e d2 ce 86 3e 4d 83 be be
       -0.09227793 0.14232427 0.26329666 -0.3720955
0001e0 33 07 8a 3f 09 b5 c0 be 23 48 f6 3e d7 54 a6 3f
       1.0783447 -0.3763812 0.4810191 1.2994641
0001f0 46 53 fb bf 3c 8d d9 be d1 f8 67 be 4a 08 77 be
       -1.9634788 -0.42490566 -0.2265351 -0.24124256
000200 c2 d7 c6 3f 2b 73 92 be ef 84 57 bf a2 1e c3 be
       1.5534594 -0.2860349 -0.84187216 -0.38109308
000210 0b 3b 2d 3f b4 6f bd 3f dc 68 7d 3e 26 97 fe 3b
       0.6766822 1.4799714 0.24747032 0.007769483
000220 32 c4 e0 3f 75 79 aa bf ea e2 be be 9a 04 60 3f
       1.7559874 -1.3318316 -0.37282497 0.8750702
000230 f3 a8 08 bf ac 7f 6c 3f ee d0 bd bc 77 87 7b 3f
       -0.53382796 0.9238231 -0.023170915 0.9825358
000240 4c 1f 04 40 5c e6 8e 3d 7c 8e 78 3f 3e c1 de 3e
       2.0644102 0.06977531 0.97092414 0.43506807
000250 29 3e 80 bf 98 d5 19 c0 34 3b 4e bf 96 e9 8a 3f
       -1.001897 -2.4036617 -0.80559087 1.0852535
000260 9e 5c 2b 40 91 bc a2 bd 12 6b 4f bf 5c 50 5b 3f
       2.677528 -0.079461224 -0.8102275 0.85669494
000270 74 95 9f be e9 fb 94 3f 37 2e 5a be a9 5b 2f 3f
       -0.3116871 1.1639377 -0.21306692 0.6849924
000280 2b 2d c6 3f a1 ae 83 bf 13 a4 18 3e c0 0a b2 bf
       1.5482534 -1.0287668 0.1490634 -1.3909531
000290 a9 01 a8 3f 2e ff 88 3f 98 19 90 bc 26 8e 39 bf
       1.3125507 1.0702875 -0.017590329 -0.72482526
0002a0 21 27 23 bf 94 50 e0 bf c8 10 0b 3f f0 a1 19 bf
       -0.6373158 -1.752459 0.5432248 -0.6001272
0002b0 a8 79 2d be 24 0e 88 bf 09 c9 a3 3f 8a f3 92 3e
       -0.1694094 -1.0629315 1.2795726 0.2870143
0002c0 13 bb 6d 3e 84 27 39 3e d0 b6 cc 3e 75 e4 05 bf
       0.23215894 0.1808148 0.39983225 -0.5230172
0002d0 17 de 1e 3f a3 07 b8 3f e3 ff 99 be ba 9f d7 be
       0.6205763 1.437733 -0.3007804 -0.4211405
0002e0 3e 06 b5 be d7 6b 81 3f 61 15 be 3f 9f d0 94 3f
       -0.35356325 1.0111035 1.4850274 1.1626166
0002f0 1c 19 90 3e ee 3e 5a 3f 15 af 2a 3f 66 6c 48 be
       0.28144157 0.85252273 0.66673404 -0.195726
000300 33 0f 2b bf 13 df 97 3d 1a cf 06 c0 32 ce ed bf
       -0.6682007 0.07415595 -2.1063905 -1.8578551
000310 59 2d 16 3f e2 d2 cd be f0 32 37 40 66 24 0f bf
       0.58662945 -0.40199953 2.862484 -0.55914915
000320 10 41 2a c0 cd 14 70 bf 54 0f 23 40 df 04 06 40
       -2.660221 -0.9378174 2.5478106 2.0940473
000330 a6 b0 c4 3f 62 89 07 3f 77 85 58 bf 7d 8b 18 3f
       1.5366409 0.52944005 -0.8457865 0.5958784
000340 d5 48 be bd 22 78 1a 3b 77 ae 55 bf 07 45 b2 3f
       -0.09291235 0.002357014 -0.8346934 1.3927315
000350 f2 24 75 3f 39 43 9b 3e 7f 62 cf bf 1c b1 15 be
       0.957595 0.30324724 -1.6201934 -0.14618343
000360 02 4f 99 bf a1 cd f9 be 13 ac 98 be 2b 43 78 3f
       -1.1977236 -0.48789695 -0.29818782 0.9697749
000370 c6 cc 24 be 92 40 b9 3e 7e 9c fa 3d c6 5d 64 3f
       -0.1609374 0.36182076 0.1223688 0.89205587
000380 0b 42 dd 3e dd a8 5a be 19 01 b2 be db ed 73 bf
       0.4321445 -0.21353479 -0.34766462 -0.95284814
000390 31 08 81 bd 49 a1 1a bf 73 c9 14 c0 a0 94 92 bf
       -0.063003905 -0.6040235 -2.3247955 -1.1451607
0003a0 01 83 fb bf fd 11 9e 3f 24 b9 bb 3e b2 21 ee bf
       -1.9649354 1.234924 0.3666469 -1.8604033
0003b0 4b a2 67 3e 46 c2 69 3e a0 d4 70 bf 9e 0c d6 3e
       0.22620504 0.22828016 -0.9407444 0.418065
0003c0 20 96 89 3f c4 de 7f 3f d3 5d 7e bf f3 ec 90 3e
       1.074894 0.9994929 -0.99361914 0.28305778
0003d0 f7 1e 3e 3f b4 53 6e bd ab 49 c2 3f f1 5f 06 c0
       0.74266 -0.058185294 1.5178732 -2.0996058
0003e0 ec fe e8 3e 2c 03 72 3e de d4 f6 bf 1e 0b 54 bf
       0.4550699 0.23634022 -1.9283712 -0.82829463
0003f0 37 57 30 3f fe c2 01 bf 58 cd ba be f8 eb f9 3e
       0.6888308 -0.5068816 -0.3648479 0.48812842
