experiments/20251102_023541/model.pt (torch, 230532 bytes, 53 tensors)

registers f4 [1, 32]
000000 73 d1 5a be d3 d2 26 3f 19 96 6c 3f 01 01 dc 3e
       -0.21368961 0.6516544 0.9241653 0.42969516
000010 22 8f 1a bc 69 9f fc 3e d8 27 9b be 0d 07 6f 3e
       -0.00943354 0.4934037 -0.30303836 0.23342533
000020 15 82 37 be e4 12 36 3e eb 3a 19 3d 11 df 9e 3d
       -0.17920716 0.17780644 0.037409704 0.0775739
000030 fc 19 f5 3d de e8 11 bd fc 3e 17 bd be b5 fa be
       0.11967847 -0.03562247 -0.0369253 -0.48966783
000040 b7 dc d7 3e 98 18 04 3f 13 05 0c be 26 30 a6 be
       0.4216058 0.5160003 -0.1367381 -0.3245861
000050 77 aa 69 be aa 81 70 3e 8b 93 6a 3d 4e ed 17 3d
       -0.22818933 0.23486963 0.057269614 0.037091546
000060 75 46 20 be ac 29 ae be ff 87 49 3d d2 91 62 3d
       -0.15651877 -0.34016168 0.04920196 0.055314846
000070 01 3c 7e 3e b8 b8 5c bd 71 17 14 be be 0c 7c 3f
       0.24827577 -0.0538871 -0.14462067 0.98456943

pe_grid f4 [36, 32]
000000 b8 c0 17 3d 0c dd 55 be 71 15 1d bf 17 fa a7 3d
       0.037049025 -0.20885104 -0.6136084 0.08201998
000010 a7 89 98 3e 5c 11 71 3e 27 8b 83 3e 3e 24 81 3e
       0.2979252 0.23541778 0.25692102 0.25222963
000020 d2 0f d9 3e 92 fa 63 be 22 f7 69 bd e0 5e d7 bb
       0.42394882 -0.22263554 -0.05712045 -0.0065725893
000030 98 e2 06 3f 30 22 0b 3a 02 6d 90 be 96 d1 07 3f
       0.52689505 0.00053075235 -0.28208166 0.5305418
000040 27 7a c9 be c9 90 29 3e d7 9f a6 3e 9f e9 83 3e
       -0.39351007 0.16559137 0.32543823 0.25764176
000050 6e d5 86 be b1 9c b9 3e 98 85 3f 3e 40 cb 8d be
       -0.2633471 0.3625236 0.18703306 -0.2769413
000060 1e 1f 1f 3d 47 11 8a be 75 fa e4 bc 8a c7 e5 3e
       0.038848035 -0.26966307 -0.027951458 0.448788
000070 68 ff d5 3e 34 34 b8 be c6 a7 61 3e 7d 39 40 be
       0.41796422 -0.35977328 0.22036657 -0.1877193
000080 ef 0b ab be 65 fd 6a bf bd e1 52 3e ad 0b 77 bf
       -0.33407542 -0.917929 0.20593925 -0.9650219
000090 91 21 8b be 96 20 69 3d 9d 58 1e 3f cb 70 94 bb
       -0.27174047 0.056915842 0.61853963 -0.0045300475
0000a0 11 7a 84 3e 5a 1d d1 be 5d 79 51 bf 9e 47 36 3f
       0.2587438 -0.40842706 -0.8182581 0.7120303
0000b0 11 87 fa 3e 92 81 9a be 99 da db 3e 12 5f e3 be
       0.48931172 -0.3017698 0.42940214 -0.4440847
0000c0 9e 97 06 3f 98 7d 1a be 36 ad 01 3e b5 d9 7c be
       0.525751 -0.15086973 0.12663731 -0.24692424
0000d0 5a 81 ba 3e ac 25 e5 bd 17 c2 6f be 9d 75 b2 be
       0.36426812 -0.11188826 -0.23413883 -0.34855357
0000e0 8d 00 57 bf 59 05 2b 3f fc d1 d4 3d 69 92 97 be
       -0.83985215 0.66805035 0.10391614 -0.2960389
0000f0 ca 8e d7 be 7f a5 9b be 74 f7 5e be 40 33 50 be
       -0.42101127 -0.303997 -0.21774083 -0.2033205
000100 ed b7 bf be 76 cf 81 be 5e c6 d7 bd dc 12 d8 be
       -0.37445012 -0.25353593 -0.105358824 -0.4220189
000110 7e 71 fe be be d1 71 3d 2d 6b f2 3e be a8 e3 3e
       -0.49695963 0.059037916 0.47347394 0.44464678
000120 2f 41 8c 3e 8e 1a 6b be 21 61 34 3e be 6c 04 3e
       0.2739348 -0.22959349 0.17615177 0.12932107
000130 c5 c6 6a 3b f2 df 04 3f 48 6e b9 3d cc 2c 3a be
       0.0035824042 0.51904213 0.090542376 -0.18181151
000140 94 22 e5 be 8c 44 1e bd 3e 9a 3f 3e 4a 98 48 bc
       -0.44752944 -0.03863959 0.18711182 -0.01224334
000150 55 3e 3d bf 2e d1 88 be 0a 64 52 be a6 70 c9 3e
       -0.73923236 -0.2672209 -0.20545974 0.39343756
000160 d1 6d 9f 3e 4c 4a 94 3e aa 43 6f 3d c0 83 ee 3e
       0.3113847 0.28962934 0.05841414 0.46584892
000170 13 f4 0c 3e 64 b1 8c be 61 40 19 be 2a c4 fe 3e
       0.13764982 -0.27479088 -0.14965965 0.49759036
000180 da b7 1e 3e 64 8c 71 bf b6 da b8 bd b3 7f 1a be
       0.15499821 -0.94354844 -0.09026091 -0.15087776
000190 1f 64 fb be 70 c2 14 be 0e 2b b4 be 44 cc 54 3e
       -0.49099824 -0.14527297 -0.35189098 0.20781046
0001a0 ce 66 2b bd 6c f3 7b be eb 35 95 3e 6d 22 bd 3e
       -0.04184609 -0.24604577 0.291427 0.36940327
0001b0 5c e4 0b 3f bc 5f 51 bf e5 89 82 3e 1e 31 0f bf
       0.54645324 -0.81786704 0.2549583 -0.5593432
0001c0 0c 48 48 3b 1c f0 ac be c4 4f 13 3e 0c 24 4e be
       0.0030560521 -0.3377694 0.14385897 -0.20130938
0001d0 d9 04 1d 3f 3d ec 82 be 8e e4 50 3f 4a 37 a0 3e
       0.6133552 -0.2557086 0.81598747 0.31292182
0001e0 13 20 cb 3e 4e 09 06 3f a9 1b 79 be 17 26 a6 bd
       0.39672908 0.5235795 -0.24326958 -0.08112734
0001f0 46 4c 9f be 70 f5 34 bf ce e8 05 be 79 dd 8a be
       -0.3111288 -0.7068701 -0.13077089 -0.27122095
000200 ad 3f c4 be b4 7f 98 bd 5b d0 3a bf c8 5a 54 be
       -0.3832983 -0.074462324 -0.72974175 -0.20737755
000210 cc 81 e3 bd 50 80 15 3f 8a b1 0a 3f 21 4f 93 bd
       -0.11108741 0.58398914 0.54177153 -0.07192827
000220 5a e5 83 3e 79 8f ab be 64 f3 fd 3e c6 12 c3 3e
       0.2576092 -0.33507898 0.49599755 0.3810026
000230 c3 08 de 3e 99 29 0f bd da 19 93 3e a2 d0 57 3e
       0.4336606 -0.03495178 0.2873066 0.21075681
000240 f0 9e a4 3e ca 3b 9f bd da 77 dc 3e dd c5 bb be
       0.3215251 -0.07775076 0.4306019 -0.36674395
000250 30 1e 31 bf c5 d7 e7 3e a3 dd 3f be 5c c2 1f 3f
       -0.6918669 0.45281807 -0.18736891 0.62405944
000260 66 26 b4 3e 74 0c 96 be fd a1 9b 3f 79 35 75 be
       0.35185546 -0.29306376 1.215881 -0.2394618
000270 6b bb 78 bf db 58 43 3e 47 b4 7d 3e 26 2a 19 3e
       -0.9716098 0.19076864 0.24775802 0.14957485
000280 72 3c 7a bd d6 3e a3 be 5c 81 19 bf b3 8f 26 3f
       -0.0610928 -0.31883878 -0.5996301 0.6506302
000290 22 60 96 3d e9 fb 42 3f 3a 6d 93 3d f0 2b 19 3e
       0.07342555 0.76165634 0.07198568 0.14958167
0002a0 46 24 8c be f8 5e e3 3d ac 0f 43 3e a4 e5 10 bf
       -0.27371424 0.11102098 0.19048947 -0.56600404
0002b0 a4 d7 3b 3e f3 bc 35 3f 45 86 43 bd ff 98 17 bd
       0.18343979 0.7099144 -0.04773547 -0.037011143
0002c0 3c 7c 85 3e d0 d3 b9 3e 83 61 d7 be ab 0b f8 3d
       0.26071346 0.36294413 -0.42066583 0.121116005
0002d0 9d 7e 4b bf ca 26 35 bd 45 94 47 bd b6 2a 00 3f
       -0.7949007 -0.044226445 -0.048725385 0.5006517
0002e0 75 86 88 bd cb fd 9b be ab bf d7 3d 54 6f 0f bf
       -0.06666271 -0.30467066 0.10534605 -0.5602925
0002f0 83 f0 5c 3e 90 60 be 3d aa a3 95 be ad 3b 96 bd
       0.21576123 0.092957616 -0.29226428 -0.07335601
000300 9c 76 e6 3e 90 61 3e bc 97 32 28 bf 28 b6 43 be
       0.45012367 -0.01161994 -0.65702194 -0.19112456
000310 bd a4 80 bc 4c b6 8b bd ce a8 95 3e 6c 4b bb 3d
       -0.015703553 -0.0682188 0.2923035 0.09145245
000320 b8 41 cb bb 75 2c 19 bf 69 76 02 3b 08 ad 21 3f
       -0.0062029026 -0.5983346 0.0019907004 0.6315465
000330 3d de ef 3d 5f d0 cb 3c a3 1b 08 be 79 1d e8 3d
       0.117123105 0.024879633 -0.13291793 0.113337465
000340 e2 ed 72 be 9e 19 53 3e 9e 53 15 3f 57 ed 24 3e
       -0.23723558 0.20615241 0.58330715 0.16106163
000350 ca 86 27 be 2b 49 24 be bc 1d 95 bd 60 34 16 b8
       -0.16360012 -0.16043536 -0.07281062 -3.5811565e-05
000360 87 f5 77 3e ea 20 56 bc f1 54 ab 3e 1f 1b b1 3e
       0.24214755 -0.013069371 0.33463243 0.34591004
000370 10 93 24 bf 6d 32 e5 bd 97 ea 06 3e e5 01 18 3c
       -0.642869 -0.111912586 0.13175426 0.009277795
000380 75 78 b3 3e 83 5d 00 3f 89 11 38 3e 5d 6b a1 3e
       0.3505284 0.5014269 0.17975439 0.31527224
000390 7f 95 6d be e6 d6 96 be 54 de 0d bb 6c 73 77 bf
       -0.2320156 -0.2946083 -0.002164741 -0.96660495
0003a0 08 04 f2 3e 54 be 61 be 57 6f e4 3d 0c 49 dd be
       0.472687 -0.2204526 0.11154049 -0.43219793
0003b0 8e e8 f2 3c 2e 82 38 be c7 df 2c 3d 51 f4 50 be
       0.029651906 -0.1801841 0.0422056 -0.204057
0003c0 df c5 01 be 62 81 5b 3e a3 8b 67 3f c0 ba 5a bb
       -0.12673138 0.21436074 0.90447444 -0.0033375472
0003d0 a0 a4 08 bd 9f 3f 30 3e ec 3e 67 3d 05 67 1c bf
       -0.033360124 0.1721177 0.05645649 -0.61094695
0003e0 2c 19 df 3e b0 ad 29 3d 9a 86 14 bd 41 62 84 3e
       0.43573892 0.041425407 -0.03626118 0.25856212
0003f0 7b e8 01 be 71 92 7e 3e 1d 1c b6 be f0 e9 e5 3e
       -0.1268634 0.2486055 -0.35568324 0.44905043

pe_frames f4 [1, 32]
000000 93 dd 92 be 74 63 66 bc 0b 90 b7 3d 1e 07 17 bd
       -0.28684673 -0.014061797 0.08963021 -0.03687202
000010 07 f7 a1 bc 84 bf b6 3d 7f d8 df bd 2a e7 1d 3e
       -0.019771112 0.089232475 -0.10929965 0.15420213
000020 77 21 0b 3d e7 aa 32 3c 9b 86 d7 3d bb 8e 33 bd
       0.03396746 0.010905004 0.10523721 -0.04383729
000030 4f fc d9 bc 24 39 36 bd b5 74 03 bd 1e 26 68 be
       -0.026609568 -0.044488087 -0.032093722 -0.2267079
000040 b1 78 95 3e 3b 41 2c bd 71 b7 b5 be 41 23 20 be
       0.29193643 -0.042054396 -0.35491517 -0.15638448
000050 60 af 83 be dd 75 4a bd 29 26 3c 3e bb bf 59 be
       -0.25719738 -0.04942881 0.18373932 -0.21264546
000060 e7 d0 db bd cf 08 1d 3d 13 5c 58 bd 26 82 2a be
       -0.10733204 0.03833848 -0.052822184 -0.1665121
000070 aa de f9 3c 7d 54 5b be 19 4a 89 3d 21 59 14 be
       0.030501682 -0.21418948 0.06703586 -0.14487125

blocks.0.norm1.fc.weight f4 [64, 32]
000000 d5 55 4d 3e 9e 79 0c bf d8 e1 a5 be 77 ba ca be
       0.20052274 -0.54873073 -0.32398868 -0.39595386
000010 ae e8 c9 be 06 52 05 3f 60 e8 9f 3c 74 d0 ce be
       -0.39435333 0.5207828 0.019519985 -0.40393412
000020 a8 b6 91 3a 94 34 12 bf 29 ed 1d 3f f6 94 26 be
       0.0011117058 -0.5711148 0.6169 -0.16267762
000030 87 15 f6 3e 28 59 98 3e 8d db ec 3e d6 c7 8f 3e
       0.480633 0.2975552 0.46261254 0.2808215
000040 50 cb 83 3e db d5 a2 be eb 8c e7 3e c3 d6 b2 be
       0.25741053 -0.31803784 0.452247 -0.34929475
000050 42 61 37 3f 3c 68 b9 bd bc 85 01 bf 4e fb 42 be
       0.7163278 -0.09053084 -0.5059469 -0.19041178
000060 88 8d 2d 3e 6c e7 49 3d fc 36 0b 3e cb f1 a7 be
       0.16948521 0.049292967 0.13595194 -0.3280166
000070 4b 22 ea be 3c 6e 2d 3f 23 3b 54 bd 36 ec 05 be
       -0.45729288 0.6774633 -0.05181421 -0.13078389
000080 8b 9e 43 3f 92 7a 3d 3f bb 98 09 bf 09 9d 16 bf
       0.7641379 0.7401515 -0.53748673 -0.58833367
000090 11 a1 10 bf 3b f4 5f bf 97 74 4e bf 0b 91 7a be
       -0.5649577 -0.8748204 -0.8064665 -0.24469392
0000a0 a2 f3 37 bf 02 51 f3 3d fc 17 7e bf ff da 84 3d
       -0.7185613 0.118806854 -0.9925535 0.06487083
0000b0 17 08 21 3f 18 86 bf be 30 13 8d bd f2 0e 30 3e
       0.6290297 -0.37406993 -0.06888425 0.17193201
0000c0 9f 67 ae 3e 1e 76 86 3e 60 33 70 bf 11 86 e4 be
       0.34063432 0.2626199 -0.9382839 -0.44633535
0000d0 a8 f0 12 3f f4 3f c5 bd 91 cd 50 3f ec 85 f9 be
       0.5739846 -0.09631339 0.8156367 -0.48734987
0000e0 06 fa 99 3d 8a e4 8f 3f 71 55 3a bd b6 14 84 bf
       0.07518391 1.124162 -0.04549164 -1.031882
0000f0 83 fe 7d be ea d3 2c bf 76 ca 8b 3f d4 dd a0 be
       -0.2480412 -0.67510855 1.0921161 -0.3141924
000100 20 5e 4d bf e5 6c 65 3d f9 c6 39 be b2 b6 80 3f
       -0.8022175 0.056012053 -0.18142308 1.0055754
000110 c6 cd b7 be 8f 06 5d 3f 8b e8 1b 3f dc 96 fc bc
       -0.3589918 0.8633813 0.6090171 -0.030833654
000120 b3 1e c9 be f0 a7 74 3f 99 21 c7 3e f2 15 8c 3e
       -0.39281234 0.9556875 0.3889282 0.27360493
000130 9f 38 e0 3e f5 a6 60 bc 19 4d 0d 3f 61 04 c5 3e
       0.43793198 -0.013711681 0.55195767 0.38479903
000140 94 5f ec be b4 80 ac 3c d2 b0 23 3e d2 91 90 3d
       -0.4616667 0.021057464 0.1598542 0.07059063
000150 61 17 34 3f 66 f6 73 3f 56 fe 9e 3f 6a 72 5a 3d
       0.70348173 0.9529785 1.2421367 0.05333177
000160 e1 f6 ff 3e 20 d2 cd be e5 02 1c 3f 03 fc 28 3e
       0.4999304 -0.40199375 0.60941917 0.16502385
000170 c5 b2 77 3f a6 e0 a5 3f e2 1e 85 3c ec fd 51 3f
       0.96757156 1.2959182 0.016250078 0.8202808
000180 bf 7d 75 be ed 97 74 3d c8 ca b6 bc 07 2a ce be
       -0.2397375 0.0597152 -0.02231349 -0.4026644
000190 c2 ce 38 be 8e 0d a0 3d f0 27 f5 bd 3b 70 2e 3c
       -0.18047622 0.07815085 -0.11970508 0.010646875
0001a0 4e 7f e1 be 84 6c 97 3d 3a a3 19 3e 25 99 29 bd
       -0.44042438 0.073937446 0.15003672 -0.041405816
0001b0 dd 40 12 3f 4b 2a 09 be 5f 0d e5 3c b9 c0 4e bd
       0.57130224 -0.1339504 0.027960477 -0.050476763
0001c0 3b b6 0e 3f 35 30 6e 3e 1b 49 1e bf d3 e6 6e 3e
       0.5574681 0.23260577 -0.618303 0.2333024
0001d0 9a 1d 61 be 27 0d 32 bf 65 db 19 3e 98 31 d7 be
       -0.21983948 -0.6955132 0.15025099 -0.42030025
0001e0 bd f8 8f 3e 50 9a 7e be 10 9b 12 bf d2 d7 4c bf
       0.2811946 -0.24863553 -0.57267857 -0.80016816
0001f0 2d 3b 9a be 81 f1 18 bf 0a 48 0e 3f 51 82 12 3f
       -0.30123273 -0.59743506 0.5557867 0.572301
000200 48 26 44 bd 63 00 2d bf 0e bf 38 3f 2f 9b d1 3e
       -0.04788807 -0.67578715 0.72166526 0.40938708
000210 7e 8d d3 3e c9 4e 45 3f d8 d9 24 3e f7 dc d1 be
       0.41318887 0.7707334 0.16098726 -0.40988895
000220 db 3b 0b 3f cd 5f 1f 3d e0 a1 8e 3f 9e bc 5f 3d
       0.5438821 0.038909722 1.114315 0.05462324
000230 4c 07 36 bf 61 00 b3 3e a2 9d 7d 3e 2f ec 17 3e
       -0.71104884 0.34961227 0.24767163 0.1483619
000240 fe b8 23 bf ef d5 a7 be 48 71 7d 3f af 2d 5f 3e
       -0.6395415 -0.32780406 0.9900098 0.2179477
000250 3f 7f d2 3d b3 7f c9 3e d7 44 5c 3e f6 f7 dd 3e
       0.102781765 0.3935524 0.21510635 0.43353242
000260 49 83 9c 3e 76 3b bd 3e 74 6f 2c 3f a9 d1 26 3d
       0.30568913 0.36959428 0.67357564 0.04072729
000270 5a 78 17 3d 4c 92 39 3f fe 83 90 be e6 58 4f bb
       0.03698001 0.72488856 -0.28225702 -0.003163868
000280 dd 27 fd be 70 57 9a be d4 2f a7 3e 89 4b 35 be
       -0.49444476 -0.30144835 0.32653677 -0.17704596
000290 45 b0 22 3f 8b d3 a7 3e 4e 73 db 3e ad f8 76 bd
       0.63550216 0.32778582 0.42861408 -0.06029575
0002a0 24 20 d0 3e 28 2d e0 3c 26 0c 01 3f 35 09 40 be
       0.4064952 0.027365282 0.5040916 -0.18753512
0002b0 84 a0 b8 3e d5 cc 6d 3e 5f 4e ca bd c1 a3 49 3d
       0.36059964 0.23222668 -0.09878229 0.049228434
0002c0 44 c3 08 bf 99 b0 5d be e9 67 75 bd dc b0 30 3f
       -0.5342295 -0.21649398 -0.05991355 0.69019866
0002d0 25 b1 b7 bd 61 de 9f be 7c 5c 47 3e 20 8a 10 3f
       -0.089693345 -0.3122435 0.19468874 0.5646076
0002e0 e0 cb 1f 3f bf 9c 13 bf fa b1 6d 3d e8 70 a5 3e
       0.62420464 -0.5766105 0.05803106 0.32312703
0002f0 b1 29 0d 3f 79 d9 4e 3d 51 21 5d 3e fc aa 9b 3e
       0.5514174 0.050500367 0.2159474 0.30403888
000300 17 30 a2 be 2c 8f fb 3d 4a fd 25 bd f6 c6 f2 be
       -0.31677315 0.12283167 -0.04052476 -0.4741742
000310 51 5d a5 be a9 e2 8d 3e b4 17 d5 3e ae ab 2c bd
       -0.32297757 0.2771199 0.41619647 -0.042155914
000320 1e 92 04 3f be 4a 93 bb 0b b7 9d be 7b 2f ab bc
       0.5178546 -0.004494994 -0.30803713 -0.020896664
000330 67 c8 c4 be 76 ca 3b 3d ab 79 0c be 3d b4 f3 3e
       -0.38434145 0.04584738 -0.13718288 0.47598448
000340 94 6b eb 3e 71 0f a2 3e 68 a8 b2 be 97 d3 16 bf
       0.45980513 0.31652406 -0.3489411 -0.5891661
000350 8a 4e dc be c3 1b f2 be 84 97 05 bf 38 a3 80 3d
       -0.4302867 -0.47286806 -0.5218432 0.062811315
000360 7d ab 15 be 80 a0 0e be 9e 6a ac 3e 91 cb b9 be
       -0.14616199 -0.13928413 0.33675092 -0.3628812
000370 10 9b 99 bd f7 a0 bf bb 2c c5 da 3d 78 77 9b be
       -0.07500279 -0.005848046 0.10682139 -0.30364585
000380 b0 0e 2d be 3f ac 2f bf 2f b8 1b 3f 0a 68 c7 3e
       -0.16900134 -0.686222 0.60827917 0.38946563
000390 a7 1f b2 3e db 51 b5 3e 99 46 2a 3d f5 bc 87 bd
       0.34789774 0.35414013 0.041571233 -0.066278376
0003a0 c0 f3 1b 3f d3 8b 4d be 33 7d d5 3e 58 37 b6 3e
       0.6091881 -0.2007287 0.41697082 0.355891
0003b0 e1 1d 9f bd ca e9 c8 bd c3 e5 d1 3e 59 8c ad 3d
       -0.07769371 -0.09810217 0.40995607 0.08474035
0003c0 88 e3 15 be 79 4f b1 3e 8a 5f b4 3e cf 86 cb 3d
       -0.14637578 0.34630945 0.3522914 0.09937822
0003d0 71 ca 5c be 29 0d 0a be 5b 04 80 be ca 3d 28 3e
       -0.215616 -0.13481583 -0.25003323 0.1642982
0003e0 3a df 83 3e dd 67 82 3e 37 6e f5 3e 9e ef de bd
       0.25756246 0.25469866 0.4793565 -0.10885547
0003f0 0e a2 86 be e0 00 e6 3e 99 00 e2 be 7c 1e 57 be
       -0.26295513 0.44922543 -0.4414108 -0.21007723

blocks.0.norm1.fc.bias f4 [64]
000000 26 43 9f bd 8b 47 84 bf 47 77 41 3f 7a ee 3c 3e
       -0.077764794 -1.0334333 0.7557263 0.18450347
000010 92 4f 34 3f 6a f8 80 3f b0 70 37 be de 2a 0f 3f
       0.70433915 1.007581 -0.1791408 0.55924785
000020 11 e1 70 3c fe e8 65 3f d8 d3 73 3f 35 75 70 be
       0.0147020975 0.8980864 0.9524512 -0.23482211
000030 2d 44 c8 3d 3e eb 52 3f 96 93 e2 3e a1 aa e4 3d
       0.097786285 0.823902 0.44253224 0.111653574
000040 ce 2d 17 bf 71 eb 13 bf 28 61 49 3e f9 e9 df bd
       -0.5905427 -0.5778113 0.19665968 -0.109332986
000050 7f 47 00 bf 69 15 1a 3e 26 8c 95 bd 90 a5 0f 3e
       -0.50109094 0.1504723 -0.07302122 0.14028001
000060 8a 02 b3 3e c3 b6 23 bf 6a 14 be be 65 f8 a0 bd
       0.34962875 -0.6395075 -0.3712495 -0.078598775
000070 c6 28 a2 be b0 ff 2d 3f 3b be 0a bf 55 64 63 3f
       -0.31671733 0.67968273 -0.5419652 0.8882497
000080 eb 2b df 3d ba 66 25 3d d9 b8 38 bf 85 05 b5 3e
       0.108970486 0.04038117 -0.72157055 0.35355774
000090 38 44 74 3d aa b3 2a 3c 89 7f 12 bf 74 45 92 3d
       0.05963537 0.010418812 -0.57225853 0.071421534
0000a0 6f c3 91 be 26 1f 95 be 4d 95 a6 3e 41 46 6c bd
       -0.28469416 -0.29125327 0.32535782 -0.057684187
0000b0 f1 21 66 3f 63 ef 50 3c f7 b4 b3 be c9 bd b1 be
       0.8989554 0.012752387 -0.35099003 -0.34715107
0000c0 30 f4 a3 3e 10 11 23 bb a6 34 8f 3d ef b4 5a 3e
       0.32022238 -0.0024881996 0.06992464 0.21358083
0000d0 aa 07 07 3e 4e ae fb 3e 9a 74 7c bd bb 4c d9 3e
       0.13186517 0.4915642 -0.061634637 0.42441353
0000e0 34 b8 86 3d b8 20 d0 3e 33 b2 95 3e 10 02 48 3e
       0.06578103 0.40649962 0.29237518 0.19532037
0000f0 fd d0 a2 bd 32 d1 32 bf 50 a5 8b be 25 78 18 be
       -0.079500176 -0.69850457 -0.2727456 -0.14889582

blocks.0.attn.W_Q f4 [8, 32, 4]
000000 18 19 a5 bf 28 c8 d9 bc a0 7a 20 be a1 b2 49 3e
       -1.2898283 -0.0265847 -0.15671778 0.19697048
000010 ae ed bc 3e 7a 7a 5f bf 9a ac 85 3f cc 29 87 bf
       0.36900085 -0.8729626 1.0443299 -1.055963
000020 2d 86 1f 3f e3 0a 89 bf 93 87 96 bf 51 56 f6 bf
       0.6231411 -1.0706447 -1.1760124 -1.9245092
000030 45 5d 0f c0 b1 b8 68 3d d8 2b af 3f 9f 25 a1 bf
       -2.2400677 0.05681676 1.3685255 -1.2589606
000040 c7 d1 22 bd 4e e9 c2 bd 3d 34 13 c0 01 90 de 3f
       -0.03975084 -0.095171556 -2.3000634 1.7387697
000050 a4 6d df be f9 1a 07 bf 30 cc 5d 3f d8 0d d9 3f
       -0.43638337 -0.5277553 0.8663969 1.695735
000060 0d 11 77 be 90 22 a2 bd 55 be c2 3f f0 d6 20 3f
       -0.24127598 -0.079167485 1.5214335 0.6282797
000070 a0 34 8f 3f e0 19 fd bf 9a 34 4a 3f 1b aa a0 3e
       1.1187935 -1.9773521 0.78986514 0.3137978
000080 bf 0b 47 3e fc 0c ca 3e 0f 1f 62 bf fd 48 41 bf
       0.19438075 0.3946303 -0.8832864 -0.75501996
000090 05 a6 1f 40 34 d9 d6 be f6 a6 5b c0 2b 15 7c be
       2.494508 -0.41962588 -3.4320655 -0.2461745
0000a0 ee 44 6d be d2 64 d6 be ac b1 83 bf 5f 3a 6a 3f
       -0.23170826 -0.41873795 -1.0288596 0.9149532
0000b0 0b bf 01 c0 7f 9b 7c 3e 73 8d 66 bf c4 c0 a6 be
       -2.0272853 0.24668692 -0.90059584 -0.32568944
0000c0 6f 91 6d bf 60 61 df 3d 27 de 80 3f 6f 71 39 be
       -0.9280004 0.10907245 1.0067796 -0.18109678
0000d0 36 90 9f be f6 ca c8 be b3 df 71 be 71 79 ca 3f
       -0.31164712 -0.39217347 -0.2362049 1.5818311
0000e0 04 1a 93 3f 55 31 a2 bf 3d 20 d6 3e 39 0b 15 bf
       1.1492314 -1.2671305 0.4182147 -0.5822025
0000f0 47 96 ca 3e d4 9c c5 bf fb ea 95 bf 54 a6 bc 3e
       0.39567778 -1.5438485 -1.1712335 0.36845648
000100 33 05 19 c0 72 f4 83 3f 95 eb cd 3e 55 6f 73 3e
       -2.3909423 1.0308974 0.40218797 0.23772939
000110 c3 ff 8a 3f 3f 08 d2 be 4f b1 bd 3f 9e 2a ab 3e
       1.0859302 -0.41021916 1.4819735 0.33430952
000120 9b 97 9b 3e da 31 7e 3f c2 6c 0b be b4 c9 85 bb
       0.30389103 0.9929482 -0.13615707 -0.004082883
000130 cd ef 84 bf ec 2c 2f 3f ff 73 a5 3f b7 3d c6 3f
       -1.0385681 0.6842792 1.2926024 1.5487584
000140 78 0f b9 bf c4 17 f7 bf 6e 1e 62 bf f7 6e 5f bf
       -1.4457846 -1.9304128 -0.8832768 -0.87278694
000150 56 26 cb bf ee 25 71 3f a2 00 05 40 90 6f 44 be
       -1.5871074 0.941985 2.0781636 -0.19183183
000160 0c 80 00 be 27 75 a6 3f ef 9b b1 be 65 4d dc be
       -0.12548846 1.3004502 -0.3468928 -0.43027797
000170 c0 e2 cb bf 0e e9 47 bc 8c 73 05 3f dc c1 6d bf
       -1.5928574 -0.012201561 0.52129436 -0.9287393
000180 4c f7 14 be 7f a0 2a 3f e9 c0 38 3f 8f 80 fe 3f
       -0.14547461 0.6665115 0.7216936 1.9882983
000190 0b 2b c4 bf 09 a3 cd bf aa 5d ac bd 84 24 fb 3f
       -1.5325636 -1.6065379 -0.084163025 1.9620519
0001a0 f7 cd 76 3e 78 0a a8 3e b4 7f ea 3c 81 48 cc 3f
       0.24102007 0.32820487 0.028625347 1.5959626
0001b0 ed 7e 2f be 6d 18 eb 3d d4 42 30 bf 2d 9e 37 3e
       -0.17138262 0.11479268 -0.6885197 0.17931433
0001c0 db 6c 0b bf 86 df 4d bf 41 83 7c 3f 5a ab 27 bf
       -0.54462975 -0.80419195 0.9863778 -0.65495837
0001d0 d7 83 4d 3f 29 ac 53 be ad 4c 52 bf 0b 2c d5 3f
       0.80279297 -0.20671143 -0.8214825 1.6654066
0001e0 61 1f af bd b6 aa f1 bf 68 c9 a5 3f 57 db e2 3e
       -0.08550907 -1.8880222 1.2952089 0.44307968
0001f0 1c 80 67 3e f8 f7 87 be f5 e1 bd 3e dc 22 cf bf
       0.22607464 -0.26556373 0.37086454 -1.6182513
000200 6b 92 9c bf 4b 67 f3 3d 83 64 8c 3f 31 6a 15 3f
       -1.2232183 0.11884936 1.0968174 0.5836516
000210 e2 15 9e 3d df 00 71 3f a6 81 20 40 20 92 9f bf
       0.077190176 0.94141954 2.507913 -1.2466469
000220 6a e2 93 bf 87 1f 6d bc a8 0d 3a bf 6f df 69 3f
       -1.1553471 -0.014472849 -0.7267709 0.9135656
000230 1e 2d 85 3d 03 a8 67 3f 03 ca bd 3e 89 4c be 3f
       0.06502746 0.9049074 0.37068185 1.4867107
000240 f4 24 f1 3f a4 0b 7c 3f b7 24 33 40 16 3a a1 be
       1.8839402 0.9845526 2.799116 -0.3148963
000250 a3 36 4e bf 48 31 a9 bd 36 67 04 bf ce b2 c5 3f
       -0.8055212 -0.08261353 -0.5171999 1.5445192
000260 c7 c7 84 3e 71 bc b5 be 90 9d 73 3d d3 ec ab 3f
       0.25933668 -0.35495332 0.059476435 1.3431648
000270 56 61 fa 3f b5 79 d6 3e d4 df a9 3f 06 19 f6 3e
       1.9560955 0.4188973 1.3271432 0.48065966
000280 f3 e8 3b bf 3e 48 51 bf 00 b3 a7 bf 55 3b d0 3e
       -0.7340233 -0.8175086 -1.3101501 0.40670267
000290 10 b9 24 40 6b d7 b4 bf d0 a4 9e 3f cc bd e2 3e
       2.5737953 -1.412824 1.2394047 0.4428543
0002a0 c6 de 50 3e 25 21 6d bf 1d f6 e7 3e e6 56 00 3f
       0.20397481 -0.926287 0.45304957 0.50132596
0002b0 02 74 ec bf 9b 16 dd be 41 76 97 bf 2e b4 bc be
       -1.8472903 -0.4318131 -1.1832963 -0.36856216
0002c0 51 ef 1a 3f bc 31 8e bf 92 1c 8e 3f 0d c4 06 40
       0.6052142 -1.1108928 1.1102469 2.105716
0002d0 17 14 3a 3f b4 c6 c3 3f c1 9a 82 bf f7 bc c1 3e
       0.72686905 1.5295014 -1.0203477 0.3783948
0002e0 3a c1 33 3f 5d fc be 3f 55 3f 94 3f 7b 1c 28 3f
       0.70216715 1.4920765 1.1581827 0.6566846
0002f0 43 57 1e c0 e7 46 2f 3f 17 64 e9 3f 93 14 09 3e
       -2.474076 0.68467563 1.823367 0.13386755
000300 2f a1 37 3f a6 d0 1d 3f ae 84 c7 bf 88 a4 3d 3f
       0.7173032 0.616465 -1.5587366 0.7407918
000310 ca 27 4a be 94 f0 4d 3f b0 1f 8e 3e 02 07 2e bf
       -0.19741741 0.8044522 0.2775855 -0.67979443
000320 29 70 a3 3e aa f0 16 be ba 36 1d 3f 7e dd 9c 3f
       0.3192151 -0.14740244 0.6141163 1.2255094
000330 20 a3 30 bf 4c 2b 03 3f 90 f5 81 bf 96 47 a6 3d
       -0.6899891 0.5123794 -1.0153065 0.08119123
000340 ad 01 a0 3f ec fa f1 3f 4a 31 14 3f a1 df 23 3f
       1.2500511 1.89047 0.5788771 0.64013106
000350 4e 3e 02 3f b1 b1 96 be 94 fb 0b 3f 86 04 7f 3f
       0.5087632 -0.29432443 0.5468075 0.9961628
000360 36 c9 6a 3f 4b 5b 3c be 01 49 bd 3e ed 52 07 bf
       0.91713274 -0.183942 0.3696976 -0.5286091
000370 8c 95 57 3f 45 47 eb be b8 33 53 c0 83 36 2d 3f
       0.84212565 -0.45952812 -3.3000317 0.67661303
000380 0a bb 49 3f 2d f0 23 c0 b9 8e 10 c0 e3 46 5c 3e
       0.78801024 -2.5615342 -2.258711 0.21511416
000390 f9 1f 2e 3f 58 b8 17 3f b1 d7 de bf 16 4d 10 be
       0.68017536 0.5926566 -1.7409574 -0.14091906
0003a0 59 7a 22 bd 77 34 29 3f e9 e8 53 3f 39 54 90 3f
       -0.03966746 0.6609568 0.8277727 1.1275703
0003b0 ef 50 96 bf 1f 66 76 3f b3 a4 07 40 8e 63 58 3f
       -1.1743449 0.96249574 2.1194274 0.8452691
0003c0 39 96 79 3f bf 56 0a 3f 9f 9b 3b 3d 0b 93 c4 3f
       0.97494847 0.54038614 0.04580271 1.5357374
0003d0 95 f8 f9 3b db 7e 21 40 74 89 9b bf b5 0c 82 bf
       0.0076285102 2.5233676 -1.2151322 -1.0160128
0003e0 07 8e a2 3f 4e 69 b8 be 1f 0e 86 3e 90 a5 81 3f
       1.2699593 -0.3601784 0.2618265 1.0128651
0003f0 5e 67 56 40 ac a9 cc bf 0d 9c 95 bf 21 e4 48 be
       3.350059 -1.598928 -1.1688248 -0.19618274

blocks.0.attn.W_K f4 [8, 32, 4]
000000 86 15 94 3e 28 77 e1 3f df 81 22 bf 14 a6 ee 3f
       0.2892267 1.7614489 -0.6347942 1.8644433
000010 6c 07 eb bf 29 50 40 3e f2 e7 8e 3f 9d 16 6e 3e
       -1.836164 0.18780579 1.1164534 0.23250814
000020 cb 62 00 be e7 49 8e 3f a3 8e af bf 9c b6 9c 3f
       -0.12537687 1.1116303 -1.3715404 1.2243228
000030 a9 af 6d 3f 60 79 84 bf 6f 32 76 bf f6 36 91 3e
       0.9284616 -1.0349541 -0.96170706 0.28362244
000040 01 65 12 3f de e3 33 3f 2f 1d fb 3e 72 15 6f be
       0.5718537 0.7026957 0.49045703 -0.23348024
000050 a8 e1 a3 3f 32 97 e5 be f8 9f c2 be 3c 51 73 bf
       1.280324 -0.44841915 -0.3801267 -0.9504583
000060 29 1d 16 be f5 e7 bf 3f dc a2 12 be c6 3b 09 bf
       -0.14659561 1.4992663 -0.14319938 -0.5360683
000070 e6 cf 65 bf 38 23 f8 3f 55 2d 2e 3f 22 fc a9 bf
       -0.8977035 1.9385748 0.6803792 -1.328007
000080 fa 85 da 3e 9c 44 84 3e c6 c2 ce bf a8 cc 2d 3f
       0.4268034 0.25833595 -1.615319 0.67890406
000090 f4 cf 58 3e 13 7e e2 be 0e f4 c3 be 3a 91 5d 3f
       0.21173078 -0.44236812 -0.38272136 0.86549723
0000a0 9f be 24 bf 0e ed 23 3f 5c 28 df 3f 5d 0d 3e 3e
       -0.64353365 0.6403359 1.7434192 0.18559785
0000b0 a6 1e 48 3f e0 85 cc 3f b7 4a 61 3f c3 cf 36 3f
       0.78171766 1.5978355 0.8800463 0.7141077
0000c0 ef 64 e9 bf 63 11 6d be 4b df 8b 3e 7e 55 cf 3f
       -1.8233927 -0.23151164 0.27318797 1.6197965
0000d0 96 34 12 bf ff 32 ce bf a5 58 3a 3f aa 5d e7 bf
       -0.5711149 -1.6109313 0.7279151 -1.8075459
0000e0 22 4f ef 3f aa d3 0c 3f 13 d2 86 3e 18 77 12 3f
       1.8696024 0.55010474 0.2633215 0.5721297
0000f0 66 c3 ad be 20 ec ae bf 40 47 cc be cf 84 96 be
       -0.3393814 -1.366581 -0.3989811 -0.293982
000100 a4 bf e1 3f 53 6c 72 bf 2a 42 19 40 07 e6 ed 3f
       1.7636609 -0.9469654 2.3946633 1.8585824
000110 28 2b 28 40 80 08 2f bf 07 12 9d bf 35 15 8b bf
       2.627634 -0.68372345 -1.2271127 -1.0865847
000120 f4 32 85 3f ca ae 59 3f d1 e2 8c 3f e0 fb 06 be
       1.0406175 0.8503233 1.1006719 -0.1318202
000130 9f f4 34 40 bd de a3 3f ba d4 79 3f d7 0b e1 3f
       2.8274305 1.2802349 0.9759022 1.7581738
000140 08 fc af 3f f6 7e 89 bd e6 12 07 3f 10 33 5c bf
       1.3748789 -0.06713669 0.5276321 -0.86015415
000150 da 80 1d 3f 99 1d d7 3f 71 f9 85 3f a2 84 61 bf
       0.61524737 1.6805907 1.0466748 -0.88093007
000160 f6 21 23 3f 74 a9 4b 3d 20 4d 02 3f 14 9c cc 3f
       0.63723695 0.04972215 0.50898933 1.5985131
000170 60 10 6c bf 5e 2b b5 3e 9e 55 28 bf e1 72 28 3f
       -0.92212486 0.3538465 -0.6575564 0.6580029
000180 eb c4 28 bf 5c e5 b4 3d c0 be e1 3f 0b 63 e7 be
       -0.6592547 0.08832809 1.7636337 -0.4519275
000190 23 d1 19 40 aa c6 9c 3f f1 6a 3c be e4 45 82 3f
       2.4033897 1.2248127 -0.1840017 1.0177579
0001a0 40 d7 b4 bf 41 61 b9 bf 14 88 31 bf 0b 1d 36 3f
       -1.4128189 -1.4482805 -0.69348264 0.71138066
0001b0 01 c3 ec 3e 69 8f 92 be 86 ef 05 3f df 13 b2 bf
       0.46242526 -0.28625038 0.5231861 -1.3912314
0001c0 af 61 a1 3f 41 0d be be 8d 53 69 3e 5d 50 60 bf
       1.2607936 -0.37119487 0.22785778 -0.87622625
0001d0 d4 44 63 3f 39 64 69 bf 6b 6c eb bf cf 03 2c bf
       0.887769 -0.9116855 -1.8392462 -0.6719331
0001e0 18 9e 17 c0 33 1b c8 3f 07 e7 f7 be e8 00 93 3f
       -2.3690243 1.56333 -0.48418447 1.1484652
0001f0 6a 82 cd 3f c4 6a 91 bf 3f 7a 48 bf 7e 93 14 3e
       1.6055424 -1.1360707 -0.7831153 0.14509389
000200 44 7b e6 3e a1 49 81 bf 03 53 f8 bf d5 84 3a bf
       0.4501592 -1.0100595 -1.9400333 -0.72858936
000210 c7 b2 03 3e 4e bf c0 3f 9a da ed 3e b9 68 b3 3f
       0.12861167 1.5058382 0.46455842 1.4016334
000220 f0 37 cc 3d 58 c5 22 c0 62 ad 94 bf 6b 3d 3a be
       0.09971607 -2.543295 -1.1615412 -0.18187492
000230 b1 dc c2 3f dd a0 63 bd 92 74 a7 be 3f c3 a5 bf
       1.52236 -0.055573333 -0.32706124 -1.2950209
000240 a5 a8 92 3f 58 33 40 3d 05 58 f2 3f 05 7d c3 3f
       1.1457716 0.046923965 1.8933111 1.5272528
000250 be 2f 9b 3f 58 a3 fe 3e 2b 0d 84 3e 20 7a 2d bf
       1.2123945 0.49733996 0.25791296 -0.6776447
000260 a7 90 79 3f fd 62 9e 3e 6a 91 1a 3f b4 02 09 c0
       0.97486347 0.30934897 0.60378134 -2.14079
000270 6b 53 3b 3f c0 86 0e 3f 2e fc 27 3d 6e 25 9f 3e
       0.7317416 0.5567436 0.04101198 0.31083244
000280 34 27 31 bf ab f9 33 3f 04 91 74 3f 2f ed 16 3c
       -0.69200444 0.7030284 0.95533776 0.009211822
000290 1c 0c 70 3f 78 23 ff be df 07 01 be 42 4e d2 be
       0.9376848 -0.49831748 -0.12600659 -0.4107533
0002a0 fa 02 31 3f 3d 0d d2 3e 1f 79 0f bf a8 54 09 3f
       0.69145167 0.41025725 -0.5604419 0.536448
0002b0 64 ea d7 be 49 1d ca 3e c2 ff 19 be 90 b3 fc be
       -0.42171013 0.39475468 -0.1503897 -0.49355745
0002c0 80 30 a0 3f 4d 65 48 3f 9e e7 0b 3f ef 5b 25 bf
       1.2514801 0.7827957 0.54650295 -0.64593405
0002d0 24 b0 93 3e 8f 25 af 3f 95 26 cf 3e 8c 39 82 3f
       0.28845322 1.3683337 0.40459123 1.0173812
0002e0 ea dc 73 3f ea 8d 87 3c d0 34 c2 3f 98 48 4b bd
       0.95258963 0.016547162 1.5172367 -0.049629778
0002f0 51 15 25 c0 83 fe 0b 3f 7a 2d 6e 3c b4 74 d6 3e
       -2.579426 0.5468523 0.01453721 0.41885912
000300 ad f4 88 3e e9 6b 8a bf 84 98 ec 3d ef bd e7 3f
       0.26749173 -1.0814182 0.115525275 1.8104838
000310 b7 45 f5 bf 81 c9 dd 3e b4 b4 2f 3e e0 5a 61 3f
       -1.91619 0.43317798 0.17158777 0.8802929
000320 f5 5f 22 be ad e8 3a 3e 8a a2 dd 3f 4c 58 52 bf
       -0.15856917 0.18252821 1.7315228 -0.8216598
000330 62 03 c1 3d a1 96 9c 3f 2c dd a3 be 67 0f 23 bf
       0.09424473 1.2233468 -0.32004678 -0.6369538
000340 c1 79 a8 3e 67 91 e3 be dc 1a bc 3f 03 84 af bf
       0.3290539 -0.4444687 1.4695697 -1.3712162
000350 ec 02 3a 3f 79 80 88 bf 61 2a 94 bf 20 25 d1 3e
       0.7266071 -1.0664207 -1.1575433 0.40848637
000360 df d4 d8 be 82 d8 9f be e4 42 1e bd 10 6f 90 3f
       -0.42349908 -0.3121987 -0.03863801 1.1283894
000370 0b 00 20 bf 7c 85 20 bf 06 ba 0c be 4a b5 f5 be
       -0.62500066 -0.6270368 -0.13742837 -0.47989875
000380 86 68 e7 be 0a 21 b3 3d e6 c8 c5 3e f1 bb 5b 3f
       -0.45196933 0.08746536 0.38629836 0.8583365
000390 92 0e 98 3f 7e d8 d9 bf 3e f3 92 3e a5 66 72 3e
       1.1879447 -1.7019193 0.28701204 0.23671968
0003a0 fb 47 2b be 05 3f 79 be 2b 06 d4 bf bb 53 5b 3f
       -0.16726677 -0.24340446 -1.6564382 0.8567464
0003b0 7d 3a b8 3f 37 d9 55 3f 98 74 10 be fd b4 96 3f
       1.4392849 0.8353457 -0.14106977 1.1773983
0003c0 7d 1b b6 3e 4f 85 1c 3f dc de 79 3f dd ba a3 3d
       0.35567847 0.6114091 0.9760568 0.07994626
0003d0 98 68 d9 3f 20 42 3a 3f 33 e4 96 be 5d d2 54 40
       1.6985044 0.7275715 -0.29470977 3.3253396
0003e0 71 74 d0 3f c1 b9 42 bf 5c f8 15 bd e2 ee 90 3d
       1.6285535 -0.7606469 -0.036613807 0.07076813
0003f0 49 d3 63 40 a1 12 00 c0 b8 4d 52 be 35 5c 74 3f
       3.5597708 -2.001137 -0.2053746 0.95453197

blocks.0.attn.W_V f4 [8, 32, 4]
000000 be 34 80 bf a1 92 25 3f 1f e3 9e bf d5 9e b1 3e
       -1.0016096 0.6467686 -1.2413062 0.34691492
000010 8c b0 05 c0 4c 01 a8 bf 33 c5 e7 3d d3 75 1e 3e
       -2.0889006 -1.3125396 0.1131691 0.15474634
000020 ee a7 82 bd 80 71 14 40 d9 05 ca 3f e4 32 ff 3d
       -0.06379686 2.3194275 1.5783035 0.124608785
000030 a7 c8 7f 3f 8b e6 da 3f 31 00 00 c0 c7 8e 8d bf
       0.99915546 1.7101606 -2.0000117 -1.1059197
000040 53 75 e1 3e 70 32 b3 bf ac 29 05 3e f2 8d 96 bf
       0.44034824 -1.3999767 0.13004178 -1.1762068
000050 b2 6c de bf b6 7b 20 40 b5 a1 c0 3b d0 f3 4c 3f
       -1.7376921 2.5075507 0.005878652 0.8005953
000060 c1 b5 82 3f e6 00 eb 3e d6 1d 9c bf 67 42 34 bf
       1.0211717 0.45899123 -1.2196605 -0.7041382
000070 22 33 dd bf e5 bd 88 be 16 aa de bf 3c 54 ac be
       -1.728123 -0.26707378 -1.7395656 -0.33658016
000080 34 ec 87 3e 34 72 c0 3f 2f 16 ee bf 87 b3 df 3f
       0.26547396 1.5034852 -1.860052 1.7476662
000090 27 4d 88 3f e4 cd 23 bf c6 38 09 40 b3 0d 60 3f
       1.0648545 -0.6398604 2.1440902 0.87520903
0000a0 af b5 06 3f 86 00 19 c0 fa 34 18 bf 6b 63 94 be
       0.5262098 -2.390657 -0.59455836 -0.289821
0000b0 24 40 f3 3f 59 21 b3 3f 42 b8 b9 be 74 67 0f 3f
       1.9003949 1.3994552 -0.3627339 0.5601723
0000c0 09 5c 22 3f 69 b7 a7 bf 04 1c a7 3e b2 b0 53 3f
       0.63421685 -1.3102847 0.32638562 0.8269149
0000d0 c6 65 b3 3f f0 44 f4 bd 5d a0 c8 3f 8a 63 26 3f
       1.4015434 -0.11927211 1.5673939 0.64995635
0000e0 42 7e 96 3e be 64 a6 bf 42 52 eb be 28 0b b2 3f
       0.29393202 -1.2999494 -0.45961195 1.3909655
0000f0 2f aa 08 be 8e b1 8b 3e 96 77 07 3f 4d fb 63 3f
       -0.1334617 0.272839 0.5291685 0.8905533
000100 78 b8 6f bf 31 f0 b1 3e 20 1b 0b bf b4 41 92 3f
       -0.9364085 0.34753564 -0.54338264 1.1426301
000110 4e 94 2c 40 53 2e c7 3f dc aa 01 3f 5f 81 b1 be
       2.6965518 1.5561012 0.50651336 -0.34669015
000120 72 7f 8a bd 72 56 f4 3e c5 2a 96 3f 69 51 a4 3f
       -0.067625895 0.47722203 1.1731802 1.2837344
000130 b1 4e d7 bc cb 1a a7 be f5 dc 1d 40 a6 c5 16 3e
       -0.02628264 -0.3263763 2.4666111 0.14723834
000140 89 f3 3d be 13 54 a9 3f e0 49 b0 bf 71 71 e4 3e
       -0.18549933 1.3228782 -1.3772545 0.446178
000150 4c 47 6a 3f 64 6d 1f 3f 1f 2f cf 3f 30 72 31 3e
       0.9151504 0.6227629 1.6186255 0.17328715
000160 f2 2f 1a 40 21 31 de 3f ce 11 ac 3d ad 62 e7 3e
       2.4091763 1.7358743 0.084018335 0.4519247
000170 b1 4f 2f 3f 8c 24 b7 bf 01 e5 e5 3f 4f 68 5b 3f
       0.68480974 -1.4308028 1.7960511 0.8570604
000180 c4 24 4b bf 45 49 b7 3b ec 70 8c bf 6c 38 6d be
       -0.79352975 0.005593451 -1.0971961 -0.23166054
000190 58 4a e7 be 16 99 1b 40 66 09 0b 40 a9 40 b0 bd
       -0.45173907 2.4312186 2.1724486 -0.08606083
0001a0 25 25 ef bf b2 2b e0 be 63 69 b6 3f 97 9b 95 3f
       -1.8683211 -0.43783337 1.4250911 1.1688107
0001b0 fc 01 e5 3e b7 18 82 bf f9 d8 cb bf 61 9f 20 3e
       0.44728076 -1.0163792 -1.592559 0.15685798
0001c0 5b 40 7f 3d d2 03 45 bf a0 d5 9a bf 1a 35 4d bf
       0.062317234 -0.76958954 -1.2096443 -0.8015915
0001d0 f9 b3 c8 3f 96 1f 1a 3e 3a 56 d7 3f e3 b0 04 40
       1.5679923 0.15051112 1.6823189 2.0732963
0001e0 ae 23 3a bf dd 1a 92 bf 8a e7 1a 3e 8c 7c 55 3e
       -0.7271069 -1.1414448 0.15127388 0.20848292
0001f0 2a ac 99 3f df 30 b5 3f 59 32 d5 3f 06 4d 1a bf
       1.2005665 1.4155539 1.665599 -0.6027378
000200 b1 5f 01 c0 dd 6e ef bf 4d 6c e2 be dd 56 fe be
       -2.0214655 -1.8705708 -0.44223252 -0.49675646
000210 3c 60 b2 3f 90 cb db 3f b8 a5 c0 3e 2a c0 22 3f
       1.3935618 1.7171497 0.37626433 0.6357447
000220 74 15 69 bf 95 53 48 3e 51 f5 2e bf 75 6a b0 3e
       -0.9104836 0.19563134 -0.68343073 0.3445622
000230 f6 74 8c 3d da 0a 58 be b7 ac 43 3f e0 5c cb 3e
       0.06858246 -0.2109789 0.76435417 0.39719296
000240 12 10 bf bf c2 9a e8 be a0 02 e9 be 57 9b 0f bf
       -1.4926779 -0.4543057 -0.45509815 -0.56096405
000250 e9 92 74 3f 5a 85 7a bf 83 17 cf be b0 e7 0f bf
       0.9553667 -0.9785973 -0.40447626 -0.562129
000260 55 68 25 c0 d6 de 4d 3f 68 c1 87 3e e7 57 ed 3e
       -2.584493 0.80418146 0.26514745 0.46356127
000270 65 0f 95 3f 03 6d 76 3f a5 b5 37 3f 77 8b cc bf
       1.1645323 0.9626009 0.7176154 -1.5980061
000280 ca 97 40 bf 7a 90 a3 bf fa ee 12 3f 39 a6 e5 bf
       -0.7523161 -1.2778466 0.573959 -1.7941352
000290 c9 3d 99 3e d5 06 80 3f e3 b0 bf bf 1b 16 ce bd
       0.2992995 1.0002085 -1.4975857 -0.1006281
0002a0 68 1c 15 bf f3 a2 47 3d e7 37 92 3f 9c 45 2a 3f
       -0.5824647 0.048739385 1.142331 0.66512465
0002b0 86 1d 13 3e 81 51 6b bf 76 34 fa 3f 39 c5 15 40
       0.14366731 -0.9192124 1.954726 2.3401625
0002c0 ca a9 4c 3f 86 42 b0 be 3b 87 3e be a4 d4 d0 3f
       0.7994658 -0.34425753 -0.18606274 1.6314893
0002d0 e4 29 56 3f 28 76 4d bf 65 22 5e bf 55 cb b6 bd
       0.8365767 -0.8025842 -0.8677123 -0.08925501
0002e0 24 f2 77 3c 28 32 9e 3f 7b 9b 04 3e da c6 ae be
       0.015133414 1.2359056 0.12949936 -0.34136087
0002f0 c6 8b b1 3f d8 8d 9a bc dd f9 85 bf 00 26 ce bf
       1.387078 -0.018866464 -1.0466877 -1.6105347
000300 5f 4f 24 3f d2 08 16 be 3c 88 f6 be 3f 66 4f bf
       0.6418361 -0.14651802 -0.48150814 -0.8101539
000310 ef 1c 1e bf 64 35 95 3b 5b a2 83 3e 42 b0 a3 bf
       -0.617629 0.004553484 0.25709805 -1.2788165
000320 1c 7f db be 2d ea d0 bd 33 43 67 3f a6 12 32 bf
       -0.42870414 -0.102009155 0.9033691 -0.69559705
000330 fc f2 2f bf 0f ae d1 bf b9 88 f8 3e e0 22 d8 be
       -0.6873014 -1.6381243 0.4854181 -0.42214108
000340 fe f2 06 3e 07 ed 19 bf f8 19 75 bf c2 55 f0 be
       0.13178632 -0.601273 -0.9574275 -0.46940428
000350 f5 3a c1 bd fb 61 47 3f 6b f9 a1 3f f7 85 1c be
       -0.09435073 0.7788388 1.2654241 -0.15285479
000360 16 16 b9 bf 15 f8 a2 3f 01 b0 da bf 65 da 72 bf
       -1.4459865 1.2731959 -1.7084962 -0.94864494
000370 b0 be 10 3f 54 00 28 bf 4a 59 df 3b 40 5f 2a be
       0.56540966 -0.656255 0.006816064 -0.16637897
000380 b2 2e 80 3f e7 15 9d be 78 73 99 3f 5d 7a 36 3f
       1.001425 -0.30680773 1.1988363 0.7128046
000390 18 ed 32 3f 68 44 09 be 6e 64 c6 3e 27 69 97 3f
       0.69893026 -0.13405001 0.38748497 1.1828965
0003a0 a7 39 92 be 32 d9 b0 3e ae 59 03 bf fc 83 73 3e
       -0.2855961 0.34540707 -0.51308715 0.23780817
0003b0 c9 59 3b 3f 9b 0b 1d bf da 98 26 bc 39 a4 68 bf
       0.73183876 -0.61345834 -0.010168279 -0.90875584
0003c0 93 fe c4 3f 16 1c 56 be da 54 45 3f 63 32 95 3d
       1.539019 -0.20909151 0.770826 0.07285001
0003d0 70 b2 c3 3e e5 09 6b bf 0d ea d8 bd 70 54 c7 3e
       0.38222075 -0.9181197 -0.10591517 0.38931608
0003e0 f0 db 7e be 2c d2 fe 3f 88 4c 23 be f3 07 01 3f
       -0.24888587 1.9907889 -0.15947163 0.50402755
0003f0 1c 36 ba be ea f5 33 bf 9d 60 2d 3e 8e 8d 82 3f
       -0.36369407 -0.7029711 0.16931386 1.0199449

blocks.0.attn.W_O f4 [8, 4, 32]
000000 3b 63 10 40 b1 50 96 3f 96 fb de 3e ad 45 2d 3f
       2.2560565 1.1743375 0.4355132 0.6768444
000010 29 0e c1 bf cd 42 ff 3f 9e ee 4d 3f c6 6f cd 3f
       -1.5082446 1.9942261 0.80442226 1.6049736
000020 5d cb a3 3e c1 08 66 3f cd f6 dc 3f e9 00 cc 3e
       0.3199109 0.8985711 1.7262818 0.39844444
000030 28 cb 15 3f 8c 97 82 bf 06 22 34 bf 9f 0f 37 be
       0.58513117 -1.0202498 -0.70364416 -0.17877053
000040 fc ac 83 3f 63 af 09 bf cf 6f 06 bf c9 d7 f8 3e
       1.0287166 -0.53783244 -0.52514356 0.4860213
000050 1e 99 b4 be 68 dd 64 bf 90 6e df bf fd ac 3a 3f
       -0.3527307 -0.8940034 -1.7455616 0.7292021
000060 0e fa 26 3f 25 14 f0 be 59 ba bf 3f 71 cf 95 3f
       0.65225303 -0.4689037 1.4978744 1.1703931
000070 c2 5d 73 3f b2 a4 8c 3f dd c9 ce 3f 82 cd a0 3f
       0.9506494 1.0987761 1.6155354 1.2562716
000080 fb 34 fc 3f a5 31 3e 40 86 e5 ba 3e 00 97 1e 40
       1.9703668 2.97178 0.36503237 2.4779663
000090 8d fc c8 3e fc b7 39 40 be ed 08 be 40 72 0a 3f
       0.3925518 2.9018545 -0.13371941 0.5408058
0000a0 ff 37 3c 3f 9c 42 06 bf 37 3a 57 3f 0c ed 15 3f
       0.73522943 -0.5244539 0.84073204 0.5856483
0000b0 09 ad 1d 40 9f a2 f4 3c 86 49 0f 3f 04 d2 2a bf
       2.4636862 0.0298627 0.5597156 -0.6672671
0000c0 74 5d a8 3d de 23 b3 3f 6d 4b 5b 3e cd 2f c5 3f
       0.0822095 1.3995321 0.21415491 1.5405213
0000d0 38 2f c1 be 50 35 b5 3f 57 ae 0d 40 40 44 e7 3f
       -0.37731338 1.4156895 2.2137659 1.8067703
0000e0 c3 71 bc bf b2 36 43 3f 48 ec 34 bf 94 3c 4f bf
       -1.4722217 0.76255333 -0.70673037 -0.8095181
0000f0 66 17 ff 3e 9a 60 99 3b ab d1 e0 bf dc 9d 99 bf
       0.4982254 0.0046807053 -1.7563986 -1.20013
000100 13 a5 7f 3e bb b6 fb 3f 2a 69 29 3d 94 2a d2 3e
       0.24965315 1.966514 0.041360058 0.4104811
000110 e5 27 51 3f 46 b1 43 3f b8 4d 32 be d3 c8 14 40
       0.817015 0.7644237 -0.1741246 2.3247573
000120 6b 6e 83 3f c9 03 54 3f 9d f9 d0 3e 7f a9 18 be
       1.0268072 0.82818276 0.4081544 -0.14908408
000130 2f 87 b3 3f 31 37 72 3f a5 b8 fa 3d 00 29 cb be
       1.402563 0.94615465 0.122422494 -0.39679718
000140 90 c7 53 3f 99 ef 41 be ba 17 c9 3e 16 b4 af 3e
       0.82726383 -0.18939056 0.39275914 0.34317082
000150 e8 c3 57 bf 5f 7a e4 bd 75 41 fb 3f 8c ca eb 3f
       -0.84283304 -0.11156153 1.9629351 1.8421187
000160 be bd 6e be b1 e9 a2 bf b3 41 47 3f bf 8c f4 3e
       -0.23314568 -1.2727567 0.77834624 0.4776363
000170 a0 fa 60 3f b1 5c 93 bf e5 3e 21 bf b6 80 8a 3e
       0.87882423 -1.1512662 -0.62986594 0.27051324
000180 b2 f8 7a 3f 62 28 ea bf 9a 20 67 bf 11 a3 e0 3e
       0.9803573 -1.8293574 -0.9028412 0.4387441
000190 76 5d e6 3f f5 23 d7 3f 67 b9 84 be c1 91 33 40
       1.7997272 1.6807848 -0.259227 2.805771
0001a0 c7 5b 0f 3f 7e 80 65 be ec 7a 49 3f 3a 0b cd bf
       0.55999416 -0.22412297 0.7870319 -1.6019051
0001b0 08 e1 93 be 23 5b aa bf 0a e8 16 3f 4b b1 b4 3e
       -0.28882623 -1.3309063 0.58947814 0.35291514
0001c0 f1 07 1a 40 22 1c 2d 3f ad 0c bd 3f d7 df cc 3e
       2.4067347 0.6762105 1.4769493 0.40014526
0001d0 e2 5b 81 bf d3 01 40 bf 21 ce a5 3f 1e 33 08 40
       -1.0106165 -0.75002784 1.295353 2.12812
0001e0 06 d3 c2 3e 3e 52 58 3e 34 6f 7a 3f d1 76 01 c0
       0.38051623 0.21125123 0.9782593 -2.022877
0001f0 e2 0e 55 3f a2 7f 58 3f 2d 55 33 3f 98 66 8d be
       0.83225834 0.8456975 0.7005184 -0.27617335
000200 12 62 92 3f 27 07 83 3f 69 76 6c 3f 35 df c3 3f
       1.1436179 1.0236558 0.9236818 1.5302492
000210 b4 8f ab bf a1 43 05 3e ee 83 c2 3f 21 83 97 be
       -1.340323 0.1301408 1.5196512 -0.2959223
000220 74 dd 92 3e f9 fd ec 3e bb 6b 9f 3f de af 5e bf
       0.2868458 0.46287516 1.2454752 -0.869871
000230 84 77 95 bf e3 0c ad 3f f9 b2 e1 3f 89 1f ef 3f
       -1.1677098 1.3519558 1.7632743 1.8681499
000240 9b 93 42 3d 78 86 43 3f 33 b7 4f 3f 20 a0 e6 3f
       0.04750405 0.7637706 0.81138915 1.8017616
000250 59 0d 4f 3f 6c b2 90 be f2 4e b2 3e 62 a8 49 bf
       0.8087974 -0.28261125 0.34825855 -0.78772557
000260 a4 ec 5e be 5e e3 1c bf 55 53 25 3f 96 c0 78 3c
       -0.21769959 -0.61284435 0.6458028 0.015182635
000270 56 bf b4 3f 9a cb ba 3e 86 9d af bf ec eb 85 3f
       1.4120891 0.3648346 -1.3719947 1.0462623
000280 58 b0 ec be 44 85 c7 be f3 25 dd 3f 2c c8 8b 3f
       -0.4622829 -0.3896886 1.7277206 1.0920463
000290 4a 94 ab 3f 35 98 e4 3e 7c 61 c1 3e a5 10 b7 3f
       1.3404629 0.44647375 0.37769687 1.4301955
0002a0 fb 5d 6f 3f a8 9f 41 3e 88 75 bf 3f d2 7b d7 be
       0.9350278 0.1890856 1.4957743 -0.42086655
0002b0 ba 29 b5 3f 20 c7 33 3f 12 ce 0a 3f 1d 10 d6 bf
       1.4153359 0.70225716 0.5422069 -1.6723667
0002c0 d0 c4 40 3f 39 6b 47 3f 8e 2d c8 3e c4 5a 32 3f
       0.7530031 0.77897984 0.39097255 0.6966975
0002d0 4e 38 01 40 dc ea 24 3f fc fd 00 40 f7 d6 3b bf
       2.0190616 0.64420867 2.015502 -0.73374885
0002e0 17 34 2f 3f 07 f3 bb 3d bd 2b e4 3f 98 4f b2 3f
       0.6843886 0.09177213 1.7825848 1.393054
0002f0 ec 8e 86 bf 25 39 43 3d d7 42 ba be 01 b5 63 bf
       -1.0512366 0.04766192 -0.3637912 -0.88948065
000300 be 59 c4 3f cf 15 1b 3f 2f 5c 80 3f 14 75 84 3f
       1.5339887 0.6058015 1.0028132 1.034823
000310 45 fc f5 3f 3d 40 84 be 5b 6d d5 3e 58 5e 73 3f
       1.9217612 -0.2583026 0.41684994 0.9506583
000320 10 63 81 3e 72 d8 13 bd 43 06 fb 3f 27 da 7e 3f
       0.2527089 -0.03609509 1.9611286 0.99551624
000330 47 cd b6 3e 85 d8 a9 3f 2d 1d 22 bf b0 62 c0 bb
       0.3570349 1.3269202 -0.6332577 -0.0058711395
000340 0e bd 01 c0 15 04 cc 3f 93 b0 28 3f df f3 bc 3f
       -2.027164 1.5938746 0.6589443 1.4761924
000350 48 9a 62 be 88 07 2d bf 21 37 35 be 70 80 b3 3f
       -0.22129166 -0.67589617 -0.17696811 1.4023571
000360 52 1b e1 3f a5 3c b4 3c fc db c3 3f a2 e4 18 3f
       1.7586462 0.022001574 1.5301509 0.59723866
000370 df 10 7e 3e f7 59 5f bf 25 d5 72 3f 9f 33 92 3f
       0.24811123 -0.8724665 0.9485648 1.1422004
000380 41 63 be 3f 58 55 c1 3f 09 59 7f bf da 02 c5 be
       1.487404 1.510417 -0.9974523 -0.38478738
000390 55 da e3 3f 4c 6b b9 bf 87 d3 f3 3f 1d 0f 70 3f
       1.7801005 -1.448587 1.9048928 0.9377306
0003a0 27 fa b0 3a 8d 6b 4d bf 30 41 42 3d 98 32 20 c0
       0.0013502286 -0.80242234 0.04742545 -2.503088
0003b0 bf e9 cf 3f ef 81 6e 3f 23 a7 5f bf 5f ab 08 3f
       1.6243209 0.9316701 -0.87364405 0.5338649
0003c0 f3 2d 67 3e 0f 44 87 be 67 df cf be 81 09 40 40
       0.22576122 -0.26419112 -0.4060013 3.00058
0003d0 46 c6 fd 3e 8d 73 23 bd 0d d2 a9 3f 9a ce bb 3f
       0.49565333 -0.03990512 1.3267227 1.4672425
0003e0 14 47 9e 3d 19 1a 97 3f e4 5a 93 3f 7c 93 cb 3f
       0.07728401 1.1804839 1.1512113 1.5904384
0003f0 5c e3 cb 3e 7d b7 95 3f 76 d5 fd 3e df 6a 90 bf
       0.398219 1.1696621 0.4957692 -1.1282614

blocks.0.attn.b_Q f4 [8, 4]
000000 b0 f0 14 bf 69 fa ad 3e 12 70 90 3e ad c0 1b be
       -0.5817976 0.3398011 0.28210503 -0.15210219
000010 ac 2b 31 3e cc 97 d2 bc 82 64 b2 be 54 60 5d bd
       0.17301816 -0.025707148 -0.34842306 -0.054046944
000020 92 0d 74 bd f5 58 39 3d 53 16 2b bf c6 a6 1b 3e
       -0.059583254 0.04525085 -0.6683094 0.15200338
000030 70 ee b1 bd 98 6f 40 3e 6d 25 19 3f 60 80 92 3d
       -0.086880565 0.1879257 0.5982273 0.07153392
000040 6d d8 95 3d 86 70 63 be df 15 92 3e dc c6 a9 3e
       0.073166706 -0.22210893 0.2853231 0.3315953
000050 03 8d 97 3e 7c 90 23 bf 9e 22 24 3f 5e 09 3c 3e
       0.2959977 -0.6389234 0.6411532 0.18362948
000060 f6 61 1e be af 9f 47 3c 6d 90 af 3d 46 6f c3 3e
       -0.15467057 0.012184068 0.08572469 0.38170832
000070 66 33 16 3f 64 d8 87 3e 60 a5 ce be 6e e7 af 3e
       0.5867218 0.2653228 -0.40360546 0.34356254

blocks.0.attn.b_K f4 [8, 4]
000000 08 6c b1 3c 7f 77 d8 bc e2 cc 3b 3d b5 c1 15 bc
       0.021657959 -0.026424168 0.04584969 -0.009140422
000010 e8 61 b3 3c 02 74 82 bb cb 55 e6 3c b2 f3 6f bc
       0.021897271 -0.0039811144 0.028117081 -0.014645504
000020 e6 dc 7d 3d d0 0c 01 3c 70 cf e5 3c e3 10 76 3d
       0.061978243 0.00787659 0.028053015 0.0600747
000030 5e 7c c5 bc 53 c3 92 3c 9f b0 ea bc 25 89 aa 3c
       -0.024107154 0.017915403 -0.028648673 0.020817349
000040 ae b4 31 bb 54 e2 5f bd 05 23 94 bd 21 72 40 bc
       -0.002711575 -0.054659203 -0.07233242 -0.01174596
000050 a1 40 f9 3d 7e 60 86 3d 25 5e 9b bd 36 6c 9c 3c
       0.1217053 0.06561373 -0.07586316 0.019094568
000060 06 ae 6b bc 4c 5d 31 be 4f 1a 18 3e 42 79 f5 bd
       -0.014384752 -0.17320746 0.14853786 -0.11986019
000070 aa b2 e6 bc 4a 2a 6b bd b5 70 0e be 05 c5 e6 3c
       -0.028161366 -0.057413377 -0.13910182 0.028170118

blocks.0.attn.b_V f4 [8, 4]
000000 ed 30 41 be 3a 82 44 be f7 8b e9 bd 01 62 f7 bd
       -0.1886632 -0.19190302 -0.11403649 -0.1207924
000010 28 c0 c1 bd ff ea e0 be c6 3b fb 3d a8 23 1f 3e
       -0.09460479 -0.43929288 0.1226726 0.15540946
000020 c3 c4 0d bc fb 14 61 bd d8 1b 3b be bc 66 98 be
       -0.008652869 -0.05495165 -0.1827234 -0.2976588
000030 ab 4e 4c 3e 6b a0 6d be aa 2c a6 3d ff 38 67 bd
       0.19951884 -0.23205726 0.08113988 -0.05645084
000040 93 52 68 be d4 f7 a6 bd 2e b5 b9 bd 7e 3d a1 be
       -0.2268775 -0.08152738 -0.090677604 -0.31492227
000050 d5 8b 02 3d e1 ad 96 3e 4b fe 7f be 70 2b 9e 3e
       0.031871635 0.29429534 -0.24999349 0.30892515
000060 cb 3a 4c be 06 50 01 3e 41 a4 8d be 87 d2 f0 3d
       -0.19944303 0.12628183 -0.27664378 0.11758905
000070 82 42 81 be 04 15 d7 3d c2 c3 44 be ea 47 d4 bc
       -0.25246054 0.10502055 -0.192153 -0.025913198

blocks.0.attn.b_O f4 [32]
000000 a4 8c aa 3d cb f9 5b be b5 c2 85 be 99 d3 43 be
       0.08327606 -0.21482007 -0.26125112 -0.19123687
000010 f0 22 b9 3e 94 13 c3 be 56 95 e8 bd 72 82 11 be
       0.36159468 -0.38100874 -0.113566086 -0.14209917
000020 90 76 16 3e 76 b4 56 be 69 3d 3d 3e 9b 4b ab 3e
       0.14693666 -0.20967278 0.18480457 0.3345612
000030 6b c8 02 bf 49 f1 4b bb 2f 09 f7 bd 76 af 5d 3e
       -0.51087064 -0.003111916 -0.120622985 0.21648964
000040 e7 11 02 bd 06 d4 5a 3e 04 f5 3d 3e e4 1f e0 bd
       -0.031755354 0.21369943 0.18550497 -0.10943583
000050 ba 26 0b bf 00 00 a7 be 4f a9 c2 3d dd 63 9c 3e
       -0.5435597 -0.32617188 0.09504949 0.3054494
000060 a4 42 f5 3d 42 f4 14 3d e0 b8 63 3d 28 41 e4 3e
       0.11975601 0.036365755 0.055596232 0.4458096
000070 f1 e0 3c 3e 2e 42 20 3e 4c 17 a3 3d a4 4e 8e 3d
       0.18445183 0.15650246 0.07963428 0.06948593
