experiments/20251102_032609/model.pt (torch, 911072 bytes, 79 tensors)

registers f4 [1, 32]
000000 25 ef 96 3e d8 4a 0d bb 69 18 f7 3d 56 4a 7c be
       0.29479328 -0.0021559503 0.12065203 -0.24637732
000010 dd c9 25 3e b8 1e 62 3e 9f c5 bf 3d 42 a2 80 3e
       0.16190286 0.22082031 0.09363865 0.25123793
000020 4e da ba 3e ed 51 34 3e 4b 55 30 be c3 3e c8 bd
       0.36494678 0.17609377 -0.17220037 -0.09777596
000030 87 d1 11 be 61 2a a7 bd e6 72 fa 3b eb e9 6f bd
       -0.14240085 -0.0816238 0.0076430915 -0.05857269
000040 0d 77 53 3e e3 30 97 3e 01 b3 39 3d a8 f2 67 bd
       0.20650883 0.29529485 0.045336727 -0.0566279
000050 ea 75 ad bc ec 5c 9f 3d fd 53 97 be ad 42 39 be
       -0.02117439 0.07781395 -0.29556265 -0.18091841
000060 4a 51 82 be 22 59 83 3e 2f e4 f1 bc 1a 0e 32 bd
       -0.25452644 0.2565394 -0.029527752 -0.04347048
000070 42 61 56 bd 08 7d 98 be e7 14 3b 3e 1d 60 e4 3c
       -0.052338846 -0.2978289 0.18269692 0.027877862

pe_grid f4 [36, 32]
000000 db 02 40 3e 58 6e 88 be 74 8d 6c 3e 19 77 82 3e
       0.1875109 -0.26646686 0.23100835 0.2548149
000010 83 f9 1e be cc e5 d7 bd 79 65 ec 3d 01 86 f4 3e
       -0.15524869 -0.10541877 0.11542792 0.47758487
000020 e2 f5 83 3c c1 a6 52 bd 2b 05 a9 3e 31 98 31 bd
       0.016108457 -0.05142856 0.33011755 -0.04335803
000030 33 51 d8 bc 95 28 b1 bc 5a 2b 7e 3e e9 a2 96 bd
       -0.026405906 -0.021625796 0.24821225 -0.073552914
000040 5b bc b1 be 74 6e 40 be 56 44 c5 3e 84 68 7a 3c
       -0.34714016 -0.18792135 0.385287 0.0152837075
000050 88 ec da 3c c9 67 4a 3e 9c 1c 01 be 20 47 f6 3d
       0.026724115 0.19766153 -0.1260857 0.12025285
000060 f9 00 90 bd 8a 0a 42 be cc d3 55 be a7 f4 a5 3d
       -0.070314355 -0.18949333 -0.20881575 0.08103304
000070 8e c0 71 3e 25 37 13 bd 8a a4 57 3d 76 d1 73 3e
       0.2360861 -0.03594126 0.05264715 0.23810372
000080 59 98 c6 bd 8f 85 b8 be 54 c0 1f be da cd 25 bd
       -0.09697027 -0.36039397 -0.15600711 -0.04047952
000090 c3 8e 0a be 1e ed 5e 3d bc 6e fc 3d 87 f2 38 3e
       -0.13531022 0.05442535 0.123258084 0.18061267
0000a0 a4 66 12 3d c8 1c 33 3e 85 d9 81 bd d2 b1 77 3c
       0.035742417 0.17491448 -0.06340317 0.015118079
0000b0 7a 72 57 be bf e0 96 be 5b 62 51 be 87 a1 db bd
       -0.21039763 -0.29468343 -0.20447676 -0.10724168
0000c0 b3 59 66 bd 42 31 bd 3d 3d 7a 1a be f9 c1 d2 3c
       -0.056237888 0.09237911 -0.15085693 0.025727259
0000d0 8c 75 bc bb 52 ca 66 3e ec 0c 83 be e8 a0 25 3e
       -0.0057513174 0.22538117 -0.25595796 0.16174662
0000e0 97 0b 02 be 59 d5 c7 3b b4 be 26 be b7 ac b0 3e
       -0.12699734 0.006098431 -0.16283685 0.3450677
0000f0 63 d2 9e 3d 1e 2e 38 be 01 33 be 3d c0 a1 e4 bd
       0.07754972 -0.17986342 0.09287072 -0.11163664
000100 53 69 c1 be 19 3d 2e 3e 0f 1b ab 3e 05 4e 72 bd
       -0.37775669 0.17015494 0.33419082 -0.059156436
000110 b9 41 1a 3d 00 07 ea 3d 87 d0 92 3d ee 01 f0 bd
       0.037660334 0.114271164 0.0716868 -0.11719118
000120 8d ed ca 3d 07 e1 cd bd d9 55 25 3e 0d 09 85 be
       0.099085905 -0.10052686 0.1614603 -0.25983468
000130 80 eb 91 3d c0 0d c9 bd 13 e4 77 3e 87 30 9f 3e
       0.07124996 -0.09817076 0.24208097 0.3109171
000140 01 08 51 be 79 4a a0 3e 5a ce b5 bd b2 6e 1f be
       -0.2041321 0.31306818 -0.08877249 -0.1556957
000150 b3 f3 21 3e 18 08 b9 3c bd fd 5d be 5a 12 1c be
       0.1581562 0.022586867 -0.21678825 -0.15241376
000160 1e 1e 2e be 27 df a5 3e 13 98 5a be 40 a1 ab bd
       -0.17003676 0.32396814 -0.21347074 -0.08380365
000170 61 b6 f7 bc 12 19 c0 3d 76 11 f1 be 3a ea 2d be
       -0.030238332 0.09379782 -0.47083634 -0.16983882
000180 fb be 1a be 67 52 74 3d 23 1f 58 3b 67 81 52 3d
       -0.15111916 0.059648897 0.0032977543 0.05139294
000190 25 98 7d 3d 29 a5 d6 3d 81 62 d3 3e 6d c6 0c 3e
       0.061912674 0.104807205 0.4128609 0.13747568
0001a0 be b6 c8 bd b5 c9 9c 3d 4a b9 ab 3e e2 a5 de 3c
       -0.0980048 0.0765566 0.33539802 0.027178708
0001b0 9a 60 e2 bd 17 90 e4 3e 67 a2 65 be 19 8d cc bd
       -0.110535815 0.44641182 -0.22425233 -0.0998785
0001c0 7e 63 40 3d f6 64 59 3e 2e d5 07 3e 19 c6 19 3e
       0.046969883 0.2122992 0.13264915 0.15016975
0001d0 f4 f9 0a 3e 05 d8 96 bd 00 c6 5e be a4 d2 35 bd
       0.13571912 -0.07365421 -0.21755219 -0.044390336
0001e0 f6 4a 1a be 8d d3 6a 3e 8a 93 90 be ba c4 e1 bd
       -0.15067658 0.22932263 -0.28237563 -0.11023851
0001f0 2d 7d f2 bd 23 be 80 3e f4 bb 39 3d 13 9e 14 be
       -0.11840282 0.25145063 0.04534526 -0.14513426
000200 87 4e 0a 3d b9 40 dd be 56 6f b9 be 9a 4d 98 bd
       0.033766296 -0.43213442 -0.36217755 -0.07436676
000210 89 06 17 3d ea 15 d6 be 0f 6d 63 be ef 86 bb 3e
       0.036871467 -0.41813594 -0.22209571 0.36626384
000220 ad bd ba 3d df ac 63 bc 5f a7 9b be 6b cc 0d 3e
       0.09118209 -0.013896196 -0.30401132 0.1384751
000230 2a cb cc 3d b3 f1 3e bb 91 1c 54 be 84 a3 f3 3d
       0.09999688 -0.0029135763 -0.20714022 0.118964225
000240 db 8d 66 3e 86 57 74 be 76 e2 f2 3d cf ca 87 3e
       0.22515051 -0.23861513 0.118596 0.26521918
000250 7f 85 89 3b 33 5d f0 3d 38 2b 87 3d f9 b8 3a 3b
       0.004196822 0.11736526 0.0660004 0.00284916
000260 65 b4 83 be a2 94 f9 3d 56 d7 db ba 3c 4e 01 be
       -0.25723568 0.121865526 -0.0016772549 -0.126275
000270 ba ca 8f be 88 7f 10 bc e2 74 a1 3e 68 83 8e be
       -0.28084356 -0.008819468 0.31534487 -0.2783463
000280 f3 10 df 3d 43 4c 93 3e ac 61 49 be a7 8e 09 be
       0.10891905 0.2876912 -0.19666165 -0.13433324
000290 70 b4 95 be c1 0e 36 be 2e 09 1a 3d c1 08 b1 be
       -0.29239225 -0.17779066 0.03760641 -0.3457699
0002a0 4b c4 8f 3d 8c 9e 18 3d 64 90 a2 bd ab d5 13 3e
       0.07019862 0.037260577 -0.079376966 0.14436977
0002b0 e3 e9 92 3e fa 66 27 be 93 e4 fa bd a0 d2 32 bd
       0.28694066 -0.16347876 -0.12250628 -0.0436579
0002c0 68 aa 1f be 7c c7 f0 3d 39 bd 55 be 4e 4d 1d be
       -0.15592349 0.117567986 -0.20872964 -0.1536152
0002d0 39 1e e1 bb ba 6b cd be 35 d6 55 bd 56 3a 76 3e
       -0.006870058 -0.4012125 -0.052206237 0.24045691
0002e0 7d 4b 45 3e 6b 22 6c 3d 73 c2 85 be 2d 43 88 bd
       0.19267078 0.05765001 -0.26124915 -0.06653438
0002f0 15 47 be 3d 6d 8e 03 bd 2a ed 8e be 0d e8 73 bd
       0.092909016 -0.03211825 -0.27915317 -0.059547473
000300 35 1b a5 bd f4 4d 5b be 1f 4d 77 3d 25 3b 15 be
       -0.0806183 -0.21416456 0.060376283 -0.14573343
000310 6c 88 37 be e7 d4 37 be c3 ce b1 3e 0f eb a3 3e
       -0.17923135 -0.1795231 0.3472806 0.32015273
000320 4a 68 30 3e 8e e9 53 bd b3 df 67 3e a5 4a 89 be
       0.17227283 -0.051736407 0.22643928 -0.26814762
000330 6d a0 2e bc a3 4e 74 3d 8b 6f 42 bd 9d e6 39 bd
       -0.010658366 0.059645306 -0.047469657 -0.045385946
000340 eb ed 64 3d 33 e8 bc 3c ca 83 a0 bc cc 70 b0 bd
       0.05589096 0.02305994 -0.019594092 -0.08615264
000350 7f 14 45 bd 97 2e 1d be a5 02 4f 3e 04 c2 d8 be
       -0.04811525 -0.15349804 0.20215853 -0.42335522
000360 be 97 58 be 04 03 aa bd 9d 02 0a bd da c7 52 be
       -0.21151635 -0.083013564 -0.0336939 -0.2058405
000370 a9 fd 1b bc 29 61 10 3e 79 33 1e be 9b ef 93 be
       -0.0095209265 0.14099564 -0.15449323 -0.28893742
000380 c3 df 1d be ef 9e 06 3d 93 45 71 be b0 9c c5 bd
       -0.1541739 0.032866415 -0.23561697 -0.096490264
000390 27 d2 73 3e 01 e2 c3 bc 1e d6 a6 bd 40 07 34 3e
       0.23810636 -0.023911478 -0.08146308 0.1758089
0003a0 3a 25 85 3d 13 eb ea bd 9e c9 ef bd 7e d7 03 be
       0.06501241 -0.11470618 -0.11708377 -0.12875172
0003b0 17 f3 46 3d 2b fc db 3e d2 74 e4 bd d1 0b 4c be
       0.048571672 0.42965826 -0.11155094 -0.19926383
0003c0 7d 11 10 bc da 45 b4 bd 10 c8 f6 bd af 72 86 be
       -0.008793232 -0.08802386 -0.12049878 -0.26259372
0003d0 dc 99 50 be e3 fc 6b 3d eb 81 a0 3e 0e c1 8c 3e
       -0.20371193 0.05761422 0.3134912 0.2749104
0003e0 27 a2 55 be 1e 70 54 3e fb 05 87 3d ad 2f 83 3e
       -0.20862637 0.20745894 0.065929376 0.2562231
0003f0 12 a5 94 ba 9d ed c0 bd f4 c2 75 bd fc 2b b3 be
       -0.0011340699 -0.09420321 -0.060000375 -0.34994495

pe_frames f4 [6, 32]
000000 81 1e eb 3d 81 07 a6 bd 99 62 f3 3d 17 b0 ec ba
       0.114804275 -0.081069 0.118840404 -0.001805785
000010 6b 0e 5b be ee 63 de bd af 1f f1 3d 7c 03 80 bc
       -0.21392219 -0.10858904 0.11773621 -0.015626661
000020 4c d6 1c 3e e0 ff 27 3e 75 c2 81 bd 9e 52 20 be
       0.15316123 0.16406202 -0.06335918 -0.15656516
000030 aa 59 9d 3e 0f df f8 3b b4 d0 21 be 56 72 8d be
       0.3073247 0.00759495 -0.1580227 -0.27626294
000040 f2 2b 79 3e 8b 9c 9c 3c dc 66 64 3e 69 74 89 3c
       0.2433317 0.019117614 0.22304863 0.016779142
000050 21 c7 45 be 0c 79 07 be f3 8c b6 3d 34 c3 b0 3c
       -0.19314243 -0.1322977 0.08913603 0.021577455
000060 66 75 4b be 5f 08 8f 3e 28 d3 84 be 1d 76 6c 3e
       -0.19869003 0.27936074 -0.2594235 0.23091932
000070 82 6d 1f 3d ed d2 90 3e fa 70 1b 3c c8 50 7c 3e
       0.038922794 0.28285924 0.009487385 0.2464019
000080 7c c2 ef bc 46 d5 e8 3c ad 30 8b 3e 62 af 8a 3d
       -0.029267542 0.02842201 0.27185574 0.06771733
000090 72 67 ce 3d d9 cf ae 3d 48 ca d2 3d 7a ff 90 bd
       0.100783244 0.085357375 0.10292488 -0.07079978
0000a0 0e 90 ba bd 16 48 a5 3d 1d 14 e8 be 21 3b a1 be
       -0.091095075 0.0807039 -0.45327845 -0.31490424
0000b0 3b 93 1e be 3a f1 80 3d 9d fc 8d 3d d1 39 18 3e
       -0.15485851 0.0629601 0.06932948 0.14865805
0000c0 a6 a1 ad 3d 62 3d cf bc ab 26 06 3d b6 66 6a bd
       0.084780976 -0.025297824 0.03275172 -0.05722686
0000d0 28 d1 52 bd cf 1c 7f 3e 93 92 01 be ea af 8a bd
       -0.051469 0.24913333 -0.1265357 -0.06771834
0000e0 65 1f 2c be 9c 0e f4 bd af ce 87 3d 97 4e a9 3d
       -0.16808851 -0.11916849 0.06631219 0.08266943
0000f0 25 82 3a 3d 5b 61 5a 3d 5e 42 3f be 33 72 89 3d
       0.04553427 0.0533155 -0.18677661 0.06711235
000100 d8 14 6f 3d b5 52 a5 bd c3 51 8d 3d 05 10 58 be
       0.058369488 -0.08072416 0.069003604 -0.21099861
000110 5e fa d1 bc 88 50 2c 3d 6a b9 c9 bd 34 47 2b 3e
       -0.02563208 0.042068988 -0.09849818 0.1672638
000120 9f 11 95 3e 76 9a 9a bd 8b a3 37 3e ce c8 86 bd
       0.29115006 -0.07548992 0.1793348 -0.06581269
000130 1f 3f 36 3e a5 65 07 be 18 c4 1e bd 09 5e 86 3c
       0.17797516 -0.13222368 -0.03876123 0.016402261
000140 76 4d 65 3e c0 07 79 3c 80 c4 a4 bc 55 56 d7 3d
       0.2239283 0.015199602 -0.02011323 0.105145134
000150 f8 54 83 3d ed ca 73 be fa be ce be af 83 4c 3e
       0.06412691 -0.23807879 -0.4038008 0.19972108
000160 37 71 b5 be bc 7e 34 bd b0 a9 fd bc b2 46 a5 bd
       -0.3543794 -0.044066176 -0.030964702 -0.08070125
000170 b8 7e d5 3d 14 61 c9 be 90 18 b7 3e 54 bd 0b be
       0.1042456 -0.39331877 0.35760927 -0.13646442
000180 48 76 75 bc 0d af 22 3d d4 4a 32 3d 38 50 35 3c
       -0.014981814 0.039717723 0.043528393 0.011066489
000190 23 c8 12 3d bf 53 9d be 15 c4 f9 3d c1 a3 0a 3e
       0.035835396 -0.30727956 0.12195603 0.1353903
0001a0 02 8e 9b 3d 58 55 03 be 49 ae 89 be b4 39 9a be
       0.07595445 -0.12825525 -0.26890782 -0.3012215
0001b0 d7 ef 92 3e e9 c1 4c 3e 30 d2 73 3e 55 54 2f be
       0.28698608 0.19995846 0.23810649 -0.17122014
0001c0 ea ef ac 3e fc 5e bf bd 93 c4 8d 3d 02 30 f3 bd
       0.3377679 -0.09344289 0.06922259 -0.11874391
0001d0 b8 6e 38 bc 8a 8c 1e 3d 57 2c cc 3c e0 e9 af bd
       -0.011256866 0.038708247 0.024923487 -0.0858953
0001e0 ba 41 30 3c fb 6f fa 3d 1b 5b 24 3e 5a 53 00 bf
       0.010757858 0.1222839 0.16050379 -0.50127184
0001f0 83 f1 63 3e 48 c2 05 bc 35 3d c5 3d c7 62 95 be
       0.22260098 -0.008163996 0.09630815 -0.29176924
000200 38 4e cc be 24 fa 30 3e 34 7b 12 3e 03 02 9c 3d
       -0.39903426 0.17282921 0.14304811 0.07617571
000210 2c eb 89 bd a5 36 69 be 98 67 b1 3e 06 44 9b 3d
       -0.067343086 -0.22774751 0.34649348 0.07581334
000220 a2 bb 6b 3e aa 9d a9 3d 68 4d 59 be f2 b7 be be
       0.23020795 0.08282025 -0.21220934 -0.37249714
000230 c3 d2 f2 3d 9a 9d e5 3d 3e 5e 67 3e c8 c9 07 bd
       0.11856606 0.11211701 0.22594544 -0.033151418
000240 4c d5 95 be 5f 49 4f be c8 c9 13 bd f0 9b 2c 3d
       -0.29264295 -0.20242833 -0.036081105 0.0421409
000250 b9 9c 17 3d 89 4c 1c be af ef 1e 3c f3 c3 15 be
       0.037014697 -0.15263571 0.0097007 -0.1462553
000260 78 1a df 3e 08 83 aa 3c 05 47 6a 3e f7 d9 12 bd
       0.43574882 0.020814434 0.22878654 -0.0358524
000270 5c 9b c3 be f6 d1 52 3c 76 df 69 3e c8 af 20 3c
       -0.38204467 0.012867441 0.2283915 0.0098075345
000280 06 07 f9 bd 1a 8d 37 bd 18 97 6e bd 95 95 0f bd
       -0.12159543 -0.0448123 -0.058249563 -0.035054762
000290 56 81 51 be 7f d3 07 be de 32 0a 3e 05 f6 34 be
       -0.20459494 -0.13264273 0.13495967 -0.17671974
0002a0 aa b6 cd bc 9a 7f 6f 3d 76 68 65 be ba 64 52 3d
       -0.025111515 0.0584713 -0.2240313 0.05136559
0002b0 6f 2e cc bd a2 05 3a 3e 4f ae 7e be 35 bd c6 3e
       -0.09969794 0.18166211 -0.24871181 0.38816229
0002c0 74 fd 83 bd 52 ac a0 3d 1d da 93 be 45 46 7d bb
       -0.06444827 0.078453675 -0.28877345 -0.003864662
0002d0 29 32 04 3e 24 70 d7 3d 9e 6f 97 bd f2 47 51 3e
       0.1290976 0.10519436 -0.07394336 0.20437601
0002e0 b9 54 75 3d 5c 02 61 3d ff a2 38 be 28 89 43 3e
       0.05989525 0.05493389 -0.18030928 0.1909529
0002f0 ac 4e 8b 3d 84 3c 63 3c 43 ee 16 be 7b 5d 02 be
       0.06802115 0.0138694085 -0.14739327 -0.12730972

frame_rope.sins f4 [1, 20000, 1, 4]
000000 00 00 00 00 00 00 00 00 00 00 00 00 00 00 00 00
       0.0 0.0 0.0 0.0
000010 a4 6a 57 3f a4 6a 57 3f 57 d6 23 3c 57 d6 23 3c
       0.84147096 0.84147096 0.009999833 0.009999833
000020 b7 c7 68 3f b7 c7 68 3f 3e d4 a3 3c 3e d4 a3 3c
       0.9092974 0.9092974 0.019998666 0.019998666
000030 c3 81 10 3e c3 81 10 3e 1f b9 f5 3c 1f b9 f5 3c
       0.14112 0.14112 0.0299955 0.0299955
000040 cf bd 41 bf cf bd 41 bf db cb 23 3d db cb 23 3d
       -0.7568025 -0.7568025 0.039989334 0.039989334
000050 10 7c 75 bf 10 7c 75 bf f4 b6 4c 3d f4 b6 4c 3d
       -0.9589243 -0.9589243 0.049979165 0.049979165
000060 8c 0f 8f be 8c 0f 8f be d1 9c 75 3d d1 9c 75 3d
       -0.2794155 -0.2794155 0.059964005 0.059964005
000070 46 30 28 3f 46 30 28 3f 32 3e 8f 3d 32 3e 8f 3d
       0.6569866 0.6569866 0.06994285 0.06994285
000080 95 46 7d 3f 95 46 7d 3f 50 aa a3 3d 50 aa a3 3d
       0.98935825 0.98935825 0.07991469 0.07991469
000090 32 01 d3 3e 32 01 d3 3e 3e 12 b8 3d 3e 12 b8 3d
       0.4121185 0.4121185 0.089878544 0.089878544
0000a0 f8 44 0b bf f8 44 0b bf 76 75 cc 3d 76 75 cc 3d
       -0.5440211 -0.5440211 0.099833414 0.099833414
0000b0 5c ff 7f bf 5c ff 7f bf 72 d3 e0 3d 72 d3 e0 3d
       -0.9999902 -0.9999902 0.1097783 0.1097783
0000c0 d8 5c 09 bf d8 5c 09 bf ac 2b f5 3d ac 2b f5 3d
       -0.53657293 -0.53657293 0.119712204 0.119712204
0000d0 22 20 d7 3e 22 20 d7 3e d0 be 04 3e d0 be 04 3e
       0.42016703 0.42016703 0.12963414 0.12963414
0000e0 72 98 7d 3f 72 98 7d 3f 64 e4 0e 3e 64 e4 0e 3e
       0.9906074 0.9906074 0.13954312 0.13954312
0000f0 44 79 26 3f 44 79 26 3f 4f 06 19 3e 4f 06 19 3e
       0.65028787 0.65028787 0.14943813 0.14943813
000100 10 68 93 be 10 68 93 be 50 24 23 3e 50 24 23 3e
       -0.2879033 -0.2879033 0.15931821 0.15931821
000110 26 1e 76 bf 26 1e 76 bf 23 3e 2d 3e 23 3e 2d 3e
       -0.9613975 -0.9613975 0.16918235 0.16918235
000120 b3 40 40 bf b3 40 40 bf 87 53 37 3e 87 53 37 3e
       -0.75098723 -0.75098723 0.17902957 0.17902957
000130 69 79 19 3e 69 79 19 3e 3a 64 41 3e 3a 64 41 3e
       0.1498772 0.1498772 0.1888589 0.1888589
000140 c8 b6 69 3f c8 b6 69 3f f8 6f 4b 3e f8 6f 4b 3e
       0.9129453 0.9129453 0.19866931 0.19866931
000150 10 2f 56 3f 10 2f 56 3f 83 76 55 3e 83 76 55 3e
       0.8366556 0.8366556 0.2084599 0.2084599
000160 15 05 11 bc 15 05 11 bc 96 77 5f 3e 96 77 5f 3e
       -0.008851309 -0.008851309 0.21822962 0.21822962
000170 e6 a1 58 bf e6 a1 58 bf f0 72 69 3e f0 72 69 3e
       -0.8462204 -0.8462204 0.22797751 0.22797751
000180 fc d3 67 bf fc d3 67 bf 51 68 73 3e 51 68 73 3e
       -0.9055784 -0.9055784 0.23770262 0.23770262
000190 38 87 07 be 38 87 07 be 77 57 7d 3e 77 57 7d 3e
       -0.13235176 -0.13235176 0.24740396 0.24740396
0001a0 08 37 43 3f 08 37 43 3f 10 a0 83 3e 10 a0 83 3e
       0.76255846 0.76255846 0.25708055 0.25708055
0001b0 0e d5 74 3f 0e d5 74 3f 05 91 88 3e 05 91 88 3e
       0.95637596 0.95637596 0.2667314 0.2667314
0001c0 2a b4 8a 3e 2a b4 8a 3e 7d 7e 8d 3e 7d 7e 8d 3e
       0.2709058 0.2709058 0.27635565 0.27635565
0001d0 e9 e3 29 bf e9 e3 29 bf 54 68 92 3e 54 68 92 3e
       -0.6636339 -0.6636339 0.2859522 0.2859522
0001e0 a4 ef 7c bf a4 ef 7c bf 6c 4e 97 3e 6c 4e 97 3e
       -0.9880316 -0.9880316 0.2955202 0.2955202
0001f0 06 de ce be 06 de ce be a5 30 9c 3e a5 30 9c 3e
       -0.40403765 -0.40403765 0.30505863 0.30505863
000200 4d 2a 0d 3f 4d 2a 0d 3f de 0e a1 3e de 0e a1 3e
       0.5514267 0.5514267 0.31456655 0.31456655
000210 39 fa 7f 3f 39 fa 7f 3f f7 e8 a5 3e f7 e8 a5 3e
       0.99991184 0.99991184 0.324043 0.324043
000220 f7 71 07 3f f7 71 07 3f d2 be aa 3e d2 be aa 3e
       0.5290827 0.5290827 0.3334871 0.3334871
000230 c2 3a db be c2 3a db be 4d 90 af 3e 4d 90 af 3e
       -0.42818266 -0.42818266 0.3428978 0.3428978
000240 38 e5 7d bf 38 e5 7d bf 49 5d b4 3e 49 5d b4 3e
       -0.99177885 -0.99177885 0.3522742 0.3522742
000250 ea be 24 bf ea be 24 bf a9 25 b9 3e a9 25 b9 3e
       -0.6435381 -0.6435381 0.36161545 0.36161545
000260 9f bd 97 3e 9f bd 97 3e 4a e9 bd 3e 4a e9 bd 3e
       0.29636857 0.29636857 0.37092048 0.37092048
000270 4c bb 76 3f 4c bb 76 3f 0e a8 c2 3e 0e a8 c2 3e
       0.9637954 0.9637954 0.3801884 0.3801884
000280 bc bf 3e 3f bc bf 3e 3f d7 61 c7 3e d7 61 c7 3e
       0.74511313 0.74511313 0.38941833 0.38941833
000290 fb 6d 22 be fb 6d 22 be 86 16 cc 3e 86 16 cc 3e
       -0.15862267 -0.15862267 0.39860934 0.39860934
0002a0 28 a1 6a bf 28 a1 6a bf fa c5 d0 3e fa c5 d0 3e
       -0.91652155 -0.91652155 0.40776044 0.40776044
0002b0 30 ef 54 bf 30 ef 54 bf 16 70 d5 3e 16 70 d5 3e
       -0.8317747 -0.8317747 0.41687077 0.41687077
0002c0 a1 03 91 3c a1 03 91 3c bd 14 da 3e bd 14 da 3e
       0.017701926 0.017701926 0.42593947 0.42593947
0002d0 d0 d4 59 3f d0 d4 59 3f cd b3 de 3e cd b3 de 3e
       0.8509035 0.8509035 0.43496552 0.43496552
0002e0 9a db 66 3f 9a db 66 3f 2a 4d e3 3e 2a 4d e3 3e
       0.90178835 0.90178835 0.4439481 0.4439481
0002f0 e8 13 fd 3d e8 13 fd 3d b6 e0 e7 3e b6 e0 e7 3e
       0.123573124 0.123573124 0.45288628 0.45288628
000300 56 ac 44 bf 56 ac 44 bf 52 6e ec 3e 52 6e ec 3e
       -0.76825464 -0.76825464 0.46177918 0.46177918
000310 22 29 74 bf 22 29 74 bf e0 f5 f0 3e e0 f5 f0 3e
       -0.95375264 -0.95375264 0.47062588 0.47062588
000320 ff 55 86 be ff 55 86 be 44 77 f5 3e 44 77 f5 3e
       -0.26237485 -0.26237485 0.47942555 0.47942555
000330 24 94 2b 3f 24 94 2b 3f 5e f2 f9 3e 5e f2 f9 3e
       0.6702292 0.6702292 0.48817724 0.48817724
000340 a0 93 7c 3f a0 93 7c 3f 12 67 fe 3e 12 67 fe 3e
       0.9866276 0.9866276 0.4968801 0.4968801
000350 b4 b6 ca 3e b4 b6 ca 3e a2 6a 01 3f a2 6a 01 3f
       0.39592516 0.39592516 0.50553334 0.50553334
000360 cd 0c 0f bf cd 0c 0f bf 6a 9e 03 3f 6a 9e 03 3f
       -0.5587891 -0.5587891 0.51413596 0.51413596
000370 f4 ef 7f bf f4 ef 7f bf d5 ce 05 3f d5 ce 05 3f
       -0.99975514 -0.99975514 0.52268726 0.52268726
000380 5e 84 05 bf 5e 84 05 bf d2 fb 07 3f d2 fb 07 3f
       -0.521551 -0.521551 0.5311862 0.5311862
000390 fd 50 df 3e fd 50 df 3e 53 25 0a 3f 53 25 0a 3f
       0.43616477 0.43616477 0.539632 0.539632
0003a0 e7 2c 7e 3f e7 2c 7e 3f 4c 4b 0c 3f 4c 4b 0c 3f
       0.99287266 0.99287266 0.54802394 0.54802394
0003b0 43 01 23 3f 43 01 23 3f ad 6d 0e 3f ad 6d 0e 3f
       0.636738 0.636738 0.556361 0.556361
0003c0 23 10 9c be 23 10 9c be 68 8c 10 3f 68 8c 10 3f
       -0.3048106 -0.3048106 0.5646424 0.5646424
0003d0 7f 53 77 bf 7f 53 77 bf 71 a7 12 3f 71 a7 12 3f
       -0.9661178 -0.9661178 0.57286745 0.57286745
0003e0 f2 3a 3d bf f2 3a 3d bf b8 be 14 3f b8 be 14 3f
       -0.7391807 -0.7391807 0.58103514 0.58103514
0003f0 4b 5f 2b 3e 4b 5f 2b 3e 31 d2 16 3f 31 d2 16 3f
       0.1673557 0.1673557 0.58914477 0.58914477

frame_rope.coss f4 [1, 20000, 1, 4]
000000 00 00 80 3f 00 00 80 3f 00 00 80 3f 00 00 80 3f
       1.0 1.0 1.0 1.0
000010 41 51 0a 3f 41 51 0a 3f b9 fc 7f 3f b9 fc 7f 3f
       0.54030234 0.54030234 0.99995 0.99995
000020 33 11 d5 be 33 11 d5 be e5 f2 7f 3f e5 f2 7f 3f
       -0.41614684 -0.41614684 0.9998 0.9998
000030 26 70 7d bf 26 70 7d bf 83 e2 7f 3f 83 e2 7f 3f
       -0.9899925 -0.9899925 0.99955004 0.99955004
000040 30 55 27 bf 30 55 27 bf 94 cb 7f 3f 94 cb 7f 3f
       -0.6536436 -0.6536436 0.9992001 0.9992001
000050 2c 3c 91 3e 2c 3c 91 3e 19 ae 7f 3f 19 ae 7f 3f
       0.2836622 0.2836622 0.99875027 0.99875027
000060 b8 cd 75 3f b8 cd 75 3f 12 8a 7f 3f 12 8a 7f 3f
       0.96017027 0.96017027 0.99820054 0.99820054
000070 bd ff 40 3f bd ff 40 3f 81 5f 7f 3f 81 5f 7f 3f
       0.75390226 0.75390226 0.997551 0.997551
000080 f6 fd 14 be f6 fd 14 be 65 2e 7f 3f 65 2e 7f 3f
       -0.14550003 -0.14550003 0.9968017 0.9968017
000090 d5 3f 69 bf d5 3f 69 bf c2 f6 7e 3f c2 f6 7e 3f
       -0.91113025 -0.91113025 0.9959527 0.9959527
0000a0 64 cd 56 bf 64 cd 56 bf 98 b8 7e 3f 98 b8 7e 3f
       -0.8390715 -0.8390715 0.9950042 0.9950042
0000b0 72 05 91 3b 72 05 91 3b e8 73 7e 3f e8 73 7e 3f
       0.004425698 0.004425698 0.9939561 0.9939561
0000c0 d0 06 58 3f d0 06 58 3f b5 28 7e 3f b5 28 7e 3f
       0.84385395 0.84385395 0.99280864 0.99280864
0000d0 6f 4e 68 3f 6f 4e 68 3f 00 d7 7d 3f 00 d7 7d 3f
       0.9074468 0.9074468 0.9915619 0.9915619
0000e0 d7 04 0c 3e d7 04 0c 3e cc 7e 7d 3f cc 7e 7d 3f
       0.13673721 0.13673721 0.990216 0.990216
0000f0 e8 7a 42 bf e8 7a 42 bf 1a 20 7d 3f 1a 20 7d 3f
       -0.7596879 -0.7596879 0.9887711 0.9887711
000100 2c 29 75 bf 2c 29 75 bf ed ba 7c 3f ed ba 7c 3f
       -0.9576595 -0.9576595 0.98722726 0.98722726
000110 36 e2 8c be 36 e2 8c be 49 4f 7c 3f 49 4f 7c 3f
       -0.27516335 -0.27516335 0.9855848 0.9855848
000120 84 0a 29 3f 84 0a 29 3f 2e dd 7b 3f 2e dd 7b 3f
       0.6603167 0.6603167 0.9838437 0.9838437
000130 bf 1b 7d 3f bf 1b 7d 3f a1 64 7b 3f a1 64 7b 3f
       0.9887046 0.9887046 0.9820042 0.9820042
000140 22 f0 d0 3e 22 f0 d0 3e a5 e5 7a 3f a5 e5 7a 3f
       0.40808207 0.40808207 0.9800666 0.9800666
000150 fc 37 0c bf fc 37 0c bf 3c 60 7a 3f 3c 60 7a 3f
       -0.54772925 -0.54772925 0.9780309 0.9780309
000160 6f fd 7f bf 6f fd 7f bf 6a d4 79 3f 6a d4 79 3f
       -0.99996084 -0.99996084 0.97589743 0.97589743
000170 bf 67 08 bf bf 67 08 bf 34 42 79 3f 34 42 79 3f
       -0.53283304 -0.53283304 0.9736664 0.9736664
000180 fe 2d d9 3e fe 2d d9 3e 9b a9 78 3f 9b a9 78 3f
       0.42417902 0.42417902 0.971338 0.971338
000190 78 bf 7d 3f 78 bf 7d 3f a5 0a 78 3f a5 0a 78 3f
       0.99120283 0.99120283 0.9689124 0.9689124
0001a0 81 9c 25 3f 81 9c 25 3f 56 65 77 3f 56 65 77 3f
       0.6469193 0.6469193 0.96639 0.96639
0001b0 38 93 95 be 38 93 95 be b1 b9 76 3f b1 b9 76 3f
       -0.29213881 -0.29213881 0.9637709 0.9637709
0001c0 57 6d 76 bf 57 6d 76 bf bb 07 76 3f bb 07 76 3f
       -0.9626059 -0.9626059 0.96105546 0.96105546
0001d0 b3 80 3f bf b3 80 3f bf 79 4f 75 3f 79 4f 75 3f
       -0.74805754 -0.74805754 0.9582439 0.9582439
0001e0 18 f4 1d 3e 18 f4 1d 3e ef 90 74 3f ef 90 74 3f
       0.15425146 0.15425146 0.9553365 0.9553365
0001f0 8e 2c 6a 3f 8e 2c 6a 3f 22 cc 73 3f 22 cc 73 3f
       0.91474235 0.91474235 0.95233357 0.95233357
000200 a9 8f 55 3f a9 8f 55 3f 18 01 73 3f 18 01 73 3f
       0.83422333 0.83422333 0.94923544 0.94923544
000210 b7 86 59 bc b7 86 59 bc d5 2f 72 3f d5 2f 72 3f
       -0.013276747 -0.013276747 0.94604236 0.94604236
000220 e7 3b 59 bf e7 3b 59 bf 5f 58 71 3f 5f 58 71 3f
       -0.8485703 -0.8485703 0.9427547 0.9427547
000230 5f 58 67 bf 5f 58 67 bf bb 7a 70 3f bb 7a 70 3f
       -0.9036922 -0.9036922 0.9393727 0.9393727
000240 ea 08 03 be ea 08 03 be ef 96 6f 3f ef 96 6f 3f
       -0.12796369 -0.12796369 0.9358968 0.9358968
000250 2d f2 43 3f 2d f2 43 3f 01 ad 6e 3f 01 ad 6e 3f
       0.76541406 0.76541406 0.93232733 0.93232733
000260 b5 7f 74 3f b5 7f 74 3f f7 bc 6d 3f f7 bc 6d 3f
       0.95507365 0.95507365 0.9286646 0.9286646
000270 6c 85 88 3e 6c 85 88 3e d7 c6 6c 3f d7 c6 6c 3f
       0.26664293 0.26664293 0.92490906 0.92490906
000280 74 bc 2a bf 74 bc 2a bf a7 ca 6b 3f a7 ca 6b 3f
       -0.66693807 -0.66693807 0.921061 0.921061
000290 44 c2 7c bf 44 c2 7c bf 6e c8 6a 3f 6e c8 6a 3f
       -0.98733926 -0.98733926 0.9171208 0.9171208
0002a0 e0 ca cc be e0 ca cc be 33 c0 69 3f 33 c0 69 3f
       -0.3999853 -0.3999853 0.913089 0.913089
0002b0 e8 1b 0e 3f e8 1b 0e 3f fb b1 68 3f fb b1 68 3f
       0.5551133 0.5551133 0.90896577 0.90896577
0002c0 bb f5 7f 3f bb f5 7f 3f ce 9d 67 3f ce 9d 67 3f
       0.9998433 0.9998433 0.90475166 0.90475166
0002d0 81 7b 06 3f 81 7b 06 3f b4 83 66 3f b4 83 66 3f
       0.525322 0.525322 0.90044713 0.90044713
0002e0 6e 46 dd be 6e 46 dd be b2 63 65 3f b2 63 65 3f
       -0.43217796 -0.43217796 0.8960525 0.8960525
0002f0 b3 09 7e bf b3 09 7e bf d2 3d 64 3f d2 3d 64 3f
       -0.9923355 -0.9923355 0.8915683 0.8915683
000300 80 e0 23 bf 80 e0 23 bf 1a 12 63 3f 1a 12 63 3f
       -0.64014435 -0.64014435 0.88699496 0.88699496
000310 44 e7 99 3e 44 e7 99 3e 91 e0 61 3f 91 e0 61 3f
       0.30059254 0.30059254 0.88233286 0.88233286
000320 04 08 77 3f 04 08 77 3f 40 a9 60 3f 40 a9 60 3f
       0.96496606 0.96496606 0.87758255 0.87758255
000330 d1 fd 3d 3f d1 fd 3d 3f 2f 6c 5f 3f 2f 6c 5f 3f
       0.7421542 0.7421542 0.8727445 0.8727445
000340 0e e7 26 be 0e e7 26 be 66 29 5e 3f 66 29 5e 3f
       -0.16299078 -0.16299078 0.8678192 0.8678192
000350 95 14 6b bf 95 14 6b bf ed e0 5c 3f ed e0 5c 3f
       -0.9182828 -0.9182828 0.8628071 0.8628071
000360 a6 4d 54 bf a6 4d 54 bf cc 92 5b 3f cc 92 5b 3f
       -0.8293098 -0.8293098 0.8577087 0.8577087
000370 2c 43 b5 3c 2c 43 b5 3c 0c 3f 5a 3f 0c 3f 5a 3f
       0.022126757 0.022126757 0.8525245 0.8525245
000380 a2 6c 5a 3f a2 6c 5a 3f b6 e5 58 3f b6 e5 58 3f
       0.8532201 0.8532201 0.8472551 0.8472551
000390 ac 5d 66 3f ac 5d 66 3f d3 86 57 3f d3 86 57 3f
       0.8998668 0.8998668 0.841901 0.841901
0003a0 b7 14 f4 3d b7 14 f4 3d 6b 22 56 3f 6b 22 56 3f
       0.119180135 0.119180135 0.8364627 0.8364627
0003b0 83 65 45 bf 83 65 45 bf 87 b8 54 3f 87 b8 54 3f
       -0.7710802 -0.7710802 0.83094066 0.83094066
0003c0 56 d1 73 bf 56 d1 73 bf 32 49 53 3f 32 49 53 3f
       -0.95241296 -0.95241296 0.8253356 0.8253356
0003d0 e6 25 84 be e6 25 84 be 74 d4 51 3f 74 d4 51 3f
       -0.25810164 -0.25810164 0.819648 0.819648
0003e0 f7 6a 2c 3f f7 6a 2c 3f 57 5a 50 3f 57 5a 50 3f
       0.67350715 0.67350715 0.8138785 0.8138785
0003f0 b8 63 7c 3f b8 63 7c 3f e4 da 4e 3f e4 da 4e 3f
       0.9858966 0.9858966 0.8080275 0.8080275

blocks.0.norm1.fc.weight f4 [64, 32]
000000 9e c0 75 3d a7 4d 2c bd b8 a0 84 bd 64 02 82 be
       0.059998147 -0.042066243 -0.06475967 -0.2539245
000010 33 17 98 3c b0 05 0a bd ad 1c 2c 3d 4f 3c e4 bd
       0.01856575 -0.03369683 0.042019535 -0.111443155
000020 ea 57 26 3e f8 8b 54 3e 31 a6 65 be 6f 3e d6 3d
       0.16244474 0.20756519 -0.22426678 0.10461127
000030 d4 84 bf bd 3b 26 ac bd 00 00 08 be d8 82 c1 bb
       -0.09351507 -0.084057294 -0.1328125 -0.0059054904
000040 b7 82 dc bc 6e 43 5f be 2c f6 aa 3d 92 40 9d 3d
       -0.026917798 -0.21803066 0.08347735 0.076783314
000050 80 f9 00 be 1d 26 de bd e0 6a bf ba f6 33 3a bd
       -0.12595177 -0.10847113 -0.0014603995 -0.04545971
000060 e5 ef b1 bd 60 62 24 be d8 83 28 bd 1f 59 2b 3e
       -0.086883344 -0.16053152 -0.04114136 0.16733216
000070 05 00 2d be 33 2c 80 3d c7 b7 be bd fa 39 88 3d
       -0.16894539 0.0625843 -0.093123965 0.06651683
000080 96 b7 20 be a1 0a 6f bd b0 73 6d be e9 ed 0c 3a
       -0.15695032 -0.058359746 -0.23188663 0.00053760275
000090 63 b2 06 be d5 e3 3f bd 4d b8 1c bd d5 34 ea bd
       -0.13153987 -0.046848137 -0.0382617 -0.11435858
0000a0 2f 69 38 bd cc 38 7a bb 99 c5 40 bd 8a c3 05 3e
       -0.045022186 -0.0038180826 -0.047063444 0.13062873
0000b0 82 a3 bb bd 2e ec a9 bd 76 d7 d5 3d 5e 43 2e bd
       -0.09162046 -0.08297001 0.104414865 -0.042544715
0000c0 11 2b c5 bd eb aa 08 be eb b8 6f bd 07 22 68 bd
       -0.09627355 -0.1334645 -0.05852596 -0.056673076
0000d0 b4 02 df 3c f1 df ae 3b 0e e5 a8 bd ae de 49 be
       0.027222969 0.0053367545 -0.08246814 -0.19713852
0000e0 7e 43 eb bc a6 da 6f 3c c9 f6 88 bd 16 4f 2d be
       -0.028718706 0.014639532 -0.066876955 -0.169247
0000f0 c7 b4 c0 bd 86 fe b6 bc 31 0c b6 3b e4 71 0c bd
       -0.094094805 -0.022338163 0.0055556525 -0.034288302
000100 dd bf de 3d e4 1a 2c bd 81 59 aa bb 44 5f c3 bd
       0.10876439 -0.042017832 -0.005198658 -0.09539655
000110 2b ae 3e bd 60 53 eb bd 74 c3 14 be 87 f8 c2 bc
       -0.04655282 -0.11490512 -0.14527684 -0.023800148
000120 b9 45 32 bc 5c 6e 4f 3e 6a 4d b0 3d 4f a6 e8 3d
       -0.010880881 0.20256943 0.086085156 0.11359846
000130 bf e4 af 3c bf 3e 72 3e 3d bc 81 3d 6c 65 04 be
       0.02147138 0.23656748 0.06334732 -0.12929314
000140 88 9e 14 bd 3a 6a b6 bd ce 09 15 be de 64 1d be
       -0.036284 -0.0890698 -0.14554521 -0.15370509
000150 01 ad 22 be 9c 55 09 3e 78 27 0f 3e 01 a7 4e 3d
       -0.15886308 0.13411564 0.139799 0.050452236
000160 65 24 4f 3e 1b be 39 be 9c 50 0c bd 32 39 2c 3e
       0.20228727 -0.18138926 -0.034256563 0.16818693
000170 df 66 97 3c 9c 3b 43 3d 72 db 62 bd 19 3c c6 bd
       0.01848167 0.04766427 -0.05538506 -0.096794315
000180 10 1b 83 bd 26 74 2d 3d a9 a7 29 3e 22 e1 a8 bd
       -0.06401646 0.042347096 0.16567864 -0.08246066
000190 4e 3e dd bd a2 4d 29 be f7 f2 2c be 3e b3 b8 3d
       -0.10802899 -0.16533521 -0.16889559 0.09018563
0001a0 7f e8 c9 3b 5c b0 bc 3c d3 85 41 3d 8d 55 3f bc
       0.006161749 0.023033313 0.047246765 -0.011678112
0001b0 9c 3b ce bd f4 39 d8 bd a6 b1 fb 3d 52 c1 44 bd
       -0.10069963 -0.10557929 0.12289743 -0.048035927
0001c0 4b 88 1d 3e b4 5d 1b bd 24 aa 54 3e 74 ff 19 bd
       0.15384023 -0.03793116 0.20768028 -0.037597135
0001d0 05 16 c7 3d 69 87 e5 bd 6c f5 07 3e 85 5d 81 bd
       0.09720997 -0.11207468 0.13277215 -0.063166656
0001e0 8e c6 68 be e0 cd 00 3e 5b 91 d4 bd c0 6b bd bd
       -0.22731993 0.12578535 -0.10379287 -0.09249067
0001f0 90 f1 04 be 6d 16 15 3e 63 58 70 be bc a5 2b 3e
       -0.12982774 0.14559336 -0.23471217 0.16762441
000200 7f 00 c2 3d fd 4c 89 bd de 9e b8 3d ec 79 2b be
       0.09472751 -0.067041375 0.090146765 -0.16745728
000210 ce 47 fa 3d 0e 49 47 3d 5b 27 ab bc be 43 0f 3d
       0.12220727 0.048653655 -0.02089279 0.034976713
000220 90 ce ef bc b1 6e cb 3d 08 01 b1 3d d4 3c 82 bc
       -0.029273301 0.09933222 0.08642775 -0.015898146
000230 b3 fc b7 bd f6 86 db bd 45 38 5a be 72 3c 44 3e
       -0.089837454 -0.10719101 -0.21310528 0.19163683
000240 c8 0a 6b bd be b1 de bc 39 90 42 3e 47 fd 67 3d
       -0.05738333 -0.027184363 0.19000329 0.05663803
000250 aa f8 28 be 40 f8 97 3c a8 af 1b 3c 57 77 05 be
       -0.16501108 0.018550992 0.009502329 -0.13033806
000260 34 71 d9 3c fa 72 20 be 96 39 8b bd ef e5 50 be
       0.026543237 -0.1566886 -0.06798093 -0.20400213
000270 e4 4a 8b bd 66 15 fa bd 43 0b c8 bd 8f 2c 09 3d
       -0.06801394 -0.12211113 -0.09767773 0.03348976
000280 6f 32 26 be ff 4a 54 be 16 f8 3f be ad 11 4c 3d
       -0.16230176 -0.20731734 -0.18746981 0.049821544
000290 02 80 17 be 03 0d 00 be da 48 0e 3e 05 21 db bd
       -0.14794925 -0.12504964 0.13894978 -0.10699657
0002a0 28 b8 b8 bd 56 59 72 3d 67 a4 0f be d8 6c 33 3d
       -0.090195 0.05916723 -0.14027558 0.043804973
0002b0 c1 59 fc 3c 1d 79 70 3d 7c 1f fc bd 15 4d 5f bd
       0.030804517 0.058709253 -0.12310693 -0.05451687
0002c0 c8 ba 98 bd 77 35 7c bc ee 17 53 3d ab 08 0d bd
       -0.07457501 -0.015393606 0.051536493 -0.034432095
0002d0 ea 5f 45 bd c8 37 35 3e 94 1d 1a 3e 13 a6 01 be
       -0.048187174 0.1769706 0.15050346 -0.12661009
0002e0 49 b0 e0 3c c3 e4 21 bd 7c bd 8f 3d bd b2 3a bd
       0.02742781 -0.039524805 0.07018563 -0.045580614
0002f0 9a 8d a0 3d 93 15 4d 3d a1 85 15 bc 6f 8c a8 3d
       0.07839508 0.050069403 -0.009126098 0.082299106
000300 ae 03 a9 bd 94 4e f1 3d b4 28 c1 bc e4 fc 0e be
       -0.08252655 0.11782566 -0.02357898 -0.13963658
000310 2a 21 ac 3c d2 f3 c7 3d f3 5e 51 be 0f 43 0a 3e
       0.021011908 0.09763302 -0.20446377 0.13502143
000320 6e c0 58 3e 79 e6 c4 bd 51 59 65 be 65 c3 40 bd
       0.21167156 -0.09614272 -0.22397353 -0.047061343
000330 b3 da 42 3d 57 58 6b be 88 0e a5 3d 08 de 48 3c
       0.04757185 -0.22982918 0.08059412 0.012259968
000340 c1 84 49 bd c5 d0 3a bd 65 4c 3b 3d 8b 22 3b bd
       -0.04919887 -0.045609254 0.045727152 -0.04568724
000350 60 fb 94 bd d5 12 3a bd f8 e3 55 3d 13 ab 57 3e
       -0.072745085 -0.045428116 0.05221936 0.21061353
000360 6c 89 89 3d 13 1e ab bd 5c 52 2c 3e 73 68 ac bd
       0.06715664 -0.083553456 0.16828293 -0.084183596
000370 fa 51 33 be 3b 6a 65 3d d0 2b 27 3e 29 ab 4c be
       -0.1751174 0.056009512 0.16325307 -0.19987167
000380 26 05 4f be d2 23 65 bd 15 20 b7 3d ce 5d 82 bd
       -0.20216808 -0.055942364 0.08941666 -0.06365548
000390 d1 1d 87 3d 79 c3 d5 bd 99 52 91 bb 01 6e 93 3d
       0.06597484 -0.10437674 -0.0044348952 0.07198716
0003a0 1c 23 57 bd 05 b1 9a 3d b2 86 f8 bb a6 03 fe 3d
       -0.052523717 0.07553295 -0.0075844163 0.1240304
0003b0 e0 25 a1 bc cb a9 60 3c 15 ca f0 bd b8 8e 4a be
       -0.01967138 0.013712357 -0.11757294 -0.19781005
0003c0 ef 2e 5d 3c 86 2b 7c be 51 b5 12 bc 09 3f 37 3d
       0.013499959 -0.24625978 -0.008954362 0.04473785
0003d0 bf ac 10 3d 60 6e 87 3d cb 50 8d bd 8c 7a 84 3d
       0.035320994 0.06612849 -0.06900176 0.064686865
0003e0 47 1a 41 3e 4b 0c 2e be f3 a5 ec 3c 54 64 d3 bd
       0.1885768 -0.16996877 0.028887725 -0.103218704
0003f0 3c 5b 58 bb 12 d4 ff bb 85 e9 bd 3d 8e 3a 14 be
       -0.0033013364 -0.007807263 0.09273056 -0.14475462

blocks.0.norm1.fc.bias f4 [64]
000000 5b 60 bb bc 79 43 8d be 6e 9f 8c bd a3 47 e1 3d
       -0.022873094 -0.2759054 -0.06866346 0.10999992
000010 68 0b e7 bd b4 df 92 be ec 18 00 3e fd e5 f9 3c
       -0.112814724 -0.28686297 0.12509507 0.030505175
000020 8c 33 ed 3c 43 d1 f0 3d 56 5e 2f bc ab b1 0e be
       0.028955244 0.117586635 -0.010703644 -0.13934962
000030 de 7d e3 3c 0e f6 56 3d ec 7b 1f 3d 9b 77 27 3e
       0.02776998 0.05248075 0.03893654 0.1635422
000040 54 c2 97 bd e4 29 d0 bd 61 e7 8e bd ff 5e 52 bd
       -0.07410112 -0.1016424 -0.06977726 -0.051360127
000050 7f f4 e1 3d 6e 95 14 bd 5e e5 82 3d d0 ff 7a be
       0.11032962 -0.03627532 0.063914046 -0.24511647
000060 5a 3d fa 3c 9d 2a 40 be 52 e5 8e bd 35 cd 73 bd
       0.030546833 -0.18766256 -0.06977333 -0.059521873
000070 45 7b 82 be 1f 94 ae bd 87 db 00 be 0d 04 eb bd
       -0.25484672 -0.085243456 -0.12583743 -0.11475382
000080 b4 28 7b bd 87 dc f6 3d 9a 2a 5f 3c ad e2 e3 bc
       -0.061318114 0.12053781 0.013620997 -0.027818048
000090 ec c1 92 bd 6b e1 65 3d d3 02 49 bd 3d 96 12 bd
       -0.07165894 0.05612318 -0.04907496 -0.03578781
0000a0 07 ef 30 bd 62 47 e3 bb e4 a0 02 be 8e 14 4f bd
       -0.043196704 -0.0069359997 -0.12756687 -0.05055671
0000b0 0a 58 cf bd 5e 94 44 3e 9c 6c 1f be 45 09 7b bd
       -0.10124214 0.19197223 -0.15568775 -0.061288137
0000c0 3c ee 79 be 55 30 a7 3d f4 99 15 3e c4 02 e0 3c
       -0.24407285 0.081635155 0.1460951 0.027345069
0000d0 23 38 ce bd ba df 0d be de d8 76 3e 02 e0 64 bc
       -0.10069301 -0.13854876 0.24106166 -0.013969423
0000e0 fe 1a 54 bd 98 98 34 3e b8 e6 94 3d 3a 5d 59 bd
       -0.051783554 0.17636335 0.072705686 -0.053067423
0000f0 21 3e 55 be 17 1a b3 bd df df e4 3d fa 93 85 bd
       -0.20824482 -0.087452106 0.111755125 -0.06522365

blocks.0.crossattn.W_Q f4 [8, 32, 4]
000000 fe a1 21 bf 1f 57 13 bf e9 84 a5 3f e5 af e2 bc
       -0.63137805 -0.5755481 1.2931186 -0.027671764
000010 b9 49 f7 be 0d f2 b0 bf c6 15 3e bf d9 e9 75 bf
       -0.48298433 -1.3823868 -0.74251974 -0.9605995
000020 0b f5 a5 3f f3 b6 49 bf 01 6a b6 3f b9 9c 41 3e
       1.2965406 -0.78794783 1.42511 0.18907441
000030 09 2f 05 3f f0 a3 21 3e 72 3b 7c 3e 09 b3 fb 3d
       0.52024895 0.15785193 0.24632052 0.122900076
000040 00 3c 39 3f c1 88 86 3c 9f eb a8 3e 7a a5 c5 3e
       0.7235718 0.016422631 0.32992265 0.3860281
000050 48 1a 86 3f 6f e2 a3 3f 39 67 0f 40 59 38 96 bf
       1.047677 1.2803477 2.2406752 -1.1735946
000060 09 b3 c2 3f d3 45 c6 bd 3a aa d6 3d 85 4e 03 bf
       1.5210887 -0.09681287 0.10481687 -0.51291686
000070 ba 09 8a bd b7 50 c8 3f f3 62 38 3f 34 e1 3d be
       -0.067401364 1.5649632 0.72025985 -0.1854294
000080 86 b8 1d bf 7f 48 87 be 64 95 d1 3f 6d ba 57 bf
       -0.61609685 -0.26422498 1.6373715 -0.8426884
000090 4d ca 0f 3f 66 4a 2f 3f 1f df 81 3f cb 52 bd 3f
       0.5616806 0.684729 1.0146216 1.4790891
0000a0 72 ac 12 3f 2d b3 9e be a5 94 03 be 26 a6 a4 3e
       0.5729438 -0.30996075 -0.12849672 0.3215801
0000b0 de b5 63 be 6c c9 df bf 8f ea 78 3f f4 b0 15 bd
       -0.22237346 -1.7483344 0.9723291 -0.03654571
0000c0 e1 95 62 bf ff b0 cd bb b0 d7 15 be ec 7a 83 be
       -0.8850995 -0.006277203 -0.1463306 -0.2567972
0000d0 9e bc 8d bd c9 de d8 3e 42 74 b4 bc a5 fd ef bf
       -0.069207415 0.42357472 -0.022028092 -1.8749281
0000e0 c0 2f 09 3f 0e ef 7b 3f 5a a0 45 40 b9 d2 67 bf
       0.53588486 0.98411644 3.087912 -0.9055591
0000f0 0c 30 53 3e 43 da 83 be 01 9d 02 bf 71 ec 53 be
       0.20623797 -0.25752458 -0.5102082 -0.20695664
000100 dd 7f d1 3e ee 0c 06 3f 19 a1 31 bf a8 51 02 c0
       0.40917864 0.5236348 -0.6938644 -2.036234
000110 d4 d2 fb bf 5f c1 90 3e 63 2c a3 3f f1 84 09 bf
       -1.9673715 0.2827253 1.2747921 -0.5371848
000120 0e 7c a2 3f ca 72 85 3c ee 7c 58 be 43 1b 91 be
       1.2694108 0.016290087 -0.21141407 -0.28341112
000130 ff 47 d5 3d de 9c 0f bf 74 1d 98 be ae c6 50 c0
       0.10414123 -0.56098735 -0.2970997 -3.2621264
000140 58 4c 96 be 9d 2f da 3f f4 87 a5 bf ce 07 5c 3f
       -0.2935512 1.704578 -1.2932115 0.8594941
000150 b9 54 91 bf 9b ff 21 3e 8a 4a d4 3f 75 b8 23 3f
       -1.135398 0.15820162 1.6585248 0.63953334
000160 b9 1a 9a 3d f3 3e 88 3f 4a ec f2 3e 0d 05 9a bf
       0.07524628 1.064421 0.474459 -1.2032791
000170 f6 0a f9 bb c2 37 9e bf 4b d9 60 be 69 d0 73 bf
       -0.0076001836 -1.2360766 -0.2195789 -0.95239884
000180 27 ff 15 bf 2a 4a f2 bd 55 88 d0 3e bd f5 ab 3f
       -0.58592457 -0.11830552 0.40729013 1.3434368
000190 bc bd 90 3f 8a 98 98 3e 41 08 b2 3e 1b 15 45 3f
       1.1307902 0.29803878 0.34771922 0.7698533
0001a0 21 e7 b5 bd d8 60 99 bf 3b d9 a0 3f df 8e a1 3f
       -0.08881975 -1.1982679 1.2566293 1.2621726
0001b0 cb 52 02 3f 5f 10 36 3f d7 74 92 be 88 58 98 3e
       0.5090758 0.7111873 -0.28604767 0.29755044
0001c0 58 94 6f bf a5 73 86 be 6e b4 87 3f 9b 7b 94 3f
       -0.9358573 -0.26260105 1.0601938 1.1600221
0001d0 88 b0 c5 be 3b cb ce 3e fb 06 93 3f 6b aa 7b 3f
       -0.38611245 0.40389428 1.1486505 0.9830691
0001e0 29 dc 3e bf 01 44 b5 3e 19 b1 13 3f 23 12 23 bd
       -0.7455469 0.35403445 0.57692105 -0.03981222
0001f0 7b a8 b3 3f 50 e7 f1 bf a5 e9 44 3f c6 07 5f bf
       1.4035791 -1.8898716 0.76919013 -0.87121236
000200 3a 60 14 bf 37 46 ba 3e 8c 03 0a bc 5f d0 da be
       -0.5795933 0.36381695 -0.008423697 -0.427371
000210 db 60 09 3f f3 45 18 40 bf 47 a9 3f 79 d1 ec 3f
       0.53663415 2.3792694 1.322502 1.8501426
000220 89 b6 1d 3f 2d c0 f3 3e 3a 70 3e be ec 68 1a 3e
       0.6160665 0.47607556 -0.18597499 0.15079087
000230 1a 7b 3d bf b4 06 72 3f 28 36 49 be 45 51 5b 3f
       -0.74015963 0.9454148 -0.19649565 0.8567088
000240 b4 b0 6a 3f 09 37 c7 bf cd 89 4d 3f 8d 40 97 bf
       0.9167588 -1.556367 0.8028839 -1.1816574
000250 7d 6b e9 3e 07 68 b6 3e 89 df 06 bf 59 28 b6 bf
       0.4558982 0.35626242 -0.5268484 -1.4231063
000260 6b d0 de 3e 69 d5 d5 3e cf c0 c0 3f e6 38 da 3d
       0.43518385 0.41764382 1.505884 0.10655384
000270 6d 52 38 bf f5 33 32 bf 09 b8 ac be 59 47 78 be
       -0.7200077 -0.6961053 -0.33734158 -0.24245967
000280 98 8d a4 3e f9 bd 59 3e 95 0d e2 3f 45 63 fe 3d
       0.32139277 0.21263875 1.7660395 0.12421278
000290 03 37 64 3f cf bf 88 3f fe ce 2c bd 7a 2c 2a 3f
       0.8914644 1.0683535 -0.04218959 0.66474116
0002a0 27 ee a0 3e e6 00 c2 3f 8f 7f f3 3f 3d ab e6 be
       0.31431696 1.5156524 1.9023303 -0.4505252
0002b0 ee 59 88 3f 03 c7 8c 3f e4 57 12 40 d8 ea 80 be
       1.0652444 1.0998234 2.2866144 -0.25179172
0002c0 30 ca df bf b8 19 8c 3f 3a a4 11 40 44 70 77 bf
       -1.7483578 1.0945349 2.2756486 -0.9665568
0002d0 72 98 57 40 b0 f0 e9 3e 46 e6 dc bf 3a 88 95 3b
       3.3686795 0.45691442 -1.7257774 0.0045633586
0002e0 eb 1e 86 be 16 4e 47 bf d3 49 f7 3e be 1b 84 3f
       -0.26195464 -0.77853525 0.4829851 1.0320966
0002f0 74 ed 43 3f af 94 d0 bf 75 1c a8 be ca 27 95 3e
       0.765342 -1.6295375 -0.3283421 0.2913192
000300 6f a7 c6 bf 57 ca d2 3f da 78 01 bf ae e5 70 3e
       -1.5519847 1.6467999 -0.5057503 0.23525116
000310 80 37 ec 3d 64 88 0a be ad 76 08 40 45 e9 62 bf
       0.11534023 -0.13528591 2.1322434 -0.8863719
000320 98 57 01 3f e4 20 58 bf 6a 82 6b 3f d8 d7 08 40
       0.5052428 -0.8442519 0.9199587 2.138174
000330 78 f6 f1 be 52 44 1d 3e 70 3c b2 3f 66 00 f7 3f
       -0.47258353 0.15358093 1.3924694 1.9296997
000340 86 d8 3f bf 83 e8 52 bf 9d 7c 74 bf 6a ba a0 bf
       -0.74939764 -0.82386035 -0.95502645 -1.2556889
000350 a0 d0 d7 3e 7d 25 2f 3e 40 59 76 3f b9 9d 01 bf
       0.42151356 0.17104144 0.96229935 -0.5063129
000360 ea 7b 74 3f 6e 85 c0 3f 83 e5 93 bf 0d 77 ae 3f
       0.9550158 1.504072 -1.1554416 1.3630081
000370 05 f6 00 bf df 32 80 3f 27 e9 09 3f b6 e9 94 be
       -0.50375396 1.0015525 0.5387139 -0.29084557
000380 96 da a3 3c 07 80 e4 3d 3c 2f 19 bc c0 a4 bd bf
       0.02000169 0.11157232 -0.00934964 -1.4815903
000390 3c bd cf bf b1 49 80 bf 53 58 27 be 3e 8f e9 3f
       -1.6229625 -1.0022489 -0.16342287 1.8246839
0003a0 62 f9 02 bf ea 04 2a bf 81 5c a2 3f 4a e4 0d 3f
       -0.5116178 -0.6641375 1.268448 0.55426466
0003b0 5e 40 3b 3f 1e 12 b3 be 5d 38 de 3f 8c ba d7 be
       0.7314509 -0.3497476 1.7360951 -0.4213451
0003c0 85 56 32 40 b8 a6 5f 3f 57 84 d9 bf 3d 9f 00 bf
       2.7865307 0.8736377 -1.6993512 -0.5024298
0003d0 0c f9 2e c0 51 f0 bd 3f 37 cd 23 3f 20 22 21 3f
       -2.7339506 1.4838964 0.6398501 0.62942696
0003e0 02 16 75 3f e4 e8 37 3f ef 5b 50 3e a1 c6 b2 3f
       0.95736706 0.7183974 0.2034757 1.3966867
0003f0 ca 70 06 3f 5c af e8 3d 01 d0 03 be 60 30 b5 3f
       0.5251585 0.11361572 -0.12872316 1.4155388

blocks.0.crossattn.W_K f4 [8, 32, 4]
000000 d7 47 25 bf 78 e4 cc bf c2 12 42 3f 80 21 b2 bc
       -0.64562744 -1.6007223 0.7580987 -0.02174449
000010 83 3a d0 3f 5a 68 65 3f ab e0 06 40 0f 9e f7 bd
       1.6267856 0.8961235 2.1074626 -0.12090694
000020 06 ef ee bc 5a c6 9a bc a1 d6 d2 be 33 cb 67 3f
       -0.02916671 -0.01889341 -0.41179374 0.9054443
000030 e2 d6 ab be f4 96 9b 3e 73 50 2a 3f df 25 40 3f
       -0.3356238 0.30388606 0.66529006 0.75057787
000040 9f 06 4b be e9 64 f9 bd af 6c 32 bf b4 59 d8 3d
       -0.19826744 -0.1217745 -0.6969709 0.105639845
000050 92 a5 3f bc 99 f0 83 3f 57 c4 5a 3f 0c 14 eb be
       -0.01169719 1.03078 0.8545584 -0.45913732
000060 91 4d c8 3f e5 04 a7 3f bc 51 ce bf 26 7c 2c bf
       1.5648671 1.3048369 -1.6118693 -0.67376935
000070 2a 88 82 3e ff 08 ae 3e 19 e4 e1 3f 4e 9b 21 3f
       0.2549451 0.33991238 1.7647735 0.631276
000080 3f d8 68 3f a5 c0 f0 3e d4 58 06 3f b8 de 0a 3f
       0.90954965 0.47021976 0.5247929 0.5424609
000090 c8 48 70 3f 23 6b 98 3f 57 fa d7 bf a8 6a b3 3f
       0.93861055 1.1907696 -1.6873273 1.4016924
0000a0 e9 54 95 3f b3 ad 81 be bc 86 02 bf db f5 af 3f
       1.1666538 -0.25327834 -0.5098684 1.3746904
0000b0 7f 8c 91 3f ae ee 03 c0 70 c0 84 3d 2d 9f f3 be
       1.1371001 -2.0614429 0.06482017 -0.4758238
0000c0 d9 1b a7 bf 53 00 ad be da 93 f5 3e 16 37 c1 3e
       -1.3055373 -0.3378931 0.47964364 0.3773734
0000d0 5a 08 95 3f 7d ab e4 bf 4d a5 f2 3f 2a 81 51 3e
       1.1643174 -1.7864834 1.8956696 0.20459428
0000e0 51 c8 94 3f b2 da af be 2c 30 3d bf 99 e5 d2 be
       1.1623632 -0.3434654 -0.7390163 -0.41190794
0000f0 1b 8b 9c bf 2a 15 ea bf 83 08 58 be be ba 67 3f
       -1.2229952 -1.8287709 -0.21096997 0.9051932
000100 3f 03 0d 40 fa 5e a5 3f 8c 5b a0 bf 3f 49 6e 3f
       2.2033231 1.291961 -1.2527938 0.93080515
000110 c2 31 2a 3f 29 8b e0 3f 88 17 91 be b9 10 4b be
       0.66482174 1.7542468 -0.28338265 -0.19830598
000120 af 8d 39 3e 55 f3 7c be f4 7a 2f 40 39 33 a3 3e
       0.18120454 -0.24702199 2.7418795 0.31875017
000130 5f e1 71 bf 32 57 6b bf ea f8 2d c0 1d 14 01 bf
       -0.94484514 -0.91929924 -2.7183175 -0.50421315
000140 08 34 43 3d 89 33 2f bf 48 a4 29 3d 50 68 85 bf
       0.047657043 -0.6843801 0.041416436 -1.0422459
000150 62 42 e0 bc 98 48 6d 3f f1 7f a0 3f 04 ef b4 3f
       -0.027375404 0.92688894 1.2539045 1.4135442
000160 a3 8a 4c be 70 12 d9 3f 91 55 d6 bf 0d 9c dc 3e
       -0.1997476 1.6958752 -1.6744863 0.43087807
000170 00 c8 f7 3f 74 0e e7 be 63 e0 cc 3f 49 e9 91 3f
       1.935791 -0.45128214 1.6005977 1.1399318
000180 c8 27 3c 3e 74 fe 0f 3f 5e 94 9d bf 4b b2 0f 3f
       0.1837455 0.5624764 -1.2310903 0.5613143
000190 67 bd a3 3f fb ee fc be aa 4e df bd 37 0c a8 bf
       1.2792176 -0.49401078 -0.10903676 -1.3128728
0001a0 ab 1b 76 3f ad e9 8b 3f 41 15 43 3f 7f 24 09 3f
       0.9613597 1.0930687 0.76204306 0.53571314
0001b0 08 05 f1 be 4b 5c 03 bf 98 20 be be 57 e0 5a bf
       -0.4707415 -0.513127 -0.37134242 -0.85498565
0001c0 33 3a 84 bf 7e 3b 86 bf 0c 2b 0a 3f 0f 01 dc 3f
       -1.0330261 -1.0486906 0.53971934 1.7187823
0001d0 13 72 06 3f 4a a7 25 3f 77 65 9a 3e ec 14 e8 be
       0.52517813 0.6470839 0.30155537 -0.45328462
0001e0 8a 14 94 3f f4 f0 45 40 48 cf d2 3e f0 42 79 3f
       1.1568768 3.0928316 0.41173768 0.97367764
0001f0 ce d2 a4 3e 7d 42 9c 3f 59 b4 3b 3d 68 70 ac 3d
       0.3219208 1.2207791 0.04582629 0.08419877
000200 cc 12 83 3f 31 fd 02 bf cb f3 87 bc bb 77 46 bf
       1.0240111 -0.5116759 -0.016595742 -0.77526444
000210 65 a0 04 bc cc b1 3a 3f 6c d6 34 3f d6 9c a4 3f
       -0.008094882 0.72927547 0.7063968 1.2860363
000220 f9 68 11 3e f1 40 a2 3f 3b ce 5c 3e 95 03 28 3f
       0.142002 1.2676069 0.21563046 0.65630466
000230 f0 3f 43 be 9b bf a2 bf 73 ff 13 bf e6 23 fa bf
       -0.19067359 -1.2714723 -0.5781166 -1.9542205
000240 e2 54 f9 be 63 ac d6 be fc 7e 0b 3f ec ae c2 bf
       -0.48697573 -0.41928396 0.5449064 -1.5209632
000250 db 85 98 3f a2 37 48 3f 88 71 cf bd 64 c3 31 3f
       1.191585 0.7820989 -0.10129076 0.6943877
000260 bb f9 9c 3f 67 f1 d0 3f c0 60 40 bc 18 5c 2c 3f
       1.2263712 1.632367 -0.011741817 0.67328024
000270 22 6b f2 be b4 a9 e3 3f 71 bd 63 be 3c f0 01 be
       -0.4734736 1.7786164 -0.22240235 -0.12689298
000280 42 d0 bb 3f 05 cb 20 3f 23 a1 16 bf 95 c8 d6 3f
       1.467293 0.62809783 -0.58839625 1.6779963
000290 f9 58 0d 40 03 0c 8c 3e b3 9c 41 3e f0 73 fc bd
       2.2085555 0.27352914 0.18907432 -0.12326801
0002a0 7b cf cc bd b5 d4 84 3f a3 0f df bb f4 6d 90 bf
       -0.10000511 1.0377413 -0.006807284 -1.1283555
0002b0 8b 83 a2 3f ec dd 3f bd 16 7a 17 3e f0 66 2e 3f
       1.2696394 -0.0468425 0.14792666 0.6812582
0002c0 57 fc eb 3f a6 54 7b bb 10 35 53 bf e7 45 0c 40
       1.8436383 -0.0038350015 -0.8250284 2.1917665
0002d0 47 a6 ac 3e c2 cf 85 bc 4e 78 66 3f fd 20 23 40
       0.3372061 -0.016334418 0.9002732 2.5488884
0002e0 c5 ba c6 bf f4 43 c4 bf 9e 27 81 3d 13 28 ac be
       -1.5525748 -1.5333238 0.063063845 -0.33624324
0002f0 a5 f8 81 3f a0 87 b2 3e e4 99 e5 bf a8 ed aa bd
       1.0154005 0.348691 -1.7937589 -0.083461106
000300 13 e2 ff bf 0e 05 4e bf e8 95 8e bf 0c 5a 92 3f
       -1.9990867 -0.8047646 -1.1139498 1.143373
000310 6d 05 12 3f e9 e6 b7 3e 51 77 91 3d f0 8c cc 3f
       0.5703953 0.35918358 0.07102836 1.5980511
000320 5f 74 8e 3f d9 f4 75 3f 20 10 f4 3e ad a8 f1 bf
       1.1129264 0.9607673 0.47668552 -1.8879601
000330 5b 2b c1 be b6 1c 3d bf 9e 3a 49 be 72 0f 70 3d
       -0.3772839 -0.73871934 -0.19651267 0.05860848
000340 75 55 66 3e f4 2a ed be 01 2f 42 3f 66 1e 09 bc
       0.22493537 -0.46321833 0.7585297 -0.008369064
000350 06 fa a0 3f 50 84 e3 3f 77 2e a5 3f 41 de 15 3f
       1.2576301 1.7774754 1.2904805 0.5854226
000360 5c 4a 43 3f ab 86 9d bd 51 13 09 bd bd d5 67 bd
       0.7628534 -0.076917015 -0.033465687 -0.05660032
000370 c1 2f 33 3f 74 f4 a9 be d3 8e 31 3f 7f f0 80 be
       0.6999474 -0.33194315 0.6935856 -0.25183484
000380 8c ec d1 3e fc 21 93 3e 38 58 84 be d6 3c b4 3c
       0.41000783 0.28736866 -0.25848556 0.022001665
000390 a1 be a0 3d b4 e9 c5 bf b6 79 c7 3e de f5 6b be
       0.078488596 -1.5461946 0.38960046 -0.2304301
0003a0 59 67 65 3f cb 25 01 40 91 ed ba 3b 7a 35 56 bf
       0.8961082 2.0179317 0.0057045897 -0.8367535
0003b0 63 f1 bd bf 99 ba 06 40 c9 88 92 bf ad 74 77 3f
       -1.483929 2.105139 -1.1447994 0.9666241
0003c0 3b d9 df 3e c5 b3 78 bf 3b 3c c4 3f 22 f0 58 be
       0.4372042 -0.97149307 1.5330881 -0.21185353
0003d0 3f 2f 13 c0 a6 c9 e4 3e 23 fb 9e bf 57 a6 1e 3f
       -2.2997587 0.44685096 -1.2420391 0.61972564
0003e0 aa 3e c0 bf b9 62 8a 3f 7d 23 d7 3d da 4d 72 bf
       -1.5019124 1.0811378 0.10504816 -0.9465004
0003f0 71 4b 04 3f 0b 62 aa 3e a0 e4 c5 bf b9 53 f3 3e
       0.51677614 0.33277926 -1.5460396 0.47524813
