experiments/20251102_022230/model.pt (torch, 629607 bytes, 141 tensors)

_orig_mod.registers f4 [1, 32]
0	0x3db23faa	0.08703549
1	0xbe6b307d	-0.22967716
2	0x3f008c71	0.50214297
3	0xbc208a03	-0.00979853
4	0x3d382983	0.044961464
5	0x3d479f08	0.04873565
6	0xbd35e906	-0.04441168
7	0x3e6cf533	0.23140411
8	0xbc9b5247	-0.018960131
9	0xbe27982d	-0.16366644
10	0x3dab48a8	0.083634675
11	0x3e29cc99	0.16581954
12	0x3c1abc0d	0.009444249
13	0xbcce5958	-0.025189087
14	0x3d1375e4	0.0360011
15	0x3ea7c650	0.32768488
16	0xbd3bf2c5	-0.04588582
17	0x3e1f98ca	0.15585628
18	0x3e894179	0.26807764
19	0x3eb7e17b	0.35914215
20	0xbe58854a	-0.21144596
21	0x3dc3c02c	0.09558138
22	0xbe8159d8	-0.25263858
23	0x3cfde1bf	0.030991433
24	0xbd9de21a	-0.07709141
25	0x3cf890da	0.030342508
26	0xbd718c50	-0.058971703
27	0x3dedb03d	0.116058804
28	0xbef6d955	-0.48212686
29	0x3d0a45af	0.03375786
30	0x3e272e94	0.16326362
31	0x3ec1b1ef	0.37831065

_orig_mod.pe_grid f4 [36, 32]
0	0xbe64e043	-0.22351174
1	0xbda948e0	-0.08265853
2	0xbd05dade	-0.03267943
3	0xbd807f27	-0.062742524
4	0x3d3f2a23	0.046671044
5	0x3e598d42	0.21245292
6	0x3d9a1dd8	0.075252235
7	0xbd8bbb89	-0.06822879
8	0x3e90d705	0.28289047
9	0x3e67f1db	0.22650854
10	0xbc2eb010	-0.010662094
11	0x3e8d74e7	0.27628252
12	0xbce3cd0c	-0.027807735
13	0xbdf136fd	-0.11778066
14	0xbe9975bc	-0.29972637
15	0x3d930d25	0.071802415
16	0x3e30a977	0.17252146
17	0x3eb03db6	0.34422082
18	0xbe70222c	-0.23450536
19	0xbe671978	-0.2256831
20	0xbd9cc326	-0.07654409
21	0x3e3cff09	0.18456663
22	0xbe9f403f	-0.31103703
23	0xbdf574f1	-0.119851954
24	0xbe85e70c	-0.26152837
25	0xbda4e69e	-0.08051799
26	0x3d3fa75a	0.04679046
27	0xbe237a8a	-0.15964714
28	0x3e9c7320	0.30556583
29	0x3d44b635	0.04802533
30	0xbce22934	-0.027607538
31	0xbe2684f9	-0.16261663
32	0xbe0a8f1a	-0.13531151
33	0x3daaec84	0.08345893
34	0x3e12dfd1	0.14343192
35	0xbdfaea56	-0.12251727
36	0x3d6ba9f0	0.057535112
37	0xbbbc8841	-0.0057535474
38	0x3e4145f9	0.18874349
39	0xbe83fc36	-0.2577836
40	0x3dc92a34	0.09822503
41	0xbe2a75e7	-0.16646539
42	0xbb6d0686	-0.0036167218
43	0x3dc730df	0.09726118
44	0xbe3aaf16	-0.18230852
45	0xbe50ebfd	-0.20402522
46	0x3cb27314	0.02178339
47	0x3d802434	0.06256905
48	0xbd844859	-0.06459112
49	0xbdebde1a	-0.11516972
50	0x3e8e9942	0.278513
51	0xbda5dafc	-0.080984086
52	0x3d2d6f7c	0.042342648
53	0x3ebe0c52	0.37118775
54	0xbe8dbfc9	-0.27685383
55	0x3dd9ec83	0.10640814
56	0x3e69affa	0.22821036
57	0xbd8a50d2	-0.067536965
58	0x3d6f1391	0.05836827
59	0x3ec8c81a	0.39215165
60	0xbdb52046	-0.08844046
61	0x3dd7c41b	0.10535451
62	0xbd8111d6	-0.0630223
63	0xbe85add0	-0.2610917
64	0x3e90168d	0.28142205
65	0xbe8863b0	-0.26638556
66	0xbdf90ea1	-0.12160993
67	0x3db09334	0.08621827
68	0x3e383e04	0.17992407
69	0x3d97cb8c	0.0741187
70	0x3e10cd27	0.1414076
71	0x3d25557e	0.040364735
72	0xbea0011a	-0.3125084
73	0xbded9dfc	-0.11602399
74	0xbc56a4fc	-0.013100859
75	0xbe0d795f	-0.1381583
76	0xbda2f2a1	-0.07956434
77	0x3c859c27	0.01630981
78	0xbddb98a1	-0.10722471
79	0x3e17d6f8	0.14828098
80	0x3d123255	0.03569253
81	0x3e48b4be	0.19600198
82	0x3e406cba	0.18791476
83	0x3e26fe69	0.16307987
84	0x3d1e1674	0.03859563
85	0x3e8e7623	0.27824506
86	0xbce1eb50	-0.027578026
87	0x3e949d74	0.29026377
88	0xbd8ee87c	-0.069779366
89	0xbda44445	-0.08020834
90	0xbd90cbb6	-0.07070105
91	0xbe7516bb	-0.23934452
92	0xbe8a907c	-0.27063358
93	0xbe8b8b5b	-0.27254757
94	0xbd859b32	-0.06523742
95	0xbe4524c0	-0.192523
96	0x3db595b5	0.08866445
97	0xbdfbf3cf	-0.12302362
98	0x3e168697	0.1469978
99	0x3d10b69b	0.035330396
100	0x3e2faca8	0.17155707
101	0x3e92a0d6	0.28638333
102	0x3cc8e891	0.024524959
103	0x3d8271a2	0.0636933
104	0xbd07e09f	-0.0331732
105	0x3e0f7e69	0.14013065
106	0xbec02419	-0.3752754
107	0xbd7872b1	-0.060656253
108	0xbdfc8eac	-0.123319
109	0x3e33e799	0.17568816
110	0x3eaf361c	0.3422097
111	0x3aca4170	0.0015430879
112	0x3e9c8b51	0.3057504
113	0x3e6ce917	0.23135792
114	0x3d63efdf	0.05564868
115	0x3d6a2c60	0.057171226
116	0xbbc0850a	-0.0058752345
117	0x3e3110f1	0.17291619
118	0xbeb6c73b	-0.35698876
119	0x3e9ac653	0.30229434
120	0xbe76cf22	-0.24102452
121	0xbc9562eb	-0.018235644
122	0xbe659294	-0.22419196
123	0xbd12df16	-0.035857283
124	0xbd9965f6	-0.07490151
125	0xbcaac356	-0.020845097
126	0x3e08a196	0.1334289
127	0xbe6fddd3	-0.23424463
128	0x3cfba86a	0.030719955
129	0xbd403ab6	-0.04693099
130	0xbd167a18	-0.03673753
131	0xbc09009c	-0.008361962
132	0x3db3e443	0.08783772
133	0x3c90025f	0.017579256
134	0xbe5d0cb4	-0.21586877
135	0x3df8a871	0.12141503
136	0x3d4c5908	0.049889594
137	0xbd99483e	-0.07484482
138	0xbe32bc76	-0.17454705
139	0x3dbe8fa9	0.09304745
140	0x3ac60d19	0.0015110105
141	0xbecc2ed7	-0.39879486
142	0x3d5d5229	0.054033432
143	0x3e918bd8	0.28427005
144	0xbdf51483	-0.11966803
145	0xbe351d5a	-0.17686978
146	0x3dd8cf40	0.10586405
147	0xbd4602d9	-0.04834256
148	0x3d3a9a18	0.04555711
149	0x3e872725	0.26397052
150	0xbdca6cfc	-0.09884068
151	0xbc51ad0a	-0.012797603
152	0x3e4dcedd	0.20098443
153	0x3de68344	0.11255506
154	0xbd509309	-0.050921474
155	0x3e0dc9bd	0.13846488
156	0xbe62e467	-0.22157441
157	0xbea16ae0	-0.31526852
158	0xbd5809dd	-0.05274378
159	0x3e808ee6	0.25109023
160	0xbd00461c	-0.03131686
161	0x3eb9e096	0.36304158
162	0x3db892c6	0.0901237
163	0xbdaec1df	-0.08533072
164	0xbe11b10a	-0.14227691
165	0x3e2bd01c	0.16778606
166	0x3e365948	0.17807496
167	0xbd6e1960	-0.05812967
168	0xbd9e730f	-0.077367894
169	0xbde01f43	-0.10943463
170	0x3cf17905	0.029476652
171	0x3e56f8a0	0.2099328
172	0x3ab49eef	0.0013780276
173	0x3e8daeed	0.2767252
174	0xbe38e544	-0.18056208
175	0xbd6ab4b5	-0.057301242
176	0x3e21f67b	0.15816681
177	0x3e13193e	0.14365098
178	0x3d59fba9	0.053218517
179	0x3e056c02	0.13029483
180	0xbdfff921	-0.124986894
181	0xbe1cdc08	-0.1531831
182	0x3e6a66e6	0.22890815
183	0x3d924e9c	0.071439
184	0xbd14d8e0	-0.03633964
185	0x3de349ba	0.110980466
186	0x3e0c4573	0.13698368
187	0xbc6156a3	-0.013753566
188	0xbe3b26de	-0.18276545
189	0xbd77a2e6	-0.060458086
190	0xbddf1d6a	-0.10894282
191	0x3c98b635	0.01864157
192	0x3c921dc1	0.017836453
193	0xbf0d76e2	-0.55259526
194	0x3e1630f7	0.14667116
195	0x3d2bb45a	0.041920044
196	0xbe00297b	-0.12515824
197	0xbe110aed	-0.14164324
198	0x3da4353f	0.080179684
199	0x3e9c1b79	0.3048971
200	0x3e3b07b7	0.18264662
201	0xbc51b3f0	-0.012799248
202	0x3c2699c8	0.0101685
203	0xbe22bc9c	-0.15892261
204	0xbe276107	-0.16345607
205	0x3d57fb1f	0.052729722
206	0x3ceb3d45	0.028715739
207	0x3e011fc1	0.1260977
208	0x3eb6dac6	0.35713786
209	0xbd984d80	-0.07436657
210	0xbc04257e	-0.008065579
211	0x3d7f524e	0.06233435
212	0xbd38ab17	-0.04508504
213	0xbdfb4d19	-0.122705646
214	0xbe8213c3	-0.25405702
215	0x3e9ce26e	0.30641502
216	0x3e281569	0.16414417
217	0xbe03eff3	-0.12884502
218	0xbe127eae	-0.14306137
219	0xbe94ef9f	-0.29089066
220	0x3e7cc7bb	0.24685566
221	0x3d8102e2	0.06299378
222	0xbde86f58	-0.11349362
223	0x3e8603eb	0.26174864
224	0xbe151960	-0.14560461
225	0xbe53f89c	-0.20700306
226	0xbccc04c7	-0.024904622
227	0x3de1eb84	0.11031249
228	0x3d78f550	0.060780823
229	0x3b80c1b1	0.00392934
230	0x3e56f905	0.20993431
231	0x3cd174a0	0.025568306
232	0x3dddfd9c	0.10839388
233	0xbdf96586	-0.12177567
234	0x3e0da26b	0.13831489
235	0x3dfb7985	0.122790374
236	0xbd163050	-0.03666717
237	0x3e5b938a	0.21443
238	0xbd5f25e3	-0.05447949
239	0x3af5f80a	0.0018765938
240	0x3dd50048	0.10400444
241	0x3e5a1eac	0.21300763
242	0x3e13b7cf	0.14425586
243	0xbdc0a9f2	-0.094074145
244	0xbda9751e	-0.082742915
245	0xbd412845	-0.047157545
246	0xbe2943b4	-0.16529733
247	0x3d10c002	0.035339363
248	0x3bc8bf73	0.006126338
249	0x3e2c3b5f	0.16819523
250	0xbe9913fb	-0.29898056
251	0x3e666ab4	0.22501642
252	0xbde6365e	-0.112408385
253	0xbc4203c0	-0.011841714
254	0x3ded6916	0.11592309
255	0xbe8de7ee	-0.2771601

_orig_mod.pe_frames f4 [5, 32]
0	0xbe99742c	-0.29971445
1	0xbc3da8bf	-0.011575877
2	0xbe2b22eb	-0.16712539
3	0xbe94ae89	-0.2903941
4	0x3dc2fe9e	0.095212206
5	0x3d814895	0.06312672
6	0x3de73d09	0.112909384
7	0x3d2d0b33	0.04224701
8	0xbeaa741d	-0.33291712
9	0x3e8522e9	0.26003197
10	0x3e660899	0.22464217
11	0x3e275650	0.1634152
12	0x3e75ec1e	0.24015853
13	0xbdedc296	-0.1160938
14	0xbe637b0c	-0.22214907
15	0x3e101a00	0.14072418
16	0xbe1b6029	-0.15173401
17	0x3e0a3223	0.13495688
18	0xbd1dd244	-0.038530603
19	0xbddabee7	-0.10680943
20	0x3e25fad1	0.1620896
21	0x3db1e1f2	0.08685674
22	0xbdcbddf3	-0.09954443
23	0x3e27d5dc	0.16390175
24	0x3d673ab0	0.056452453
25	0x3d9f9b8e	0.077933416
26	0x3d57cc6a	0.05268518
27	0x3eb4a397	0.3528106
28	0x3dfc7284	0.123265296
29	0xbe1ef573	-0.15523319
30	0x3c81f14d	0.015862131
31	0x3dd35b3a	0.103201345
32	0x3d37b7c3	0.044852983
33	0x3e12c673	0.14333515
34	0x3e569888	0.20956624
35	0xbe8ea095	-0.2785689
36	0x3e257302	0.16157153
37	0xbc4e3e02	-0.012588026
38	0x3d084bb4	0.03327532
39	0xbcce4fc4	-0.02518452
40	0x3d0d0cf5	0.034436185
41	0xbdef8472	-0.11695184
42	0xbd033ca7	-0.032040264
43	0xbd4f9c5a	-0.050686218
44	0x3eb7e11e	0.35913938
45	0xbd948a7a	-0.07252975
46	0xbe0e3e6d	-0.13891001
47	0xbd660e54	-0.056166008
48	0x3e8bc7bb	0.2730082
49	0x3f07d3f5	0.53057796
50	0xbee5beeb	-0.4487222
51	0x3c45c0ba	0.012069875
52	0xbe163d6b	-0.14671867
53	0xbc1f828a	-0.009735713
54	0x3e372897	0.17886578
55	0xbe3004a0	-0.17189264
56	0xbcd5d34c	-0.02610173
57	0xbd89b213	-0.06723418
58	0x3e4e2e5e	0.20134875
59	0x3b9daedb	0.004812104
60	0x3dec9a44	0.11552861
61	0x3d51b23a	0.05119536
62	0xbe5a7d27	-0.21336804
63	0xbd3db2b7	-0.046313014
64	0x3c793947	0.01521141
65	0xbdd35504	-0.1031895
66	0x3e13914a	0.14410892
67	0x3d92f878	0.07176298
68	0xbda5aed4	-0.080899864
69	0xbe9454e1	-0.28971007
70	0x3dccc59c	0.099986285
71	0xbdff3825	-0.124618806
72	0x3e2d6c76	0.16935906
73	0xbd817b67	-0.06322365
74	0xbc992ac2	-0.018697146
75	0x3e9b2a90	0.3030591
76	0x3d60d857	0.054893818
77	0xbebbec58	-0.36703753
78	0xbd4b3fbf	-0.04962134
79	0x3e4c7489	0.1996633
80	0xbb0f11a1	-0.0021830576
81	0x3e454cc7	0.1926757
82	0xbd842e26	-0.064541146
83	0xbdb51194	-0.088412434
84	0x3d57de7d	0.052702416
85	0xbe85f19f	-0.26160905
86	0x3dfd68f6	0.12373535
87	0x3e75a44d	0.23988457
88	0x3da2ed76	0.07955448
89	0x3d3a9ebe	0.045561545
90	0x3d3fde32	0.04684276
91	0xbed1d57c	-0.40983188
92	0x3da62560	0.081125975
93	0x3ec3cc2d	0.3824171
94	0x3e982fa8	0.2972386
95	0xbe43cd5f	-0.19121312
96	0xbd0bff84	-0.034179226
97	0xbe80dace	-0.25166935
98	0x3e34da84	0.17661482
99	0xbd438f0e	-0.04774385
100	0x3e8b0c19	0.27157667
101	0xbd47af27	-0.048751023
102	0x3de9242f	0.113838546
103	0x3e357fab	0.17724483
104	0xbe4eb38f	-0.20185684
105	0x3e3214e9	0.17390789
106	0x3e8618fa	0.2619093
107	0x3e3988a7	0.18118535
108	0x3d993687	0.074811034
109	0x3da24747	0.07923751
110	0x3e55d264	0.20881039
111	0x3e437784	0.1908856
112	0x3e093d10	0.134022
113	0xbe2bc737	-0.16775213
114	0xbe7fa52c	-0.24965352
115	0xbe478d61	-0.19487526
116	0xbdc96d02	-0.09835245
117	0x3dd37395	0.1032478
118	0x3dbcbb4b	0.09215411
119	0xbea3f949	-0.32026127
120	0xbe883334	-0.26601565
121	0xbe9ef8b4	-0.3104912
122	0x3ddf8767	0.10914498
123	0x3ab39729	0.0013701665
124	0xbd78f24f	-0.06077796
125	0x3e8762f3	0.2644268
126	0xbea54a20	-0.32283115
127	0x3dc1dcc1	0.094659336
128	0xbe109c4d	-0.14122124
129	0x3d135cea	0.03597728
130	0x3d83e2b9	0.06439728
131	0xbd4fe6ae	-0.050757103
132	0x3d8bb14b	0.06820925
133	0x3e7d4e38	0.2473687
134	0xbe44e7d9	-0.19229068
135	0x3d83f8bf	0.06443929
136	0x3e9c2865	0.3049957
137	0xbe900b97	-0.28133842
138	0x3e5fc410	0.21852136
139	0xbc816bd9	-0.015798496
140	0x3ebfe6eb	0.37480864
141	0xbd91e095	-0.07122914
142	0x3e6b4ccb	0.22978513
143	0xbeb4133d	-0.35170928
144	0x3dac6827	0.08418303
145	0x3c10983f	0.008825361
146	0xbe0e3ed1	-0.1389115
147	0xbe4106e0	-0.18850279
148	0x3db6779d	0.08909533
149	0x3b8e189f	0.004336431
150	0x3e8f3423	0.27969465
151	0x3d8f27a5	0.069899835
152	0xbdc8b667	-0.098004155
153	0xbc9e14ff	-0.019297121
154	0xbe3fcc57	-0.18730293
155	0xbde5add3	-0.11214795
156	0x3e42b217	0.19013248
157	0xbdf2afdc	-0.11849949
158	0xbd3546d5	-0.044257004
159	0xbf098250	-0.53714466

_orig_mod.blocks.0.norm1.fc.weight f4 [64, 32]
0	0xbe016e15	-0.12639649
1	0xbe0cb7ab	-0.13741939
2	0xbde8f00e	-0.11373912
3	0xbd8c4601	-0.0684929
4	0xbdafb9ab	-0.08580335
5	0xbda0b0fc	-0.07846257
6	0xbdd81e79	-0.10552687
7	0xbd52af31	-0.051436607
8	0xbdf4b421	-0.11948419
9	0x3d43bf22	0.0477897
10	0xbd4e45f9	-0.0503597
11	0x3d29ffec	0.04150383
12	0xbe34fb00	-0.17673874
13	0x3c99e996	0.01878814
14	0x3d90ef74	0.07076922
15	0x3dd60387	0.104498915
16	0xbcd84130	-0.026398271
17	0x3d9e9d48	0.07744843
18	0x3e086624	0.13320214
19	0xbe2c9cff	-0.16856764
20	0x3dbfc832	0.09364356
21	0x3e1a6d3d	0.15080734
22	0xbbebfbba	-0.007201639
23	0xbe1b5fdb	-0.15173285
24	0xbd77d11f	-0.060502168
25	0x3e001e0b	0.1251146
26	0x3df9e5c8	0.122020304
27	0x3e11d8e9	0.14242901
28	0xbe0c4226	-0.13697109
29	0x3cf61049	0.030037062
30	0xbe13ce0d	-0.14434071
31	0xbd8dc1c3	-0.06921723
32	0x3d562799	0.052283857
33	0xbdd0855d	-0.10181687
34	0xbe01319e	-0.12616584
35	0x3c9b69c3	0.01897133
36	0x3dcf6351	0.10126365
37	0xbdf0dc16	-0.11760728
38	0x3e099961	0.13437416
39	0xbe241c11	-0.16026331
40	0xbcba35b6	-0.02273069
41	0x3d0a8faf	0.033828434
42	0xbe09adfb	-0.13445275
43	0x3dabc14c	0.08386478
44	0xbd903795	-0.070418514
45	0xbdb738ff	-0.08946418
46	0x3d8914e5	0.066934384
47	0x3e2193ca	0.15779033
48	0x3dd1512a	0.10220559
49	0xbd9efdb8	-0.07763237
50	0xbd9c8708	-0.07642943
51	0xbdc1f361	-0.09470249
52	0xbdf2c27b	-0.118535005
53	0xbd862afd	-0.06551168
54	0x3d03598f	0.03206783
55	0xbd86db32	-0.06584777
56	0xbe2fa87a	-0.17154112
57	0xbd410039	-0.047119353
58	0x3e2d628e	0.16932127
59	0x3d465058	0.048416466
60	0x3e1a0d84	0.15044218
61	0xbdcb7106	-0.09933667
62	0x3dcb1af8	0.09917253
63	0xbe25f853	-0.1620801
64	0xbd0405fd	-0.032232273
65	0xbe0f7fee	-0.14013645
66	0x3c88dc34	0.016706564
67	0x3e026f82	0.1273785
68	0x3dc5ad30	0.096521735
69	0xbda919c7	-0.0825687
70	0x3dbbfae9	0.09178717
71	0x3e339fa4	0.17541367
72	0xbcb1761d	-0.021662766
73	0x3cbe14e4	0.02320332
74	0x3e0c2f99	0.13690032
75	0xbe0f14e3	-0.13972811
76	0x3e2ef0b6	0.17084011
77	0x3d2b9a2c	0.041895077
78	0xbdcbb0e4	-0.099458486
79	0x3e0aeefe	0.13567731
80	0x3d8904b2	0.06690349
81	0x3d673f43	0.056456815
82	0x3c0f4d51	0.008746461
83	0xbdd987d6	-0.10621612
84	0xbdbf8176	-0.093508646
85	0x3e0a4c71	0.13505723
86	0xbe28af74	-0.1647318
87	0x3d6ce6a6	0.05783715
88	0xbd55e0a4	-0.052216187
89	0x3e0f1e4a	0.13976398
90	0x3e1552c6	0.14582357
91	0x3cf7928d	0.030221248
92	0xbd5092b9	-0.050921176
93	0x3b3595b4	0.0027707638
94	0xbe3405c9	-0.17580332
95	0xbe31d8a2	-0.17367795
96	0x3d4cf6a7	0.050039914
97	0x3d8aada1	0.06771398
98	0x3df49a66	0.11943512
99	0x3de3fd14	0.11132255
100	0xbe195418	-0.14973485
101	0x3da4f0fc	0.080537766
102	0x3de17e7a	0.110104516
103	0x3e2f327c	0.17109102
104	0x3dea0d65	0.11428336
105	0xbe1e0e4b	-0.1543514
106	0xbe02e521	-0.12782718
107	0xbd9d6c72	-0.076867
108	0x3e17a9d1	0.14810874
109	0x3cf936f6	0.030421715
110	0xbc0730cc	-0.00825138
111	0xbd9e7f74	-0.077391535
112	0xbd8db9e9	-0.06920225
113	0xbe006947	-0.1254016
114	0x3e135e3c	0.14391416
115	0xbe218dbb	-0.15776722
116	0xbc531b6b	-0.012884955
117	0x3d3329f8	0.043741196
118	0xbcacbb88	-0.021085516
119	0x3db52333	0.08844604
120	0xbd21604f	-0.039398488
121	0xbe2e1dfd	-0.17003627
122	0x3d1c1269	0.038103495
123	0xbb4d1d4a	-0.0031297975
124	0xbd3660c8	-0.04452589
125	0xbd373d0d	-0.044735957
126	0x3e0c8f7f	0.13726614
127	0x3d94bdd0	0.07262766
128	0x3e2281b8	0.15869796
129	0x3db87dbe	0.090083584
130	0xbc7532af	-0.014965697
131	0x3e14f6d3	0.14547281
132	0x3e029d6a	0.12755361
133	0x3de424d9	0.11139841
134	0x3d3b7981	0.045770172
135	0x3e05def6	0.13073334
136	0x3e027cc9	0.12742914
137	0x3e25a407	0.16175853
138	0x3df6f639	0.12058682
139	0x3e1178be	0.14206216
140	0xbe1b43fa	-0.1516265
141	0x3ce12b1b	0.027486375
142	0x3cb589fc	0.022160523
143	0x3de4eeef	0.111783855
144	0x3bca2ba6	0.006169754
145	0x3e1a7f58	0.1508764
146	0x3e2aba5c	0.16672653
147	0x3dc1feac	0.09472403
148	0xba455dde	-0.0007528941
149	0xbd89127e	-0.0669298
150	0x3dd67d2f	0.104730956
151	0xbdeeeb9a	-0.11666031
152	0xbdfffc55	-0.124993004
153	0xbd8ba94d	-0.06819401
154	0x3e166b50	0.14689374
155	0xbe22401c	-0.15844768
156	0x3d9da6f1	0.07697857
157	0x3c98f3ce	0.018670943
158	0x3dacd4b9	0.08439011
159	0x3de43fe6	0.11145
160	0x3d907464	0.0705345
161	0xbdf5cb4c	-0.120016664
162	0x3e05a080	0.13049507
163	0xbdf3dd61	-0.11907459
164	0xbd8f5f9e	-0.070006594
165	0xbde02d2d	-0.109461166
166	0xbc59364e	-0.013257576
167	0xbd8af22f	-0.06784474
168	0x3d015539	0.031575415
169	0x3daab634	0.08335534
170	0xbdabe6ab	-0.08393606
171	0xbdb81a35	-0.089893736
172	0xbc49f8d7	-0.012327394
173	0x3df3ea16	0.11909883
174	0x3db3e293	0.0878345
175	0x3d59e078	0.053192586
176	0x3df70450	0.120613694
177	0xbd91ed48	-0.07125336
178	0xbc8c4fe9	-0.017127948
179	0xbcbded48	-0.023184434
180	0x3e0fdc11	0.14048792
181	0x3cb3d2b4	0.021951057
182	0x3e2a2604	0.16616064
183	0xbd3ff68a	-0.046865977
184	0xbc8f207e	-0.017471548
185	0x3de91327	0.11380606
186	0x3dc21756	0.09477107
187	0xbdaf61a2	-0.08563544
188	0xbe229158	-0.15875757
189	0x3d7c9f7a	0.061675526
190	0x3dd0a434	0.10187569
191	0xbd9cd5ee	-0.07657991
192	0xbd885bdc	-0.06658146
193	0x3e0ceece	0.13762972
194	0xbe21a126	-0.1578413
195	0xbe27e9b8	-0.1639775
196	0xbd951ec8	-0.07281262
197	0xbe106750	-0.1410191
198	0xbd8c6ccf	-0.06856691
199	0x3dd9e328	0.1063903
200	0x3d1d6bcd	0.038432885
201	0xbe0b6f84	-0.13616759
202	0x3daefee8	0.08544713
203	0xbdbb3adc	-0.09142086
204	0x3de0dce5	0.10979632
205	0xbcdbbca1	-0.026823344
206	0x3d19f6be	0.037588827
207	0xbd3e0aa4	-0.046396866
208	0xbba1d937	-0.004939224
209	0x3ce223a5	0.027604887
210	0x3ce41f74	0.02784703
211	0x3d8664fc	0.0656223
212	0xbe1be647	-0.15224563
213	0xbdd63a47	-0.10460334
214	0x3e1079e2	0.14108995
215	0xbce7399a	-0.028225709
216	0x3db8862c	0.09009966
217	0xbe1ef7fe	-0.15524289
218	0x3ddf5c9d	0.109063365
219	0xbe0c1f47	-0.13683806
220	0xbc1e3c18	-0.009657882
221	0x3dab2d90	0.083583
222	0x3c4225f0	0.011849865
223	0x3d2bad9d	0.041913617
224	0x3d8dbf5a	0.06921263
225	0x3d8f90b2	0.0701002
226	0x3d932667	0.07185059
227	0xbdeacd77	-0.114649706
228	0x3c5b3c65	0.013381098
229	0x3ddb8c72	0.10720147
230	0x3e1fd430	0.15608287
231	0xbdb50b01	-0.088399895
232	0x3dc9d697	0.09855383
233	0x3d9b4933	0.07582321
234	0xbd16b01c	-0.036789045
235	0x3dcafcc3	0.09911492
236	0x3d3a3afd	0.04546641
237	0x3d643402	0.05571366
238	0x3bb01705	0.005373838
239	0xbcd59774	-0.026073195
240	0xbe0324a7	-0.1280695
241	0xbd2d9197	-0.042375173
242	0xbdee2b0d	-0.11629305
243	0xbe1118c5	-0.14169605
244	0x3e070a7d	0.13187595
245	0xbd5f7c17	-0.0545617
246	0xbc3cb8eb	-0.011518697
247	0x3dbd9a46	0.09257941
248	0x3e2df4cf	0.16987918
249	0xbc69cfbc	-0.014270719
250	0x3c5f812b	0.013641636
251	0xbdb32e48	-0.08749062
252	0x3d3346ad	0.043768574
253	0xbe327cac	-0.17430371
254	0x3e06dff7	0.13171373
255	0xbc20eea4	-0.009822521

_orig_mod.blocks.0.norm1.fc.bias f4 [64]
0	0xbbc755e8	-0.006083239
1	0x3c5c3310	0.013439909
2	0x3e314ef5	0.17315276
3	0xbb027fb3	-0.001991254
4	0xbda4931a	-0.0803587
5	0x3ce9eae8	0.028554395
6	0x3a8d0402	0.0010758641
7	0x3e03d30f	0.12873481
8	0xbdeb0ca3	-0.1147702
9	0x3dc5c888	0.09657389
10	0xbe307e5b	-0.17235701
11	0xbdb4ccee	-0.0882815
12	0xbd53ba95	-0.05169161
13	0xbd9ae80a	-0.07563789
14	0x3e130f47	0.14361297
15	0x3e320336	0.17384037
16	0x3debc3a5	0.115119256
17	0x3d513c38	0.05108282
18	0xbdde7356	-0.10861842
19	0x3e2e24c0	0.17006207
20	0xbccd6fa7	-0.025077654
21	0xbdfab414	-0.122413784
22	0xbdee2ce9	-0.1162966
23	0x3de51b6a	0.111868694
24	0x3d4dffbb	0.05029271
25	0x3e1ac96f	0.15115903
26	0x3c59d0c4	0.0132944025
27	0xbda8f2b4	-0.08249417
28	0xbe17c9be	-0.14823052
29	0xbd0372e7	-0.032092
30	0xbd42a6b3	-0.047522258
31	0xbdaba015	-0.083801426
32	0xbda5fc55	-0.08104769
33	0x3da7eefc	0.081998795
34	0x3d65f40d	0.056140948
35	0xbdeeac66	-0.11653976
36	0x3e1edb79	0.1551341
37	0x3e2ba5ed	0.16762514
38	0x3e3337f5	0.17501815
39	0xbd995ac2	-0.07488014
40	0xbe22ca21	-0.15897419
41	0x3b0d90d0	0.0021601208
42	0x3d68d612	0.05684478
43	0x3e1f46da	0.15554371
44	0x3da8b436	0.082374975
45	0xbe212b6c	-0.1573922
46	0x3d1d5be1	0.0384177
47	0xbd2bdc03	-0.041957866
48	0x3dd00569	0.10157282
49	0xbd04f608	-0.032461196
50	0x3d75a131	0.059968177
51	0x3d66d8de	0.056359164
52	0xbdf9a28d	-0.12189207
53	0x3e08ada0	0.13347483
54	0x3d21a0ca	0.03945998
55	0xbdf62833	-0.12019386
56	0xbc97e750	-0.018542916
57	0x3e0cbdf7	0.13744341
58	0xbde08c69	-0.10964281
59	0x3d9b6f58	0.075895965
60	0xbd63f35e	-0.055652015
61	0xbd5d84f0	-0.054081857
62	0x3df5e67c	0.12006852
63	0x3de83f72	0.11340226

_orig_mod.blocks.0.attn.W_Q f4 [8, 32, 4]
0	0xbf161b5a	-0.58635485
1	0xbbde61dd	-0.0067865686
2	0x3f532383	0.8247606
3	0x3f5136bd	0.8172415
4	0x3f3c5e98	0.7358184
5	0xbec46026	-0.38354605
6	0xbe7fc175	-0.24976142
7	0xbf0279f5	-0.5096734
8	0x3f5e1cc5	0.8676265
9	0x3f18e605	0.5972598
10	0x3ec14f8a	0.37755996
11	0xbebd62d0	-0.3698945
12	0x3e292e32	0.16521528
13	0x3e9b034c	0.30275953
14	0x3f4afeb2	0.79294884
15	0x3f50ca41	0.81558615
16	0xbef62c47	-0.48080656
17	0xbc3d50d8	-0.011554919
18	0x3f47daf5	0.78068477
19	0x3f731f75	0.94969875
20	0xbe0223dd	-0.12708993
21	0x3e523c87	0.20530902
22	0x3f8e45ea	1.1115086
23	0xbf8f39c1	-1.11895
24	0x3ff46734	1.9093995
25	0xbf7b87dc	-0.9825418
26	0xbf585536	-0.8450502
27	0x3f47ac93	0.779977
28	0xbf2f4537	-0.6846499
29	0xbef369f4	-0.47541773
30	0x3f510940	0.8165474
31	0x3faa257c	1.3292689
32	0x3dce3db6	0.10070364
33	0x3e017712	0.12643078
34	0xbf47fb0f	-0.7811746
35	0xbeda563d	-0.4264392
36	0x3f893eeb	1.0722326
37	0xbf704b19	-0.9386459
38	0xbd88a8ea	-0.06672843
39	0xbe8b24a3	-0.2717639
40	0x3f9c5957	1.2214764
41	0x3f38992d	0.7210873
42	0x3ecbe434	0.39822543
43	0xbec070c3	-0.3758603
44	0x3f1575ac	0.5838268
45	0x3fa6859f	1.3009528
46	0xbea86b2b	-0.32894263
47	0xbf4e2713	-0.8052837
48	0x3cc2047c	0.023683779
49	0x3ffa5d8b	1.9559797
50	0x3f9b4db5	1.2133089
51	0xbe7afb65	-0.24509962
52	0x3d9b5dab	0.07586225
53	0xbfad684e	-1.3547456
54	0x3f915dd3	1.1356758
55	0x3f0aab0e	0.5416726
56	0xbd70c8ff	-0.058785435
57	0x3fcd3e1c	1.6034579
58	0x3eeea472	0.46609837
59	0xbe53aa32	-0.20670393
60	0x3fb54869	1.4162723
61	0x3f4adde1	0.7924481
62	0x3f0d1135	0.5510438
63	0x3f263220	0.64920235
64	0xbe993d32	-0.299295
65	0x3e52b08b	0.20575158
66	0x3f6e3942	0.9305612
67	0x3f2b739a	0.6697327
68	0xbf169252	-0.5881702
69	0x3e6c59f1	0.23081185
70	0xbe2641cc	-0.16236037
71	0xbf6a4899	-0.91517025
72	0xbe9e05b3	-0.30863723
73	0xbf65bee3	-0.89744395
74	0xbfa29906	-1.2702949
75	0x3dea87e2	0.11451699
76	0x3ec54f27	0.3853695
77	0xbf50a0ac	-0.81495166
78	0xbd3eb213	-0.046556544
79	0x3f215e64	0.63034654
80	0x3e0573e9	0.13032497
81	0x3e7d7011	0.24749781
82	0x3f429fe5	0.7602523
83	0x3ed55f4e	0.41674274
84	0x3e6f8977	0.23392282
85	0x3eb1d03b	0.3472918
86	0xbf02d5cf	-0.51107496
87	0x3fb3b65b	1.4040025
88	0x3f12e35b	0.57378167
89	0x3eb2cc41	0.34921458
90	0xbf144e9f	-0.57932466
91	0xbf53f55a	-0.8279625
92	0xbf98a8d7	-1.1926526
93	0x3fd34911	1.6506673
94	0xbcb27bce	-0.02178755
95	0x3fc23430	1.5172176
96	0x3f533110	0.8249674
97	0x3fd04caf	1.6273402
98	0xbea01e68	-0.31273198
99	0x3f12967a	0.5726086
100	0xbf3b0471	-0.7305365
101	0x3fa76ddc	1.3080401
102	0x3fcc6ca7	1.5970658
103	0x3ef0a887	0.47003576
104	0x3ee5e871	0.449039
105	0xbf056281	-0.5210343
106	0x3e2b554b	0.16731755
107	0x3e845337	0.25844738
108	0xbe8cab02	-0.2747422
109	0xbf853875	-1.0407854
110	0x3f19f8aa	0.60145056
111	0xbf3347a7	-0.7003121
112	0x3e9a60ea	0.30152065
113	0x3fcf9242	1.6216509
114	0x3eb6057e	0.35551065
115	0x3f641e0e	0.8910836
116	0xbfae9813	-1.3640159
117	0xbedcbd8d	-0.43113366
118	0x3d5656c6	0.052328847
119	0xbe6b4eb0	-0.22979236
120	0xbf6d6807	-0.9273686
121	0xbf94bb3d	-1.161964
122	0xbeb1732e	-0.34658188
123	0xbf0da317	-0.5532698
124	0x3ee6fa2c	0.4511274
125	0xbf81afe3	-1.0131801
126	0xbed3c18b	-0.413586
127	0xbfdff1b6	-1.7495639
128	0x3f86a5cf	1.0519351
129	0x3f9c1fd5	1.2197214
130	0x40106819	2.2563536
131	0x3fe0adba	1.7553017
132	0xbec3586f	-0.38153407
133	0x3f8585c5	1.0431448
134	0x3f2b1e96	0.66843545
135	0x3f26f022	0.65210164
136	0x3ee6910c	0.45032537
137	0xbff80e6d	-1.9379402
138	0x3f16e5bd	0.589443
139	0x3fbbfeba	1.4687111
140	0x3fa5149f	1.2896918
141	0x3f870041	1.0546952
142	0x3f7aa8a6	0.9791359
143	0xbf31186e	-0.691779
144	0xbdf7ccf5	-0.12099639
145	0xbf77e4e7	-0.9683365
146	0xbf91dacd	-1.1394898
147	0x3e3dbff5	0.18530257
148	0xbf358d6b	-0.7091891
149	0x3e420c3b	0.18949978
150	0x3fbe0842	1.484627
151	0xbf78eb98	-0.9723449
152	0xbf1173ea	-0.56817496
153	0xbe2c5940	-0.16830921
154	0xbffb1096	-1.9614437
155	0x3f9764d5	1.1827646
156	0x3d8d9633	0.06913414
157	0x3f117578	0.5681987
158	0x3fd4aed6	1.6615856
159	0xbf8b1bd3	-1.0867866
160	0x3fff812f	1.9961299
161	0xbef2d421	-0.47427467
162	0x3f904567	1.127118
163	0x3fa40ca8	1.2816362
164	0x400af76f	2.1713521
165	0xbf8c0a79	-1.0940696
166	0x3dd47ee4	0.10375765
167	0x3fba27d1	1.4543401
168	0xbf9347e6	-1.1506317
169	0xbff6fb7a	-1.9295495
170	0xbefb1e49	-0.49046543
171	0xbf7a9dcb	-0.9789702
172	0xc007d88c	-2.122592
173	0x3f88c383	1.0684665
174	0xbed7bedc	-0.42137802
175	0xbf565b7e	-0.83733356
176	0x3e08b8b3	0.13351707
177	0x3fdcc0f9	1.724639
178	0xbeba8056	-0.36426038
179	0xbeea03c7	-0.45706007
180	0xbf95acc6	-1.1693351
181	0x3e94a878	0.2903478
182	0x3daf44df	0.08558058
183	0xbc65e94b	-0.014032672
184	0x3e8d9c02	0.27658087
185	0x3f8c3f79	1.095687
186	0x3e25233a	0.16126719
187	0x3ff8c70d	1.9435745
188	0x3f9613cc	1.1724792
189	0x3e712fcd	0.23553391
190	0x3f7e2846	0.992802
191	0xbd0e9281	-0.034807686
192	0x3f1dfc80	0.6171341
193	0xbf489a35	-0.783603
194	0xbe613c4a	-0.21995655
195	0x40153e0a	2.3319116
196	0x3f2e3baf	0.6805982
197	0x3f761df2	0.9613944
198	0xbf489585	-0.7835315
199	0xbe5a9ffa	-0.21350089
200	0x3f5248c6	0.82142293
201	0x3eef0aa6	0.46687812
202	0xbe93e97d	-0.28889075
203	0xbf985f6e	-1.1904123
204	0x3dabefd2	0.083953515
205	0x3f8963dd	1.0733601
206	0x3ec528f3	0.38507804
207	0xbe3ccc58	-0.18437326
208	0x400c10d8	2.188528
209	0x3bc0ade1	0.005880103
210	0xbed4aa5d	-0.41536227
211	0x3f786c72	0.97040474
212	0xbed4ee4b	-0.41588053
213	0x3dd32109	0.10309035
214	0xbf47a72f	-0.77989477
215	0xbfafdb92	-1.3738883
216	0x3eea51d0	0.45765543
217	0x3f442301	0.7661591
218	0x3f996dd8	1.1986647
219	0x3ebad651	0.36491635
220	0x3edb84fc	0.42874897
221	0x3f8cf81a	1.1013215
222	0x3f827a38	1.0193548
223	0xbfc4bfee	-1.5371072
224	0x3f40c616	0.75302255
225	0xbe471f24	-0.19445473
226	0x3ed354f0	0.4127574
227	0xbe42b1be	-0.19013116
228	0x3f427595	0.75960666
229	0xbff95608	-1.947938
230	0xbfdea779	-1.7394859
231	0x3f832038	1.0244207
232	0xbe82f308	-0.25576043
233	0x404de48f	3.217075
234	0x3f0a0130	0.5390806
235	0x3fac8668	1.3478518
236	0xbf18d903	-0.59706134
237	0x3f5b1436	0.85577714
238	0xbd2a9b46	-0.041651987
239	0xbfb0ec69	-1.3822147
240	0xbe321b48	-0.1739322
241	0x3b11552e	0.0022176015
242	0xbed2cc16	-0.4117133
243	0x3f3be143	0.733906
244	0xbfd7196b	-1.6804632
245	0x3f9e00ec	1.2344031
246	0xbf294399	-0.6611877
247	0x3fcfe79d	1.6242558
248	0x3f6ffb9f	0.9374332
249	0xbe94a64a	-0.29033118
250	0x3da2ac48	0.07943016
251	0x3ebf62e0	0.37380123
252	0xbf59e8d5	-0.851209
253	0xbf52fa1b	-0.8241288
254	0xbf245484	-0.6419146
255	0x3ea9c082	0.33154684

_orig_mod.blocks.0.attn.W_K f4 [8, 32, 4]
0	0x3f857967	1.0427674
1	0xbf1620cb	-0.5864379
2	0xbd7c35ee	-0.06157487
3	0x3ed6b473	0.41934547
4	0xbc544e64	-0.012958143
5	0xbf1effa6	-0.6210884
6	0x3f6d2352	0.9263202
7	0xbef1c30f	-0.4721913
8	0x3dae8c3d	0.08522842
9	0x3f510468	0.8164735
10	0xbea7d86d	-0.32782307
11	0x3e106620	0.14101458
12	0xbe712863	-0.23550563
13	0x3fd2739c	1.6441531
14	0xbd4edf6c	-0.05050604
15	0x3ee7f998	0.45307612
16	0xbf1134eb	-0.5672137
17	0x3fbc017a	1.4687951
18	0xbea0bcfe	-0.3139419
19	0xbf64cb75	-0.8937295
20	0xbeb8f1b0	-0.36121893
21	0xbeb00cc7	-0.34384748
22	0xbf6bf84c	-0.92175746
23	0xbe8c7721	-0.27434638
24	0xbd406820	-0.0469743
25	0x3fa84b9b	1.3148073
26	0xbe6dcc0e	-0.23222372
27	0xbfa54dea	-1.2914402
28	0x3ee3fb06	0.44527453
29	0x3fb2baab	1.3963217
30	0xbf1ca30c	-0.6118629
31	0xc00e3c4d	-2.2224305
32	0xbd9e979c	-0.07743761
33	0x3fe4635b	1.7842821
34	0x3fc2a9aa	1.5208027
35	0xbd2c2e93	-0.042036604
36	0x3df3f472	0.119118586
37	0xbed57d29	-0.41697052
38	0xbf706557	-0.9390463
39	0x3e07bd84	0.13255888
40	0xbede51a9	-0.43421677
41	0xbea144ce	-0.31497806
42	0x40204074	2.503934
43	0x3d067c3d	0.032833327
44	0x3f988924	1.1916852
45	0xbf07fa0f	-0.53115934
46	0x3fbab9a0	1.4587898
47	0x3fbe0c30	1.4847469
48	0xbe6643a9	-0.22486748
49	0xc00fae1b	-2.2450016
50	0xbec1e427	-0.3786938
51	0x3e7b13de	0.24519297
52	0xbe8a5e2c	-0.27024972
53	0x3f448de1	0.7677899
54	0x3e06bfe6	0.13159141
55	0xbd05639b	-0.032565694
56	0xbee65af4	-0.44991267
57	0x3f5212a4	0.82059693
58	0xbf6bafbe	-0.92065036
59	0x3e161469	0.14656223
60	0x3f6f3dbe	0.93453586
61	0xbd8ed1e7	-0.069736294
62	0x3ee2620d	0.44215432
63	0x3f426fe9	0.7595201
64	0xbdf86956	-0.12129466
65	0xc000f282	-2.0148015
66	0xbd2a8d69	-0.041638765
67	0xbfaa9c33	-1.3328918
68	0x3f8a1b65	1.078961
69	0xbe6bb108	-0.23016751
70	0x406e91a4	3.7276392
71	0xbf8da045	-1.1064535
72	0x3ebd1d26	0.369363
73	0x3ea90c66	0.33017272
74	0xbf10618e	-0.56398857
75	0xbe952dc1	-0.2913647
76	0x3f1781ad	0.59182245
77	0xbf9e77e5	-1.2380339
78	0x3f33d629	0.7024866
79	0x3dc7be51	0.09753097
80	0xbeca352e	-0.39493698
81	0x3f0d98a7	0.55311054
82	0x3e598892	0.21243504
83	0xbebbeed7	-0.36705658
84	0xc0194d11	-2.3953288
85	0x3f1abfcb	0.604489
86	0xbf02ffbb	-0.51171464
87	0x3fa9f271	1.3277112
88	0x3fb970bd	1.448753
89	0xbf523008	-0.8210454
90	0x3fb556ad	1.4167076
91	0xbf935fdf	-1.1513633
92	0xbf7b3f19	-0.98143154
93	0x3f839a9b	1.0281557
94	0x3fe3a989	1.7786113
95	0x3f501e3b	0.8129613
96	0xbf026af8	-0.5094447
97	0x3fa25c64	1.2684445
98	0x3f3fcb96	0.7492002
99	0x3d323bef	0.04351419
100	0x3fa05ff1	1.2529279
101	0x3dd6204d	0.1045538
102	0xbdfb3f93	-0.12267985
103	0x3fd24475	1.6427141
104	0xbf812a38	-1.0091009
105	0x3e1ce3fb	0.15321343
106	0x3e085331	0.13312985
107	0xc00b4101	-2.1758425
108	0xbf1c3ee9	-0.61033493
109	0x3e939eb1	0.2883201
110	0xbf7781ec	-0.9668262
111	0xbd368c77	-0.04456755
112	0x3fe68672	1.800978
113	0xbeb707e8	-0.3574822
114	0x3f1eafb1	0.61986834
115	0xbeb704f3	-0.35745963
116	0xbf7a2fb5	-0.97729045
117	0x3f805533	1.0026001
118	0xbeb4776f	-0.3524737
119	0x3eff1db9	0.49827364
120	0xbe015f7a	-0.12634078
121	0xbf532735	-0.824817
122	0x3f793e9a	0.9736115
123	0x3f29b66f	0.66293997
124	0x3f806c96	1.0033138
125	0x3f80643e	1.0030591
126	0x3e661236	0.22467884
127	0x3c1fffcd	0.0097655775
128	0xbea88d59	-0.3292034
129	0x3f49b592	0.7879268
130	0xbfab3197	-1.3374509
131	0x3f62ed40	0.88643265
132	0xbfa56167	-1.292035
133	0x3fa1fddb	1.2655596
134	0xbf2318a7	-0.6370949
135	0x3fa57d84	1.2928929
136	0xbf367ad7	-0.7128119
137	0xbe67ade0	-0.22624922
138	0x3dceac1a	0.100914195
139	0xbecd0adf	-0.40047356
140	0x3f6bf25f	0.92166704
141	0xbf83b5aa	-1.0289814
142	0x3f117270	0.5681524
143	0x3eeacd35	0.45859686
144	0x3f9d65d8	1.2296705
145	0x3e874ea5	0.2642719
146	0x3f8d658d	1.1046616
147	0xbf924aa7	-1.1429032
148	0x3e009984	0.12558562
149	0x3f38c414	0.7217419
150	0xbf861973	-1.0476516
151	0x3e8702cd	0.26369324
152	0xbf0df844	-0.5545695
153	0xbe3ca7c3	-0.18423371
154	0x402f7b04	2.7418833
155	0xbdd59d8f	-0.104304425
156	0x3f53b22e	0.82693756
157	0x3fb1db8c	1.3895125
158	0x3d7d4251	0.061830822
159	0xbee9ed9d	-0.45689097
160	0x3ee7ab51	0.45247892
161	0x3fa14b1d	1.2601048
162	0xbe94b934	-0.2904755
163	0x3f430740	0.7618294
164	0xbd97c8ee	-0.07411371
165	0x4012f30c	2.2960844
166	0x3fba319b	1.4546388
167	0x3facffd1	1.3515569
168	0x3ec97e77	0.39354298
169	0xbf67e50c	-0.9058387
170	0x3e2fba50	0.17160916
171	0xbf7a859c	-0.9786012
172	0x3f08f6bc	0.53501487
173	0xbf1c5319	-0.61064297
174	0xc027c19d	-2.6211922
175	0xbe0adef8	-0.13561618
176	0x3f9b9763	1.2155575
177	0x3f2b1143	0.66823214
178	0xbfef2baa	-1.86852
179	0x3f084357	0.5322775
180	0x3fbb8411	1.4649678
181	0xbdaec264	-0.08533171
182	0x3feaf2ba	1.8355324
183	0xbe8e4097	-0.27783653
184	0x3f012337	0.5044436
185	0xbef91778	-0.48650718
186	0x4003bc45	2.058366
187	0xbfbc2b12	-1.4700644
188	0x3fc36d9f	1.5267829
189	0x3fb5a6a9	1.4191486
190	0x3ee6ee36	0.45103616
191	0x3ebe3b09	0.37154415
192	0x3e5a373b	0.21310131
193	0x3f0bcfd4	0.54613996
194	0xbf756ecc	-0.9587219
195	0xbe74b511	-0.23897196
196	0xbe823f83	-0.2543908
197	0x3e8765b4	0.2644478
198	0x3fb85e21	1.4403726
199	0x3f5a7164	0.8532927
200	0x3fcf2ddd	1.6185871
201	0x3f3010fe	0.6877593
202	0x3e885b08	0.2663195
203	0x3e70891e	0.23489806
204	0x3f29dc5f	0.66351885
205	0x3f5be2bd	0.8589285
206	0xbe1d384b	-0.15353505
207	0x3fafcd69	1.3734561
208	0xbfa02465	-1.2511107
209	0x3fedafa9	1.8569232
210	0x3efbe39d	0.49197093
211	0xbffbbd6d	-1.9667183
212	0x3ea46264	0.32106316
213	0xbfdf7f79	-1.7460777
214	0x3e9af855	0.30267587
215	0xbfa08c03	-1.2542728
216	0xbfd31ea8	-1.649373
217	0x3f1780a1	0.5918065
218	0x3fa99bc2	1.3250659
219	0xbe687366	-0.22700271
220	0xbfa0c696	-1.2560604
221	0x3f32657f	0.6968612
222	0xbec501c3	-0.38477907
223	0xbfda9077	-1.7075337
224	0x3fe027d2	1.7512152
225	0x4003eda8	2.0613804
226	0xbf138484	-0.5762408
227	0x3f27dd2c	0.65571856
228	0xbfa33239	-1.2749702
229	0xbebd5bca	-0.36984092
230	0x3f8df05f	1.108898
231	0x3e73fcf1	0.23826958
232	0x3f2f0804	0.68371606
233	0x3f16ffb8	0.58983946
234	0x3f986775	1.1906573
235	0xbebb4123	-0.36573133
236	0x3fe2f19e	1.7729986
237	0xbdae7a5b	-0.08519431
238	0x3f8577c3	1.0427173
239	0x3eb2bd65	0.34910122
240	0x3e0ab173	0.13544254
241	0x3e7c75d4	0.24654323
242	0x3fcc3127	1.59525
243	0xbf329250	-0.69754505
244	0x3f7a5e5f	0.9780025
245	0x3f19f35a	0.6013695
246	0x3fcc3ead	1.5956627
247	0x3f482433	0.78180236
248	0x3fdc194e	1.7195222
249	0xbfbcf467	-1.4762086
250	0xc02b77c8	-2.6791859
251	0x3e9ad4f9	0.3024061
252	0xbfe434d4	-1.7828622
253	0x3f91bc9f	1.1385688
254	0xbfa9f58d	-1.3278061
255	0x4035a1e4	2.838006

_orig_mod.blocks.0.attn.W_V f4 [8, 32, 4]
0	0x3e0d49d3	0.13797693
1	0x3ea4faed	0.3222269
2	0xbfe0fa22	-1.7576334
3	0xbed3b8f5	-0.4135205
4	0x3f0cadbb	0.5495259
5	0xbf93b9da	-1.1541092
6	0x3efe514a	0.49671394
7	0xbe36379b	-0.1779465
8	0x3f54c8a9	0.83118683
9	0x3f0e4f0a	0.55589354
10	0x3f30318f	0.6882562
11	0x3f0043fb	0.5010373
12	0xbd8a3eb3	-0.0675024
13	0xbfa1933e	-1.262306
14	0x3f2e529a	0.6809479
15	0xbf8ce7e3	-1.1008266
16	0x3fa6c270	1.3028088
17	0x3f1d3c8c	0.6142051
18	0xbd6cfb67	-0.057856943
19	0xbf2147cd	-0.63000184
20	0xbf10f51e	-0.5662402
21	0x3fb75d11	1.4325277
22	0x3f058e8c	0.52170634
23	0x3e346d2a	0.17619768
24	0xbf51cf2d	-0.8195675
25	0xbfc39626	-1.5280197
26	0x3e3c2db7	0.18376814
27	0x3f3dfd30	0.7421446
28	0x3f52c5a6	0.8233284
29	0x3f2bdb97	0.6713194
30	0xbfe4020e	-1.7813127
31	0xbff1adca	-1.8881161
32	0x3e982d75	0.2972218
33	0xbf0738b2	-0.52820885
34	0x401305ef	2.2972372
35	0x40002717	2.0023859
36	0xbf25a33c	-0.647022
37	0x3ef00c6e	0.46884483
38	0x3efc8c7b	0.49325928
39	0x3eac0538	0.33597732
40	0xbf73e0c9	-0.9526487
41	0xbfc7013a	-1.5547249
42	0x3ed191a7	0.40931436
43	0x3faf841b	1.371219
44	0x3eb7ee31	0.35923913
45	0x3eee2eca	0.46520072
46	0x3fa304a0	1.2735786
47	0x3f1f003a	0.6210972
48	0xbe19edd5	-0.15032132
49	0x3fda204f	1.704111
50	0x3e15b5c7	0.14620124
51	0x3efa2306	0.48854846
52	0x3f53f2f3	0.82792586
53	0xbf3fe54a	-0.7495924
54	0x3de55787	0.11198335
55	0xbeb49e15	-0.35276857
56	0x3e6fe614	0.23427612
57	0x3fc892c8	1.5669794
58	0x3f92bd09	1.1463939
59	0x3f29a39b	0.6626527
60	0x3d8ad0d4	0.06778112
61	0x3fec5da5	1.8466078
62	0xbdbf6cba	-0.0934691
63	0x3ea18768	0.3154862
64	0xbc1c6d6b	-0.009547572
65	0x3f1cc6bf	0.6124076
66	0xbf10645a	-0.56403124
67	0x401007b9	2.2504714
68	0x3f65de25	0.8979209
69	0x3d614477	0.054996934
70	0xbe25453d	-0.16139694
71	0x400ffa75	2.2496617
72	0xbf4ee3bc	-0.80816245
73	0xbe4a02c4	-0.19727618
74	0xbfbec659	-1.4904281
75	0xbfeaf2e3	-1.8355373
76	0x3ef555c0	0.47916985
77	0x3eff26e8	0.4983437
78	0x3facb967	1.349408
79	0xc008fe0d	-2.140506
80	0x3f1f6cff	0.6227569
81	0x3fa98a41	1.3245317
82	0xbfe167e1	-1.7609826
83	0x3fb4563a	1.4088814
84	0xbd9d33de	-0.076759085
85	0x3e6a1167	0.22858201
86	0x3e92fec7	0.28710005
87	0x3f7317f7	0.9495844
88	0x3e1e8c3b	0.15483181
89	0xbee782b2	-0.452169
90	0x3f40363c	0.75082755
91	0xbf8c3c93	-1.0955986
92	0x3fb9135d	1.4459034
93	0xbea9040f	-0.3301091
94	0xbee68546	-0.45023555
95	0xbf3a686b	-0.7281558
96	0x3f2ccc1d	0.6749895
97	0xbe674025	-0.22583063
98	0xbed7b2b6	-0.42128533
99	0xbe9bfd3e	-0.30466646
100	0xbf941f6d	-1.157209
101	0x3fda1b35	1.7039553
102	0x3fbacaf2	1.4593184
103	0xbd95a87c	-0.073075265
104	0xbf094282	-0.5361711
105	0x3dd1326d	0.10214696
106	0x3f19d32b	0.6008784
107	0xbd8a760d	-0.06760798
108	0xbf7b71f2	-0.9822074
109	0x3f8b14a6	1.0865676
110	0x3f4d3e89	0.80173546
111	0xbf432e95	-0.76242954
112	0xbfc622bd	-1.5479351
113	0x3da53c1e	0.08068107
114	0xbf335831	-0.70056444
115	0x3f037c14	0.51361203
116	0xbec8125e	-0.39076513
117	0xbfbc0628	-1.4689379
118	0x3f22a747	0.63536495
119	0x3f102fe1	0.5632306
120	0xbef7553a	-0.4830721
121	0x3f31dd9d	0.6947878
122	0x3fd4f4ca	1.6637204
123	0x3f07ee0a	0.53097594
124	0x3fd60e03	1.6723026
125	0x3fa63899	1.2986022
126	0x3f78731c	0.9705064
127	0x3f0eb01d	0.5573748
128	0x3f13659e	0.5757693
129	0x3f23289a	0.6373383
130	0x3e622a80	0.22086525
131	0xbf13f561	-0.57796293
132	0xbe8ff919	-0.28119734
133	0x3f1d4823	0.61438197
134	0xbe1387d7	-0.14407288
135	0xbf807418	-1.0035429
136	0x3ffe18cd	1.9851319
137	0xbf9148d3	-1.1350349
138	0x3e2fe984	0.17178923
139	0x3f9a981f	1.2077674
140	0x3b438470	0.0029833578
141	0xbef6eec5	-0.48229042
142	0xbda53099	-0.0806591
143	0x401be440	2.4358063
144	0x3e737282	0.2377415
145	0x3f6febd3	0.93719214
146	0x3fbf19a6	1.4929702
147	0xbf76b693	-0.96372336
148	0xbeb1c5dd	-0.3472127
149	0x3f3f3615	0.746919
150	0xbbf776b8	-0.007551994
151	0x3e73e531	0.23817898
152	0x3f8ee70b	1.1164259
153	0x3f662ce6	0.8991226
154	0x3f904fe6	1.1274383
155	0x3f9fcf33	1.2485107
156	0xbe20f59f	-0.15718697
157	0xbf28341e	-0.65704525
158	0xbe93622d	-0.2878584
159	0x3ef0af0b	0.47008547
160	0x3f8da33b	1.1065439
161	0xbd046246	-0.032320283
162	0xbe63a2a1	-0.22230007
163	0x3d96706a	0.0734566
164	0xbe146ebc	-0.14495367
165	0x3f88c6ac	1.068563
166	0x3f0333ff	0.51251215
167	0xbf719272	-0.9436408
168	0xbf270636	-0.6524385
169	0xc0104cff	-2.2546995
170	0x3eb9e68c	0.36308706
171	0x3fc218aa	1.5163777
172	0x3f5d6795	0.8648618
173	0xbdb7767d	-0.08958147
174	0xbeb8fbf6	-0.3612973
175	0xbe9dd910	-0.30829668
176	0xbf01e1b0	-0.50734997
177	0xbee9b028	-0.4564221
178	0xbdd795ed	-0.10526643
179	0x3f3eb7d3	0.74499243
180	0xbe4374ca	-0.1908752
181	0xbf335e80	-0.7006607
182	0xbee58075	-0.44824567
183	0x3f0b9d37	0.54536766
184	0xbee8405f	-0.4536161
185	0x3fc0c834	1.5061097
186	0xbf7c472f	-0.9854612
187	0xbd9ef086	-0.0776072
188	0xbeab0517	-0.3340232
189	0x3fdf9b33	1.7469238
190	0xbeb1598d	-0.34638634
191	0x3e16dcd6	0.1473268
192	0x3f246fee	0.6423329
193	0x3efaa331	0.4895263
194	0x3e224e40	0.15850163
195	0x3ec64e9d	0.38731852
196	0xbdad6378	-0.08466238
197	0xbfdfd1eb	-1.7485937
198	0x4052af38	3.2919445
199	0x3f725996	0.9466795
200	0xbf4becdc	-0.79658294
201	0x3f05d5c3	0.522793
202	0xbf880e96	-1.0629451
203	0x3f499d4e	0.7875565
204	0xbf2a6ba1	-0.6657048
205	0xbf9c98a1	-1.2234079
206	0x40014939	2.0200942
207	0xbf1958e9	-0.5990129
208	0xbf870fa5	-1.0551649
209	0xbf0dd1a4	-0.5539801
210	0xbf123335	-0.57109386
211	0xbf0d621a	-0.55227816
212	0xbf58f0df	-0.8474254
213	0xbf87ec21	-1.0618936
214	0xc0062411	-2.0959513
215	0xbd8b754b	-0.06809481
216	0x3e33e91b	0.17569391
217	0x3f3f8818	0.7481704
218	0x3fa8acec	1.3177772
219	0xbf0231ae	-0.50857055
220	0x3f2e8053	0.6816456
221	0x3ffc6186	1.9717262
222	0x3cd8e35e	0.026475605
223	0x3fa2f9fd	1.273254
224	0x3eda5230	0.4264083
225	0x3e2f8c6b	0.17143409
226	0x3effe9cb	0.49983057
227	0xbf8b08b9	-1.0862037
228	0xbe98606e	-0.2976107
229	0xbf4e10ca	-0.8049437
230	0x40191234	2.391736
231	0x3f92211c	1.1416354
232	0x3e528021	0.2055669
233	0xbf162ea6	-0.5866493
234	0x3fe51606	1.7897346
235	0x3e8f03a2	0.2793246
236	0x4002b325	2.042184
237	0x3f0c8056	0.54883325
238	0x3f6c59bb	0.9232442
239	0x3eef70ea	0.46765834
240	0xbf4090a5	-0.7522071
241	0x3fd00014	1.6250024
242	0x3f2919f2	0.66055214
243	0x3f28bc56	0.6591238
244	0x3f86328a	1.0484173
245	0x3ec1e439	0.37869433
246	0x3fe7dc03	1.8114017
247	0x3fb18174	1.3867631
248	0xbf21d51c	-0.63215804
249	0x3f2c7e9b	0.67380685
250	0x3e13ad41	0.1442156
251	0xbe9df336	-0.30849618
252	0x400448fe	2.066955
253	0xbf0d74b4	-0.552562
254	0x3f5bfbf8	0.8593135
255	0x3fb397e0	1.4030724

_orig_mod.blocks.0.attn.W_O f4 [8, 4, 32]
0	0x3ec132ae	0.37733978
1	0x3f8a39e2	1.0798914
2	0x3f9281ce	1.1445863
3	0x3fac82e7	1.3477448
4	0x3e9633d3	0.29336414
5	0x400539b8	2.0816479
6	0x3f1bf922	0.6092702
7	0x3ff4acef	1.9115275
8	0xbe460f3e	-0.19341752
9	0xbf3782e1	-0.7168408
10	0xbe21ca75	-0.15799887
11	0x3fbdf0c5	1.4839102
12	0x3eadfcdb	0.33981976
13	0x3f6bbcd1	0.92084986
14	0xbf00a839	-0.5025669
15	0x3e04a4b3	0.12953453
16	0x3e84eb8f	0.25960967
17	0x3fb632c8	1.4234247
18	0x3fa7f857	1.3122662
19	0xbf39b554	-0.7254231
20	0xbd42899c	-0.047494516
21	0x3f4da6ba	0.8033253
22	0x3fb14f97	1.3852414
23	0x3f8170c1	1.0112535
24	0x3f312dd0	0.6921053
25	0x3f4f3c04	0.8095095
26	0x3e25ec4c	0.16203421
27	0xbefadce1	-0.48996642
28	0x3fad044d	1.3516937
29	0x3f04332f	0.516406
30	0x3f676bf7	0.90399116
31	0x3e145222	0.14484456
32	0xbf52f914	-0.82411313
33	0x3e5245d1	0.20534445
34	0xbe3b9ff3	-0.18322735
35	0x3f8db85a	1.1071885
36	0xbf55407a	-0.8330151
37	0xbed97ec7	-0.42479536
38	0x3deda660	0.11603999
39	0x3f713ad1	0.9423037
40	0xbf91b1a1	-1.1382333
41	0x3e23cf94	0.15997154
42	0x3fbb92d2	1.4654181
43	0x3f27ef9a	0.6559998
44	0x3f494db3	0.78634185
45	0xbfab054c	-1.3360991
46	0xbe3d94a2	-0.1851373
47	0xbe2b8c46	-0.16752729
48	0x3f487cca	0.78315413
49	0xbf9d1f76	-1.2275226
50	0x3ee914a1	0.4552355
51	0xbfe9a6a1	-1.8253976
52	0x4006ce3e	2.106338
53	0xbf501715	-0.8128522
54	0xbe71da87	-0.23618518
55	0xbe09c39b	-0.13453524
56	0x3fd7163f	1.6803664
57	0x3e28d330	0.16486812
58	0x3f80c07d	1.0058743
59	0x3f1f7a6c	0.62296176
60	0xbe82dfc0	-0.25561333
61	0x3edd0ce5	0.431739
62	0x3fad128a	1.3521283
63	0x3dee00b7	0.1162123
64	0x3f8a05b8	1.0782995
65	0x3ee47840	0.44622993
66	0x3fc160b4	1.5107636
67	0x404df0bb	3.217818
68	0x4020b704	2.5111704
69	0x3ff4d50a	1.9127514
70	0x3e5b269a	0.21401444
71	0xbf973b2e	-1.1814935
72	0x3f4b5e68	0.7944093
73	0xbd9ba0b9	-0.07599015
74	0xbfc61378	-1.5474691
75	0x3fc55864	1.54176
76	0x3ff839d5	1.9392649
77	0x3fb43008	1.4077158
78	0x3eb74638	0.3579576
79	0x3e02cf90	0.12774491
80	0xbdbb6295	-0.091496624
81	0xbd19c5db	-0.037542205
82	0xbe88fa05	-0.2675325
83	0x4006eee6	2.1083312
84	0xbe0c15cc	-0.1368019
85	0x3fb3a89d	1.4035832
86	0xbe866717	-0.26250526
87	0xbfbc95db	-1.4733232
88	0x3eb41401	0.35171512
89	0x3d9dcb4f	0.07704794
90	0x3e79fefd	0.24413677
91	0x3f7a4960	0.9776821
92	0x3fa41fa9	1.2822162
93	0x3eafa246	0.34303492
94	0x3e3a3357	0.18183647
95	0xbea6f750	-0.3261056
96	0x3f9f97df	1.2468222
97	0xbfacc0c1	-1.3496324
98	0x3e8589f6	0.26081818
99	0x3e75eeb0	0.24016833
100	0xbf1dc9c6	-0.61636007
101	0xbf04e76b	-0.51915616
102	0x3ea63f9f	0.32470414
103	0x3ff85ad8	1.9402723
104	0x3fe48bd4	1.7855172
105	0x3fa9c44a	1.3263028
106	0x3f69ea77	0.9137339
107	0x3bec27af	0.007206879
108	0x3f5d1a74	0.8636849
109	0xbf93765a	-1.1520493
110	0xbedf06ec	-0.43559968
111	0xbe93710c	-0.28797185
112	0x3fed2038	1.8525457
113	0xbd440ac5	-0.047861833
114	0x3dddb155	0.10824839
115	0xc0348abe	-2.8209682
116	0x3e0a4994	0.1350463
117	0x3ff2a4a0	1.895649
118	0xbf289ac2	-0.6586114
119	0x3f6ab1d8	0.9167762
120	0x3f102933	0.56312865
121	0xbe064adb	-0.13114493
122	0x4003a221	2.0567706
123	0xbe3cf72f	-0.18453668
124	0x3f22902e	0.6350125
125	0x3fd0c0f9	1.630889
126	0x40187655	2.3822224
127	0x3fe983aa	1.8243306
128	0xbe06a048	-0.1314708
129	0xbfef01d6	-1.8672435
130	0x3eef7139	0.4676607
131	0x3fafb45e	1.3726919
132	0x3ec62862	0.38702685
133	0x3f7128bf	0.942028
134	0x3f252547	0.64510006
135	0xbc8b2509	-0.016985433
136	0xbdbcb1be	-0.09213589
137	0x3eb88117	0.36035988
138	0x3f154336	0.5830568
139	0x3f2eea18	0.6832595
140	0xbf3aa028	-0.7290063
141	0x3fb2b3db	1.3961138
142	0x3f91410f	1.1347979
143	0x3f392c12	0.7233287
144	0x3f3dee76	0.7419199
145	0xbebaa5d8	-0.36454654
146	0x40078770	2.1176414
147	0x3eaa97d3	0.33318958
148	0x3d5d4bd8	0.05402741
149	0xbe9d3bbb	-0.30709633
150	0xbeee35ab	-0.4652532
151	0x3db4ade7	0.08822232
152	0xc01c39d9	-2.4410307
153	0xbe28c513	-0.16481428
154	0x3e380df6	0.17974076
155	0x3eb4fa04	0.35346997
156	0x3f7544fd	0.9580839
157	0x3f78265d	0.9693354
158	0x3fa877aa	1.3161519
159	0x3fbe6b92	1.4876578
160	0x404ff6f0	3.2494469
161	0x3e548ced	0.20756884
162	0x3f20ffff	0.6289062
163	0x3efec56c	0.49759996
164	0xbf515863	-0.8177549
165	0x40254551	2.5823557
166	0x3fa1d936	1.2644413
167	0xc002d36c	-2.0441542
168	0xbfbe7979	-1.488082
169	0x3f37cd99	0.7179809
170	0x3f7bce6d	0.98361856
171	0x3eb2b800	0.34906006
172	0x3f0dfc10	0.5546274
173	0x3ed69ab6	0.4191491
174	0x3e1a4250	0.15064359
175	0x3fc4bd3b	1.5370249
176	0xbf208a63	-0.6271116
177	0xbdcce549	-0.1000467
178	0x4070c07d	3.7617486
179	0x3ef92700	0.48662567
180	0x3ec7237b	0.38894257
181	0x3f0ee3df	0.55816454
182	0xc007d8a9	-2.122599
183	0x3fbe3a67	1.4861573
184	0x3f742946	0.9537548
185	0x401161bb	2.27159
186	0xbf99919d	-1.1997563
187	0xbda33367	-0.079687886
188	0x3f714258	0.9424186
189	0xbeeec33f	-0.46633336
190	0x3f870a38	1.0549994
191	0xbf2660b6	-0.6499132
192	0x3fed4509	1.8536693
193	0x3e7f7544	0.24947077
194	0xbfac8599	-1.3478271
195	0x3f7c7eef	0.98631185
196	0x3d8fa384	0.0701361
197	0xbf8f4336	-1.1192386
198	0x3d2319ca	0.039819516
199	0x3e44857b	0.19191544
200	0xbf30f034	-0.6911652
201	0xbe47c387	-0.19508182
202	0x3f20b202	0.6277162
203	0xbe465c46	-0.19371137
204	0xbfcc1f45	-1.5947043
205	0x3f02d969	0.5111299
206	0x3fd581ce	1.6680238
207	0x3f33f9c3	0.7030298
208	0xbf9e0d18	-1.2347746
209	0x3f8643a0	1.0489388
210	0x3fe57124	1.7925153
211	0xbc962562	-0.018328372
212	0x3eea328e	0.45741695
213	0x3e9074b7	0.28214046
214	0xbf4d3c11	-0.8016978
215	0xbe46a416	-0.19398531
216	0xbf8295af	-1.020193
217	0x3f1c1f7c	0.6098554
218	0x3f169201	0.58816534
219	0x3f137c61	0.5761166
220	0x3feb1bb1	1.8367826
221	0xbf279f5e	-0.6547755
222	0x404b98a6	3.181192
223	0xbf6e50d5	-0.9309209
224	0xbf648266	-0.8926147
225	0x3f175068	0.59107065
226	0xbe396e78	-0.18108547
227	0xbdfb9fbc	-0.12286326
228	0xbb84495b	-0.004037065
229	0x3facac14	1.3490014
230	0x3f8ceb28	1.1009264
231	0x3f228845	0.6348918
232	0x3f779c48	0.9672284
233	0x3da9df57	0.08294552
234	0xbf5e5931	-0.86854845
235	0xc00be75b	-2.1859958
236	0x3f2ed407	0.6829228
237	0xbf57be35	-0.8427461
238	0xbf971998	-1.1804686
239	0x3d1d64de	0.038426273
240	0x3faee7df	1.3664511
241	0xbf67c6e3	-0.9053785
242	0x3f95a8cc	1.1692138
243	0x3f0f7361	0.5603543
244	0x3e3597c4	0.17733675
245	0xbcc6dcbb	-0.024275174
246	0x3e502461	0.20326377
247	0x3efd71cd	0.49500886
248	0x3fcaf7f4	1.5856919
249	0xbf820b92	-1.0159781
250	0x3f9d1616	1.2272365
251	0xbf1cc84f	-0.61243147
252	0xbefb13bf	-0.49038503
253	0x3f36b934	0.7137635
254	0xbf005ef1	-0.5014487
255	0xbf7f9ad4	-0.99845624

_orig_mod.blocks.0.attn.b_Q f4 [8, 4]
0	0x3a883198	0.0010390757
1	0x3acba732	0.0015537499
2	0x3ae42d21	0.0017408469
3	0x39776e03	0.00023596738
4	0x3ac2ca18	0.0014861254
5	0x3b53c384	0.0032312581
6	0xb9f970fe	-0.00047577167
7	0x3b054f19	0.0020341335
8	0x3a5e34b7	0.0008476483
9	0xbb0b6480	-0.002126962
10	0x3b337a36	0.0027386076
11	0xb9de855b	-0.00042442497
12	0xbb184246	-0.0023232861
13	0x3b48f347	0.0030662583
14	0x3b3d3c89	0.0028875193
15	0xba70591f	-0.00091685535
16	0xbaddab4f	-0.0016912016
17	0x39e9273a	0.0004447045
18	0x3ad618c4	0.0016334285
19	0x3a988adb	0.0011638062
20	0x3ac26853	0.0014832116
21	0xbaa4316b	-0.0012526935
22	0x3b15ea5b	0.0022875282
23	0xbaf282af	-0.0018502082
24	0x3ac42854	0.0014965632
25	0xbb54d3e7	-0.0032474936
26	0xbb426425	-0.0029661742
27	0x3925dbf2	0.00015817562
28	0x39f0c41d	0.00045922483
29	0xba5400bf	-0.00080872694
30	0x3b216813	0.0024628683
31	0x3b01393d	0.0019717955

_orig_mod.blocks.0.attn.b_K f4 [8, 4]
0	0xbabef6b7	-0.0014569376
1	0xba7a283c	-0.00095427386
2	0x39f47df0	0.00046633137
3	0xbb04ebaa	-0.0020282068
4	0xb8a4b2fc	-7.853468e-05
5	0xba891b6f	-0.0010460446
6	0xb69632b5	-4.4762514e-06
7	0xbaaab710	-0.0013024528
8	0xba349276	-0.00068882795
9	0x3b80d091	0.003931113
10	0xbb50ff8e	-0.0031890604
11	0xbb0b533f	-0.0021259335
12	0xbb5b2455	-0.0033438404
13	0x399b2803	0.00029593715
14	0xbb280109	-0.0025635383
15	0xba168e6a	-0.0005743267
16	0xba59acbc	-0.00083036325
17	0x3ab7e64b	0.0014030425
18	0x3ad6a4a9	0.0016375977
19	0xba572616	-0.00082072744
20	0x3a50223d	0.0007939672
21	0xba56bbd8	-0.0008191443
22	0x3b285677	0.0025686303
23	0x3b914c3c	0.0044341367
24	0xba88e609	-0.0010444532
25	0xbab58394	-0.0013848417
26	0x3a04fbca	0.000507292
27	0xbaf2f581	-0.0018536301
28	0x3ab2c030	0.0013637599
29	0x3b30c3dc	0.002697221
30	0x3ae8c19e	0.0017757898
31	0x3b13896d	0.0022512332

_orig_mod.blocks.0.attn.b_V f4 [8, 4]
0	0xbba97660	-0.005171582
1	0xbb28eb78	-0.0025775116
2	0xbaa0a2d1	-0.0012255554
3	0xb9555601	-0.00020345302
4	0x3b01b2b8	0.0019790363
5	0xba61539e	-0.0008595529
6	0xba855962	-0.0010173733
7	0xba0823dd	-0.00051933323
8	0xba4a8af2	-0.0007726393
9	0x3a1a811c	0.00058938726
10	0xbb5718d6	-0.00328212
11	0xbb871e3d	-0.0041234777
12	0xba601e88	-0.00085494714
13	0xbb19720f	-0.0023413931
14	0xbb35fcf2	-0.0027769175
15	0xba38d17e	-0.000705026
16	0xbb9b8d01	-0.0047470336
17	0xbab7fcdc	-0.001403715
18	0xbb893ce9	-0.0041881693
19	0xbb5f7697	-0.0034097785
20	0xba8011ef	-0.000977097
21	0x3ad14476	0.0015965838
22	0xb8adb6a6	-8.283304e-05
23	0xbad94f1b	-0.0016579361
24	0xbac437fa	-0.0014970296
25	0xb9aa9780	-0.00032537803
26	0xbb188e69	-0.0023278242
27	0x3aaa892c	0.0013010851
28	0xbb2653b2	-0.0025379476
29	0xbb913ba3	-0.004432158
30	0xbb126146	-0.0022335812
31	0xbb03e342	-0.002012447

_orig_mod.blocks.0.attn.b_O f4 [32]
0	0xba0d4012	-0.00053882704
1	0xbb5f1428	-0.0034039114
2	0xb9af7cad	-0.00033471492
3	0xbaf326a0	-0.001855094
4	0x3b4c8ce2	0.0031211902
5	0x3ae1d77c	0.0017230357
6	0xbba68a93	-0.0050824373
7	0xbb149f53	-0.0022677972
8	0xba1e252a	-0.00060327596
9	0x3b863ec4	0.0040968377
10	0xba825e65	-0.0009946345
11	0xbb355b44	-0.0027672807
12	0xba873065	-0.0010314105
13	0xba5249a3	-0.0008021837
14	0x3b49fe1c	0.0030821627
15	0xbb2a3157	-0.002596935
16	0x39d48e32	0.00040541735
17	0xba6ab315	-0.0008953077
18	0x3a9fe1a4	0.0012197983
19	0x3ad081e3	0.001590785
20	0xbaca552a	-0.0015436758
21	0x39b4f30a	0.00034513354
22	0x3b67921d	0.0035334893
23	0xbac4fab3	-0.0015028327
24	0x3a526a68	0.000802672
25	0x3b01f047	0.0019827054
26	0x3940e7bc	0.00018396875
27	0xba4a9780	-0.0007728264
28	0xbb14de4f	-0.0022715514
29	0xba4ee01d	-0.0007891672
30	0xb92f295b	-0.00016704707
31	0xba5fea1e	-0.0008541661
