experiments/20251102_022158/model.pt (torch, 231044 bytes, 53 tensors)

registers f4 [1, 32]
0	0x3dfc90b7	0.1233229
1	0x3f139c79	0.57660633
2	0x3e4cd514	0.20003158
3	0xbe5e4bf2	-0.21708658
4	0xbe78aaa7	-0.24283849
5	0xbe632f7e	-0.22186086
6	0xbe4e6f5c	-0.20159668
7	0x3ed6e5dc	0.41972244
8	0xbec01ef7	-0.37523624
9	0xbeeae4ad	-0.4587759
10	0x3e80327b	0.25038514
11	0xbd15157f	-0.036397453
12	0xbdc55066	-0.096344754
13	0x3d8a6a54	0.06758562
14	0xbef1d330	-0.47231436
15	0xbec74a7d	-0.38924018
16	0xbe39a1aa	-0.18128076
17	0x3f08b6cb	0.5340392
18	0x3d245c08	0.04012683
19	0x3ea0dfc1	0.3142071
20	0x3e2c7cfc	0.16844553
21	0xbe53c49c	-0.2068047
22	0x3f4d0afe	0.800949
23	0x3ead6ece	0.338736
24	0x3f15c278	0.5849986
25	0x3e8c57ae	0.27410644
26	0xbd9bd1fc	-0.07608411
27	0x3f2e26b0	0.6802778
28	0x3e624004	0.22094733
29	0xbeb7c1cf	-0.35890052
30	0x3f7113c8	0.9417081
31	0xbefc0221	-0.49220374

pe_grid f4 [36, 32]
0	0xbc5b445f	-0.013383
1	0x3e2e5543	0.17024712
2	0xbd8092d9	-0.06278009
3	0xbe8b8217	-0.27247688
4	0xbe04ad2b	-0.12956683
5	0xbe17f471	-0.14839341
6	0xbeb04c14	-0.34433043
7	0xbe79e540	-0.24403858
8	0xbec24a1b	-0.37947163
9	0x3ea64f3e	0.32482332
10	0x3d95157e	0.0727949
11	0x3f630b4b	0.88689107
12	0xbe7867ed	-0.24258395
13	0x3f209deb	0.62740964
14	0xbe8e7397	-0.27822563
15	0x3dff78cd	0.12474213
16	0xbe2795a5	-0.16365679
17	0xbf18e937	-0.5973086
18	0xbe8a121e	-0.26966947
19	0x3da24a6f	0.07924353
20	0x3ee416f5	0.44548765
21	0x3e8ca59f	0.2747011
22	0x3e0609c9	0.1308967
23	0x3df69b11	0.12041295
24	0x3ef16543	0.4714757
25	0x3e7c9051	0.24664427
26	0xbf0d532c	-0.55205035
27	0xbda24649	-0.07923562
28	0x3e106593	0.14101247
29	0xbeb2d494	-0.3492781
30	0x3e8ce868	0.27521062
31	0x3cc967d4	0.024585642
32	0xbf3209d3	-0.6954624
33	0xbeaef5b2	-0.34171826
34	0xbd6b697f	-0.057473656
35	0xbe1eb993	-0.15500478
36	0x3ddfa467	0.10920029
37	0xbce6f69d	-0.028193766
38	0x3ecb0383	0.39651117
39	0xbd5f543b	-0.054523688
40	0x3e8fb6f2	0.28069264
41	0x3e47edae	0.19524261
42	0xbea0c97a	-0.31403714
43	0x3db415a5	0.08793191
44	0xbe02360c	-0.1271593
45	0xbe8e599a	-0.27802736
46	0x3e268fc1	0.16265775
47	0x3ee5797b	0.44819245
48	0xbee1247c	-0.43973148
49	0x3ccf323b	0.025292506
50	0x3f2d405b	0.67676324
51	0x3f29c248	0.66312075
52	0xbeaa9740	-0.3331852
53	0x3db686b5	0.08912412
54	0x3f57fd92	0.8437129
55	0x3f08d1eb	0.5344531
56	0x3efe7aa0	0.4970293
57	0x3f1738ef	0.5907125
58	0xbf210df0	-0.6291189
59	0x3f34545b	0.70441216
60	0xbf2e180f	-0.6800546
61	0xbea87c50	-0.32907343
62	0x3ed42a9a	0.41438752
63	0xbeaf639e	-0.3425569
64	0xbef77137	-0.48328564
65	0x3e45c214	0.19312316
66	0x3ed1d38e	0.40981716
67	0xbd830620	-0.063976526
68	0x3f438819	0.76379544
69	0xbc859ff2	-0.01631162
70	0x3ed14672	0.40874058
71	0x3eea8200	0.45802307
72	0x3d5b3e18	0.053526014
73	0x3cd9a495	0.026567737
74	0x3ee6b6c6	0.4506132
75	0x3f56eabc	0.83951926
76	0xbe95a6ae	-0.2922873
77	0xbedbed5e	-0.42954534
78	0x3f53da9f	0.82755464
79	0x3f35ffac	0.7109325
80	0xbe6a7386	-0.22895631
81	0x3f03e3d1	0.51519495
82	0xbeeef6fe	-0.46672815
83	0xbe3f94c1	-0.18709089
84	0xbf04e382	-0.5190965
85	0xbe2a92b2	-0.16657522
86	0x3e3da65f	0.18520497
87	0xbe97655a	-0.29569513
88	0x3b07b319	0.0020706116
89	0x3e334b4e	0.17509195
90	0x3f6e9485	0.9319537
91	0x3e2d4e90	0.169245
92	0xbda6ab27	-0.081381135
93	0xbd1830d8	-0.037155956
94	0x3e8c4822	0.27398783
95	0xbe70d456	-0.235185
96	0xbcec59dc	-0.028851442
97	0x3f5bc537	0.858478
98	0x3d95a647	0.073071055
99	0xbea29f9e	-0.31762403
100	0x3f170d68	0.5900483
101	0xbe816582	-0.25272757
102	0x3e3d797f	0.18503378
103	0xbf8a1861	-1.078869
104	0xbe9900a7	-0.2988331
105	0xbf15af9b	-0.5847108
106	0x3ed07409	0.40713528
107	0x3ee0f4e8	0.4393685
108	0x3f275662	0.65366185
109	0xbeac1f33	-0.33617553
110	0x3db8d39e	0.09024738
111	0xbbafde8a	-0.005367105
112	0xbe718e9e	-0.2358956
113	0xbe5ab2c0	-0.2135725
114	0xbe27fc4f	-0.16404842
115	0x3eba30ad	0.36365262
116	0xbeddbad5	-0.43306604
117	0x3c271197	0.010197065
118	0xbe67783c	-0.2260446
119	0x3f0e2b43	0.5553476
120	0xb81c324c	-3.724014e-05
121	0x3ea7f558	0.3280437
122	0xbe773966	-0.2414299
123	0x3f04a795	0.5181821
124	0xbe9f8532	-0.31156307
125	0x3f0e913b	0.55690354
126	0xbec5468a	-0.3853038
127	0x3d7f5d7d	0.062345017
128	0xbeb03a82	-0.34419638
129	0xbfa3d327	-1.2798814
130	0x3f503bb6	0.8134111
131	0xbe1575a2	-0.14595655
132	0xbd5fd809	-0.054649387
133	0x3dad3294	0.08456913
134	0x3f99cd19	1.2015716
135	0x3eb78409	0.35842922
136	0xbe7564c5	-0.23964222
137	0xbe6edb34	-0.23325807
138	0xbdf0a5db	-0.117503844
139	0x3eb694a0	0.35660267
140	0x3e9dcff7	0.30822727
141	0xbdc87828	-0.09788543
142	0xbec5a74b	-0.38604197
143	0x3f40f637	0.75375694
144	0xbd4f298f	-0.050576743
145	0xba93b903	-0.0011270348
146	0x3e1dc73d	0.15408035
147	0xbe954d22	-0.2916041
148	0x3db60d53	0.0888926
149	0x3ce8e607	0.028429998
150	0xbe5184ee	-0.20460865
151	0x3e884d0d	0.26621285
152	0x3f7bea5e	0.9840449
153	0x3e93c078	0.2885778
154	0x3eb9f997	0.36323234
155	0x3d01b48d	0.031666327
156	0xbf2ce7e6	-0.6754135
157	0xbcc6f856	-0.024288338
158	0x3f0d240b	0.5513312
159	0x3eb3bf35	0.35106817
160	0xbe88de8c	-0.2673229
161	0xbe4e3ab4	-0.20139581
162	0x3e8c797f	0.27436444
163	0xbdac6c75	-0.08419124
164	0x3e6e61b7	0.23279463
165	0x3ddca164	0.1077297
166	0x3ea9da04	0.33174145
167	0xbdef962f	-0.11698567
168	0x3dd786dc	0.10523769
169	0xbea8d2b9	-0.3297327
170	0xbe4fa761	-0.20278694
171	0x3e269289	0.16266836
172	0x3e867873	0.2626377
173	0xbea7a0c4	-0.32739842
174	0xbe0522b4	-0.1300152
175	0x3f2852c3	0.65751284
176	0x3cff2048	0.031143323
177	0x3e8d2d17	0.27573463
178	0xbd9b9aa4	-0.07597855
179	0x3dfb60ad	0.12274299
180	0xbee0158b	-0.43766436
181	0x3f0a5fc0	0.5405235
182	0xbd28acfb	-0.041180592
183	0xbcfb689e	-0.030689534
184	0x3e449202	0.19196323
185	0x3e7b903f	0.24566744
186	0xbec24f77	-0.37951252
187	0xbe5bb619	-0.21456183
188	0xbe0da1e9	-0.13831295
189	0xbe9202f2	-0.28517872
190	0x3ebcf057	0.36902115
191	0xbe55a7b3	-0.20864753
192	0xbe4b3019	-0.19842567
193	0x3e7be3f1	0.24598671
194	0xbf3ea379	-0.7446819
195	0xbdab6c23	-0.08370235
196	0x3f649fe3	0.8930647
197	0x3e6308d2	0.22171333
198	0xbe71d7b1	-0.23617436
199	0xbf0ac8e4	-0.54212785
200	0x3f484d8c	0.7824333
201	0xbe217da7	-0.15770589
202	0x3e5b089c	0.21390003
203	0xbeeb4afe	-0.45955652
204	0x3ecb57ea	0.3971551
205	0x3f2db6c7	0.6785702
206	0x3eb0f6f0	0.34563398
207	0x3faf9718	1.3717985
208	0x3deff9f0	0.11717594
209	0xbeff360f	-0.4984593
210	0x3e4c819c	0.19971317
211	0x3ed66bd3	0.41879138
212	0xbf33bf66	-0.70213926
213	0x3dff27f6	0.12458794
214	0x3d67f1a8	0.056626946
215	0x3ebe6fe1	0.37194732
216	0x3f375eac	0.7162883
217	0x3eb432eb	0.35195097
218	0xbe60ee0d	-0.21965809
219	0x3deccc94	0.11562458
220	0x3da3ec0e	0.08004008
221	0x3efcb6bb	0.49358162
222	0xbf472821	-0.77795607
223	0xbeaeb9b1	-0.34126046
224	0xbf84953a	-1.035804
225	0x3e2a2e50	0.1661923
226	0xbdfa349e	-0.12217067
227	0x3f0f4e22	0.55978596
228	0x3e1c801f	0.1528325
229	0xbe4119e9	-0.1885754
230	0xbed4ba9b	-0.4154862
231	0xbf1d7b90	-0.61516666
232	0x3ef356c4	0.47527134
233	0x3ea400eb	0.3203195
234	0xbcdadf60	-0.026717842
235	0xbdc695cd	-0.09696541
236	0xbf4bd4d5	-0.7962163
237	0x3b854666	0.00406723
238	0x3de05444	0.109535724
239	0x3f77f6c4	0.9686091
240	0xbf277bdf	-0.6542339
241	0x3d3d644f	0.04623824
242	0x3eb1d7b3	0.34734878
243	0x3eb5b6cf	0.35491034
244	0xbee24b8d	-0.44198266
245	0xbdb3858b	-0.08765706
246	0x3eff88e3	0.49909124
247	0xbc0dc36c	-0.008652549
248	0x3ec32d8f	0.38120696
249	0x3e77bedc	0.24193901
250	0x3e9b9359	0.30385855
251	0xbf051841	-0.51990134
252	0x3d6cc8fa	0.057808854
253	0x3e1df729	0.15426315
254	0x3f5a1cdc	0.85200286
255	0xbe334bd0	-0.17509389

pe_frames f4 [5, 32]
0	0xbdb9ac39	-0.09066052
1	0x3deb2747	0.11482101
2	0xbc70a17b	-0.014686937
3	0x3c3be34a	0.011467764
4	0x3e231778	0.15926921
5	0x3d2f2366	0.042758368
6	0x3d74ad44	0.05973555
7	0xbe0ec4ee	-0.1394231
8	0xbe25fc59	-0.16209544
9	0x3d5ef55d	0.054433215
10	0xbe073eb5	-0.13207515
11	0x3e282069	0.16418613
12	0x3dbf0cc9	0.093286105
13	0x3c60c2a5	0.013718282
14	0xbce5ea9d	-0.028065974
15	0xbe02b3b9	-0.12763871
16	0x3e52c04c	0.20581168
17	0x3e2f2372	0.17103365
18	0xbe0f034d	-0.13966103
19	0xbeb11f75	-0.34594312
20	0x3ebae615	0.36503664
21	0x3e68e477	0.22743402
22	0x3bc05a6d	0.0058701546
23	0xbd9b494b	-0.07582339
24	0xbda71240	-0.08157778
25	0x3cc5fbd2	0.024167929
26	0x3dc133a5	0.094336785
27	0x3e027b92	0.12742451
28	0x3e374b97	0.17899929
29	0x3e4c957d	0.199789
30	0xbe544350	-0.20728803
31	0xbe00eda7	-0.12590657
32	0x3e3a1e00	0.18175507
33	0x3d9c236b	0.07623943
34	0x3da93cda	0.0826356
35	0x3e31b455	0.17353947
36	0x3debd759	0.11515684
37	0xbe1b1e11	-0.15148188
38	0x3e3b244d	0.18275566
39	0x3e83960b	0.2570041
40	0xbd0692b8	-0.032854766
41	0xbe8729c4	-0.26399052
42	0x3e844790	0.25835848
43	0xbcd5f8bc	-0.026119582
44	0xbe23c22f	-0.15992044
45	0x3e23a307	0.15980159
46	0x3ba79296	0.00511391
47	0x3e16a47f	0.14711188
48	0x3e1b234e	0.15150186
49	0xbdb8ccc5	-0.09023432
50	0xbe8fe699	-0.2810562
51	0xbe886083	-0.26636133
52	0xbbfcb6a2	-0.007712201
53	0xbdd1ba99	-0.10240669
54	0x3e050bba	0.12992755
55	0xbdc7fa40	-0.09764528
56	0xbe8cab05	-0.27474228
57	0xbce4af44	-0.027915604
58	0xbc03d036	-0.008045247
59	0x3dd4fc11	0.1039964
60	0x3d94e873	0.07270899
61	0xbd89c9d6	-0.0672795
62	0xbe9fa579	-0.31180933
63	0x3d95abad	0.07308135
64	0x3e892852	0.26788574
65	0xbe939390	-0.2882352
66	0x3e89fc97	0.26950523
67	0x3e30cf2f	0.17266534
68	0x3e2180f1	0.15771843
69	0xbc94c851	-0.018161925
70	0xbe721822	-0.23642018
71	0xbb9e45f9	-0.0048301187
72	0xbd856fa0	-0.065154314
73	0x3e0f6e62	0.14006951
74	0x3e058b8e	0.13041517
75	0x3ea0c1c2	0.31397825
76	0x3d4bf9fe	0.049798958
77	0xbcbfbd10	-0.023405582
78	0xbe37ffbf	-0.17968653
79	0x3d61bc57	0.055111255
80	0xbe51e16c	-0.20496148
81	0x3d87f96c	0.0663937
82	0xbdec3442	-0.11533405
83	0x3e28652b	0.16444843
84	0x3de3dc72	0.11126031
85	0x3ea5f8db	0.32416424
86	0x3d4840b2	0.048889823
87	0xbe159d23	-0.14610724
88	0xbe56350a	-0.2091867
89	0x3dfe148d	0.124062635
90	0x3e08843a	0.1333169
91	0x3dbd5e34	0.092464834
92	0x3d942eee	0.07235514
93	0xbdd11fde	-0.10211156
94	0xbe493866	-0.1965042
95	0x3e4d4245	0.20044811
96	0xbe09ebd0	-0.13468862
97	0x3e9cf974	0.30659068
98	0x3eb15429	0.34634522
99	0x3d8aa9de	0.06770681
100	0xbe6e0386	-0.23243532
101	0x3e9a49f5	0.3013455
102	0x3dcb69d6	0.09932296
103	0x3e85c73c	0.26128566
104	0x3e1153de	0.14192149
105	0xbe30be6f	-0.17260145
106	0xbd5391fa	-0.051652886
107	0xbe0a6000	-0.13513184
108	0x3e972931	0.29523614
109	0xbca9a40f	-0.020708112
110	0xbe759323	-0.2398191
111	0xbbd99713	-0.006640324
112	0x3d9bf25b	0.07614585
113	0xbe418e8f	-0.18902038
114	0x3e03ad55	0.1285909
115	0xbc2be4e3	-0.010491583
116	0x3e814082	0.25244528
117	0x3b9bd8a8	0.004756052
118	0x3e13a7df	0.14419506
119	0xbde7b4c5	-0.11313776
120	0x3ceefdb8	0.029173717
121	0x3e8241c9	0.25440815
122	0xbe0265b7	-0.12734114
123	0x3d2c7536	0.04210397
124	0xbe544654	-0.20729953
125	0x3e2aebdb	0.16691534
126	0xbec1b408	-0.37832665
127	0x3e0d66fb	0.13808815
128	0xbe2d71c8	-0.16937935
129	0xbbf0fd63	-0.007354425
130	0x3e7dd4ac	0.24788159
131	0xbe7ede0f	-0.24889396
132	0xbd1c2976	-0.038125478
133	0x3ee2582a	0.4420789
134	0x3e8153d4	0.25259268
135	0xbe20ea61	-0.15714408
136	0xbd563682	-0.052298076
137	0x3e55063a	0.20803156
138	0x3dcf763d	0.10129974
139	0xbd568847	-0.052376058
140	0x3bf2e5b1	0.0074126353
141	0xbea4b1ec	-0.32166994
142	0x3df77855	0.120834984
143	0x3ecc8372	0.39944035
144	0x3ea33be0	0.31881618
145	0xbe5afa80	-0.2138462
146	0xbe8cffe3	-0.27538976
147	0xbe073e4c	-0.13207358
148	0x3e3d5618	0.18489873
149	0x3e94be04	0.2905122
150	0x3e2f6ad4	0.17130595
151	0x3bd46c19	0.006482613
152	0x3e93460b	0.28764376
153	0x3da0840c	0.07837686
154	0xbe2c0ca9	-0.16801704
155	0x3dfbcaed	0.122945644
156	0xbe825958	-0.2545879
157	0x3bf6c126	0.0075303493
158	0xbbe4402c	-0.0069656577
159	0xbe6fb143	-0.23407464

blocks.0.norm1.fc.weight f4 [64, 32]
0	0x3de25b14	0.11052528
1	0xbe797a63	-0.24363093
2	0xbd72271d	-0.059119333
3	0x3d73f4dc	0.059559688
4	0xbe000822	-0.12503102
5	0xbd0024f2	-0.031285234
6	0xbddeccf6	-0.10878937
7	0x3f0ffd77	0.5624613
8	0xbeca6a76	-0.39534348
9	0x3e27fc32	0.16404799
10	0x3f02b57a	0.5105816
11	0x3f4c3c7b	0.79779786
12	0xbe2e54bc	-0.17024511
13	0xbde0239f	-0.10944294
14	0x3e87c267	0.26515505
15	0xbedd8465	-0.43265072
16	0x3e5c308b	0.21502893
17	0x3e73e84d	0.23819084
18	0xbda34857	-0.07972782
19	0xbe3240dc	-0.17407554
20	0xbe8c3c91	-0.27389959
21	0xbe6d1ae6	-0.23154792
22	0x3ee1b2f6	0.4408185
23	0xbecf669f	-0.4050798
24	0x3c00f54a	0.0078709815
25	0xbd8706d9	-0.06593103
26	0x3af975f9	0.0019032351
27	0xbecfcde3	-0.40586767
28	0xbdb728fc	-0.08943364
29	0xbe4f95f9	-0.20272054
30	0x3f2681ed	0.65042
31	0xbe86b27b	-0.26308045
32	0xbf526841	-0.8219033
33	0x3f447999	0.76748043
34	0xbdc28807	-0.094986014
35	0x3eba9284	0.36439908
36	0x3eaa5384	0.33266842
37	0xbe813c88	-0.25241494
38	0xbe669848	-0.22519028
39	0xbf12f3ee	-0.5740346
40	0x3f54caec	0.83122134
41	0x3e41d923	0.18930487
42	0x3df49119	0.11941738
43	0xbdeb11bf	-0.11477994
44	0x3e76e27d	0.24109836
45	0x3e4bc769	0.19900288
46	0x3ee4aba4	0.446622
47	0xbdea9fde	-0.114562735
48	0x3e2936a8	0.16524756
49	0x3ec37349	0.38173893
50	0x3de96b39	0.11397404
51	0x3d95c32f	0.07312619
52	0x3dae9625	0.085247315
53	0x3daa01b9	0.0830111
54	0xbeec29a9	-0.46125534
55	0x3f26ce13	0.65158194
56	0xbd6019db	-0.054712158
57	0x3e5a5bd6	0.21324095
58	0xbea5d03e	-0.3238544
59	0x3f180896	0.593881
60	0xbf15aa07	-0.58462566
61	0xbd1b1378	-0.037860364
62	0xbeb81fff	-0.3596191
63	0x3e68fc90	0.22752595
64	0x3d7cb40e	0.06169515
65	0x3c9a37ad	0.018825376
66	0x3e01584e	0.12631342
67	0x3dd20314	0.10254493
68	0xbebace83	-0.3648568
69	0x3d4b0159	0.049561832
70	0xbd06a1d9	-0.032869194
71	0x3d0916da	0.03346906
72	0xbe0ff5eb	-0.14058654
73	0xbe3873b3	-0.18012886
74	0xbdf9b3a9	-0.121924706
75	0xbddb3374	-0.10703173
76	0xbe9322cc	-0.28737485
77	0x3e780c7b	0.24223511
78	0x3f5fe3fa	0.8745724
79	0x3e602995	0.21890862
80	0xbe7d5769	-0.24740376
81	0xbdf824cc	-0.121163934
82	0xbe588847	-0.21145736
83	0x3dbd4bca	0.09242971
84	0xbebcfa3a	-0.36909658
85	0x3e23c58b	0.15993325
86	0xbef61ef3	-0.48070487
87	0xbed5985a	-0.41717798
88	0x3f25556d	0.64583474
89	0xbe79da42	-0.24399665
90	0xbf040af2	-0.515792
91	0x3e483c85	0.19554336
92	0x3dc7a229	0.097477265
93	0x3ef65b55	0.48116556
94	0xbef9b859	-0.4877346
95	0xbedb550f	-0.42838332
96	0x3f044adc	0.51676726
97	0xbf7f3d73	-0.9970314
98	0x3d25ef5a	0.040511467
99	0xbcc140bf	-0.023590444
100	0xbf27a6c8	-0.65488863
101	0xbda2414a	-0.07922609
102	0xbf219dff	-0.6313171
103	0x3d9bcaed	0.076070644
104	0xbf650c45	-0.89471847
105	0x3f0f6c2b	0.56024426
106	0x3c6408bf	0.013918101
107	0xbf13433e	-0.5752448
108	0xbe8a35ff	-0.2699432
109	0xbdb6cc13	-0.08925643
110	0xbe8e6247	-0.27809355
111	0xbeb7c31e	-0.3589105
112	0xbe6bb336	-0.23017582
113	0x3f530033	0.8242218
114	0x3ecb4c9d	0.3970689
115	0x3d817921	0.06321932
116	0xbed1a16b	-0.40943465
117	0x3e4b76d2	0.19869545
118	0x3dba88ad	0.091081
119	0xbcf491f9	-0.029854761
120	0x3f16fc1a	0.58978426
121	0x3de6b3ae	0.1126474
122	0xbf0d3492	-0.5515834
123	0x3b1e49df	0.0024152917
124	0xbeb21780	-0.34783554
125	0x3db1258e	0.08649741
126	0xbe4244cb	-0.18971555
127	0xbee79dfa	-0.45237714
128	0xbd8d5aa5	-0.06902055
129	0xbe13417a	-0.14380446
130	0x3d76e968	0.060281187
131	0xb9c2017e	-0.00037003675
132	0xbd910e7f	-0.07082843
133	0xbf15262f	-0.5826139
134	0x3d50e985	0.05100395
135	0xbeb3d953	-0.35126743
136	0x3e50bba9	0.20384087
137	0x3ee50f65	0.44738308
138	0x3e1ef1c7	0.15521918
139	0x3e8bd6fe	0.27312464
140	0xbe25bafb	-0.16184609
141	0xbef93ba6	-0.4867832
142	0x3dd85139	0.10562367
143	0xbec6d790	-0.38836336
144	0xbe96e672	-0.2947269
145	0x3f07b46e	0.5300969
146	0xbde59d81	-0.11211682
147	0xbc4d7a50	-0.012541369
148	0xbe4a0937	-0.19730078
149	0x3e2e62f2	0.17029932
150	0x3f0632a7	0.5242104
151	0xbe0817c3	-0.13290314
152	0x3ee08326	0.43850058
153	0xbea64c08	-0.32479882
154	0xbe56d172	-0.20978335
155	0x3e9a2c32	0.30111843
156	0xbe29dda2	-0.16588452
157	0xbe8543f0	-0.26028395
158	0xbea614fa	-0.3243788
159	0xbd8a8cc5	-0.06765131
160	0xbe8068b7	-0.2507989
161	0x3ee59f0a	0.448479
162	0x3eaf8fb1	0.34289315
163	0xbe479c33	-0.19493179
164	0xbde39b46	-0.111136004
165	0xbe9479e9	-0.2899926
166	0x3e627b0e	0.22117254
167	0x3ec26c15	0.37973085
168	0xbc851d9a	-0.016249467
169	0x3e177ae5	0.14792974
170	0x3e30bdbd	0.1725988
171	0xbeec75ad	-0.4618353
172	0x3d61a85e	0.055092208
173	0xbee51293	-0.44740734
174	0x3e5a5119	0.21319999
175	0xbe257035	-0.16156085
176	0x3e198f98	0.14996183
177	0xbeb0e252	-0.3454767
178	0xbea4eb28	-0.3221066
179	0xbf0ef7cd	-0.55846864
180	0x3cf05beb	0.029340705
181	0xbd285cc1	-0.041104082
182	0x3d44378d	0.04790454
183	0xbe6b948b	-0.23005883
184	0xbe518f89	-0.2046491
185	0x3c687060	0.014186949
186	0xbe5926cf	-0.2120621
187	0xbf565dd2	-0.8373691
188	0xbdd1f7a2	-0.1025231
189	0x3e0aa01c	0.1353764
190	0xbeaacc71	-0.333591
191	0xbec2853e	-0.3799228
192	0xbf24b26b	-0.64334744
193	0x3f76548f	0.96222776
194	0x3eb5cb40	0.3550663
195	0x3f313a09	0.6922918
196	0x3f77bd42	0.9677316
197	0x3e9a764c	0.30168378
198	0x3e5e873f	0.2173128
199	0xbe6ab1b5	-0.22919352
200	0x3f16b792	0.58873856
201	0x3f3063b5	0.6890214
202	0x3efa80ef	0.48926494
203	0x3c4a5374	0.012348998
204	0x3f931d2f	1.1493281
205	0x3f6bf18d	0.9216545
206	0x3f21ab3d	0.63151914
207	0x3f1b30e8	0.606215
208	0x3f10ee4c	0.5661361
209	0x3f574dce	0.84103096
210	0x3e700134	0.23437959
211	0x3e5d0c2e	0.21586677
212	0x3ec658b6	0.38739556
213	0xbe82907e	-0.25500864
214	0xbe1d46df	-0.15359066
215	0xbd353a67	-0.04424515
216	0x3f074287	0.5283589
217	0xbf28e242	-0.6597024
218	0x3f2f3389	0.6843801
219	0x3f0e3215	0.5554517
220	0x3f26e592	0.65194046
221	0x3f19b332	0.60039055
222	0xbe971083	-0.29504785
223	0x3ee538fc	0.44770038
224	0xbe326901	-0.17422868
225	0x3e838afc	0.25691974
226	0x3eb4278c	0.35186422
227	0x3ed8138b	0.4220241
228	0xbdbd7e42	-0.092525974
229	0x3ea8d20a	0.32972747
230	0xbd8c9746	-0.068647906
231	0x3e254b10	0.16141915
232	0x3f206697	0.6265654
233	0x3cf1ed6b	0.029532155
234	0xbdea138f	-0.11429512
235	0x3f3cba3f	0.7372169
236	0x3e77125b	0.24128096
237	0x3f454d44	0.77071023
238	0xbf1ded93	-0.61690634
239	0x3f2571d0	0.6462679
240	0x3d7fc5ed	0.062444616
241	0xbd496c5e	-0.049175613
242	0x3d9a694d	0.07539616
243	0x3ecab084	0.39587796
244	0x3d5197fd	0.051170338
245	0x3e3537c0	0.17697048
246	0x3dda7f90	0.10668862
247	0xbd84e299	-0.064885326
248	0xbc11100c	-0.0088539235
249	0xbe14ec13	-0.1454318
250	0x3f2991c0	0.6623802
251	0x3e8cec81	0.27524188
252	0x3e46689f	0.19375847
253	0x3ebb0d6e	0.36533684
254	0x3ef25259	0.4732845
255	0x3f2d6615	0.6773389

blocks.0.norm1.fc.bias f4 [64]
0	0x3dd55d44	0.1041818
1	0x3f52ed9f	0.8239383
2	0x3e3a0bc6	0.18168554
3	0xbee083e0	-0.43850613
4	0x3d7dcb7a	0.06196163
5	0xbee286ee	-0.44243568
6	0x3f8d3f28	1.1034899
7	0x3eac9ad3	0.33711872
8	0x3ed60c59	0.41806296
9	0x3edc65a8	0.43046308
10	0x3bc8cc34	0.0061278585
11	0x3ecc9c74	0.39963114
12	0x3d30e009	0.043182407
13	0xbd957810	-0.07298291
14	0x3db70434	0.089363486
15	0x3eb61c00	0.35568237
16	0xbf145f96	-0.5795835
17	0xbe28fc11	-0.16502406
18	0x3e91bdf8	0.28465247
19	0xbdfd2374	-0.12360278
20	0xbe47f354	-0.19526416
21	0x3de8b58f	0.113627546
22	0x3e89b516	0.2689597
23	0xbe831f46	-0.25609797
24	0x3d69814e	0.05700808
25	0x3e37b1ed	0.17938967
26	0x3e1dd69c	0.15413898
27	0x3de2a8b2	0.11067332
28	0xbe2f97be	-0.17147729
29	0x3e308217	0.17237125
30	0x3e812fd6	0.25231808
31	0xbe565238	-0.20929801
32	0xbf497332	-0.786914
33	0xbe90f1f5	-0.283096
34	0xbd0130d2	-0.0315407
35	0xbebf61c4	-0.37379277
36	0x3e4d0a5a	0.2002348
37	0x3dc21779	0.09477133
38	0x3f1b3c0c	0.606385
39	0xbf03a2cb	-0.5142028
40	0x3de3ce9f	0.11123394
41	0x3f13d312	0.5774394
42	0x3d3079f9	0.043085072
43	0x3eced3aa	0.40395862
44	0xbf3eb699	-0.7449737
45	0x3e85af96	0.26110524
46	0xbf075251	-0.5285998
47	0x3f2ffaf0	0.68742275
48	0x3e7aca90	0.24491334
49	0x3f03dda2	0.5151006
50	0xbf141211	-0.5784007
51	0x3ec900d7	0.39258453
52	0xbf14f331	-0.5818358
53	0x3e80761f	0.2509012
54	0x3ce223e7	0.02760501
55	0x3ec5bb33	0.38619384
56	0x3f263493	0.6492397
57	0x3f128f16	0.5724958
58	0x3e8c4687	0.27397558
59	0x3dcf8f91	0.10134805
60	0xbe30b29b	-0.17255633
61	0xbe4fc4e5	-0.20289953
62	0x3eae1f19	0.340081
63	0xbeb7cbd4	-0.35897696

blocks.0.attn.W_Q f4 [8, 32, 4]
0	0xbf32a729	-0.69786316
1	0x3faee2be	1.3662946
2	0xbff1a90e	-1.8879716
3	0x3f613353	0.8796894
4	0x3f27122f	0.6526212
5	0x3f262c97	0.6491179
6	0xbe8d4465	-0.27591243
7	0x3d0b369f	0.033987638
8	0x3f99274c	1.1965117
9	0xbec09495	-0.3761336
10	0xbf5c34b9	-0.8601795
11	0x3f58556d	0.8450535
12	0xbf14083a	-0.5782505
13	0x3fb0d0eb	1.3813757
14	0x3f8d4d7f	1.1039275
15	0x3d500afc	0.050791726
16	0xbe93ea22	-0.28889567
17	0x3f491461	0.7854672
18	0x3fa52628	1.2902269
19	0x3f50be8f	0.8154077
20	0x3fb1f572	1.3903029
21	0x3f12a112	0.57277024
22	0x3e58b3ce	0.2116234
23	0x3efdca5d	0.49568453
24	0xbfe36f13	-1.7768272
25	0x3e4fd59a	0.20296326
26	0x400b22b0	2.1739922
27	0xbfd36b71	-1.6517164
28	0x3e326b1c	0.17423671
29	0x3f0a4380	0.54009247
30	0x3f8317b8	1.0241613
31	0x3f60d263	0.87821025
32	0xbe051a7c	-0.12998384
33	0x3c8b88de	0.017033037
34	0xbf966bfc	-1.1751704
35	0xbe54d133	-0.20782928
36	0x3ea915eb	0.33024535
37	0xbf296db2	-0.66183007
38	0x3ef5e3e3	0.48025426
39	0x3e82275f	0.25420663
40	0x3e9b3dba	0.3032053
41	0x3eafc5a9	0.3433049
42	0x3f065acb	0.5248229
43	0x3e64f092	0.22357395
44	0xbe67d9f7	-0.2264174
45	0xbf656f03	-0.89622515
46	0x3fdacef4	1.7094407
47	0xc01a1536	-2.4075446
48	0x3fd32d38	1.6498175
49	0xbf4f744d	-0.81036836
50	0xbfcbd352	-1.5923865
51	0xbd3e0a36	-0.046396457
52	0xbe1890c5	-0.14898975
53	0xbf97276f	-1.1808909
54	0x3f45a7f5	0.7720941
55	0x3fe5d9b8	1.7957067
56	0xbe843a46	-0.2582571
57	0x3e7db7f1	0.247772
58	0xbfa5b5ea	-1.2946141
59	0x3edaa35f	0.42702767
60	0x3f3ebc75	0.7450631
61	0xbedc7cf2	-0.43064076
62	0x3f8fa8c5	1.1223379
63	0xbf377e8a	-0.7167746
64	0x3f6da89a	0.9283539
65	0x3fd80ebc	1.6879497
66	0x3e4f8c7e	0.20268437
67	0xb9d5961a	-0.0004073836
68	0x3f909b67	1.1297425
69	0x3e94648b	0.28982958
70	0x3fb2b627	1.3961838
71	0x3e274768	0.16335833
72	0x3e53d890	0.20688081
73	0x3ef035aa	0.46915942
74	0xbecebe18	-0.40379405
75	0x3fbcf6d2	1.4762824
76	0x3f3096ff	0.689804
77	0x3ec01f8c	0.37524068
78	0x3ebdbb8a	0.37057143
79	0xbf4364e0	-0.763258
80	0xbed2128b	-0.41029772
81	0x3ef4d236	0.47816628
82	0xbef79200	-0.48353577
83	0x3f12a7cf	0.57287306
84	0x3eac8e1d	0.33702174
85	0xbe26d2c5	-0.1629134
86	0x3fc49a24	1.535954
87	0xbf3230b5	-0.6960557
88	0xbf3ba822	-0.73303425
89	0xbe396dd9	-0.1810831
90	0xbf799a6a	-0.9750124
91	0xbf8a3eb5	-1.0800387
92	0x401df70e	2.468204
93	0x3fa86738	1.31565
94	0xbe2955e4	-0.16536671
95	0xc00e7248	-2.2257252
96	0xbff7e8b9	-1.9367896
97	0xbe11e0b8	-0.1424588
98	0xbf16fac6	-0.589764
99	0xbef64a17	-0.481034
100	0xbecf4813	-0.40484676
101	0xbf328517	-0.6973433
102	0xbe292aeb	-0.16520278
103	0xbfb7caaa	-1.4358723
104	0x3eea6b0c	0.45784795
105	0xbeea28d9	-0.4573429
106	0xbefaba30	-0.48970175
107	0x3eea5b18	0.45772624
108	0x3f868e63	1.0512203
109	0xc0307a3c	-2.7574606
110	0x3fefabe7	1.8724335
111	0xbe74b968	-0.23898852
112	0x3faa9788	1.3327494
113	0x3f5a9130	0.8537779
114	0x3e3f19b0	0.18662143
115	0x3f517895	0.8182462
116	0x3e23e7dd	0.16006418
117	0xc008757b	-2.1321704
118	0xbfce4a68	-1.6116457
119	0x3fa9cb82	1.3265231
120	0xbf632f38	-0.88743925
121	0x3fdad2c9	1.7095577
122	0x3f42bb85	0.7606738
123	0xbfd09771	-1.6296216
124	0x3f64a0ae	0.8930768
125	0xbecc6006	-0.3991701
126	0x3efb66a8	0.49101758
127	0xbe2866e1	-0.16445495
128	0xbf379fdb	-0.71728295
129	0xbe9edd98	-0.31028438
130	0xbfd157d1	-1.6354924
131	0x3f727112	0.9470378
132	0x3a2d6c0e	0.00066155277
133	0xbfed2ea9	-1.8529865
134	0x3fc06d72	1.50334
135	0xbfb65fbe	-1.4247968
136	0xbedb2ee8	-0.42809224
137	0x3f0f0c2f	0.55877966
138	0xbdd6f6de	-0.10496305
139	0xbf21ba0b	-0.63174504
140	0xbebd1a06	-0.36933917
141	0x3f0f45f6	0.55966127
142	0xbf144c99	-0.5792938
143	0xbeb24fac	-0.3482641
144	0x3ee19187	0.4405634
145	0x3e3f990b	0.18710725
146	0x3fb840df	1.4394797
147	0x3fd9184d	1.6960541
148	0x3e816a54	0.25276434
149	0x3ed0b2fd	0.40761557
150	0xbff87a00	-1.9412231
151	0x3ed9c0ff	0.42530057
152	0x3f62bd16	0.8856977
153	0x3ee19f14	0.4406668
154	0x3e5a4d7f	0.21318625
155	0x3e68105a	0.22662488
156	0xbddb109a	-0.10696526
157	0xbefb3f76	-0.49071854
158	0x3e052a6e	0.13004467
159	0x3e88a77b	0.26690277
160	0x3f21212e	0.62941253
161	0xbf0fdb13	-0.56193656
162	0x3e873ec1	0.26415065
163	0xbdec2a4c	-0.11531505
164	0xbf8b23a8	-1.0870256
165	0x3f8a8944	1.082314
166	0x400b2005	2.1738293
167	0x3e5f03a0	0.21778727
168	0x3f73921b	0.95144814
169	0x3fd596c0	1.668663
170	0x3e357911	0.17721964
171	0x3f3cf195	0.73806125
172	0x3f67291d	0.9029711
173	0x3fe90909	1.8205882
174	0xbfc06f72	-1.503401
175	0x3df3143d	0.118690945
176	0xbf820f4a	-1.0160916
177	0xbe9461eb	-0.28980955
178	0x3f4a5a5c	0.7904413
179	0x3eef97ef	0.46795604
180	0xbf6a52a9	-0.9153238
181	0x3fc72859	1.5559188
182	0xbd5ee816	-0.054420553
183	0x3f921daf	1.1415309
184	0x3e9fdd63	0.31223592
185	0xc0063e5d	-2.0975564
186	0x40032928	2.049387
187	0x3f068129	0.5254083
188	0x4058baf1	3.38641
189	0x4004c6da	2.074637
190	0x3f28c251	0.65921503
191	0x3f8f9dc8	1.1220026
192	0x3e243367	0.16035233
193	0x401e587f	2.4741514
194	0x3f399c1d	0.72503835
195	0xbf5ca721	-0.8619252
196	0x3eefca94	0.46834242
197	0xbe53f565	-0.2069908
198	0xbe5be4df	-0.21474026
199	0xbe1eb9d1	-0.15500571
200	0xc0072ac7	-2.111986
201	0xbf4b17d0	-0.7933321
202	0xbece1036	-0.40246743
203	0x4005bebd	2.0897667
204	0x3f4cc824	0.7999289
205	0x3f491052	0.7854053
206	0x3fda6518	1.7062101
207	0xbf2a8a12	-0.6661693
208	0xbf34778f	-0.7049493
209	0x3f41b775	0.7567056
210	0xbef67fe6	-0.48144454
211	0xbef6343b	-0.48086724
212	0x3fc43556	1.5328777
213	0xbeb133a7	-0.3460972
214	0xbeb5355f	-0.3539228
215	0x3fb1194b	1.3835844
216	0x3f315a87	0.6927876
217	0x3e441356	0.19148001
218	0xbf33dbf1	-0.7025748
219	0xbfbeadbb	-1.4896768
220	0x3efbd553	0.4918619
221	0x3f811e64	1.00874
222	0x3fcd9540	1.6061172
223	0xbd8180f6	-0.063234255
224	0x3f76f557	0.9646811
225	0x3f992389	1.196397
226	0xbe195cad	-0.14976759
227	0x3dde3f1b	0.1085188
228	0x3ff60289	1.9219524
229	0x3ea5635c	0.32302368
230	0x3f14dac6	0.5814632
231	0x3f91752e	1.1363885
232	0xbf4cac0f	-0.7995004
233	0x3f4d0bf0	0.8009634
234	0xbc4f6402	-0.012658121
235	0xbf8f2dcb	-1.118585
236	0x3f8ca477	1.0987691
237	0x3ec4375f	0.38323495
238	0x3fbd348c	1.4781661
239	0x3f9e089b	1.2346376
240	0x3edd9d7c	0.43284214
241	0xbec4c061	-0.38428023
242	0x3fe20cb7	1.766013
243	0xbf38d034	-0.7219269
244	0xbead86d2	-0.33891922
245	0x3eb25633	0.3483139
246	0xbe855d74	-0.26047862
247	0xbe3495a9	-0.17635216
248	0x3ec9aacb	0.39388117
249	0x3f245720	0.6419544
250	0xbf5c03a3	-0.8594305
251	0xbf248ff0	-0.6428213
252	0xbf2f0568	-0.68367624
253	0xbef9853a	-0.48734456
254	0xbfc785af	-1.5587672
255	0x3f40d242	0.7532083

blocks.0.attn.W_K f4 [8, 32, 4]
0	0x3f696d37	0.91182274
1	0x3f2bc3dd	0.6709574
2	0x3f6fb3d0	0.9363375
3	0x3f76b4ec	0.96369815
4	0x3ea7ef8b	0.32799944
5	0x3f13915c	0.57643676
6	0x3f847877	1.0349263
7	0x3f86a298	1.051837
8	0xbdf12dcf	-0.117763154
9	0x3e9d8303	0.30764017
10	0x3f8e5d41	1.1122209
11	0x3f063581	0.5242539
12	0x3f85ea46	1.046212
13	0x3ec5ae48	0.3860953
14	0xbe8fe343	-0.28103074
15	0xbfb90e9e	-1.4457586
16	0x3f2cb83d	0.67468625
17	0x3f5dbc05	0.8661502
18	0x3e370cb3	0.17875938
19	0xbfb6798b	-1.4255842
20	0x3f413625	0.75473243
21	0x3dbdb90c	0.092638105
22	0x3e665e69	0.22496952
23	0xbf18075a	-0.5938622
24	0x3b97a474	0.0046277586
25	0xbe8392a6	-0.2569782
26	0x3fcd7c27	1.6053513
27	0xc0196568	-2.3968143
28	0xbf3e5da7	-0.7436165
29	0x3f1fc70a	0.62413085
30	0xc02d6f59	-2.7099211
31	0x3f202a21	0.62564284
32	0xbf145ec2	-0.5795709
33	0x3f625f70	0.88426876
34	0x3f5fa273	0.8735725
35	0x3d034487	0.032047775
36	0x3fbb6848	1.4641199
37	0x3fc4c465	1.5372435
38	0xbf2487ef	-0.6426992
39	0x3fb45ecd	1.4091431
40	0xbed230cd	-0.41052857
41	0xbff7e2c6	-1.9366081
42	0x3e4963f7	0.1966704
43	0xbf196954	-0.5992634
44	0x3fd2d132	1.6470091
45	0x3d8b1f8e	0.06793128
46	0xbedcbee2	-0.43114382
47	0x3f81dcc9	1.0145503
48	0x3fa1484a	1.2600186
49	0x3f88871e	1.0666234
50	0x3ef9c23b	0.48781
51	0xc0294730	-2.64497
52	0x3e6f68f3	0.23379879
53	0xbfb06998	-1.3782225
54	0x3f2c595a	0.6732384
55	0x401afd6a	2.4217172
56	0xbed76e67	-0.42076418
57	0xbf0f0633	-0.55868834
58	0x3f6eb3ab	0.932429
59	0xbee988a6	-0.45612067
60	0xbf0e3f9b	-0.55565804
61	0x3e19aea4	0.15008026
62	0x3e99ff43	0.30077562
63	0x3dc5f031	0.096649535
64	0x3e9ea6a8	0.30986524
65	0xbf762122	-0.96144307
66	0x3ee69336	0.45034188
67	0xbeec237a	-0.46120816
68	0x3f6634d1	0.8992434
69	0x3fb9853b	1.4493784
70	0xbe008b9f	-0.12553261
71	0x3ed4a0bd	0.41528884
72	0x4030c6ab	2.7621257
73	0xbdb22cb8	-0.08699936
74	0x3f9477cf	1.1599063
75	0xbedb232a	-0.42800266
76	0xbee75223	-0.45179853
77	0xbf8d1e75	-1.102492
78	0xbf109de1	-0.56490904
79	0xc00e9a47	-2.2281663
80	0x3f8c5192	1.0962393
81	0x3e5548d6	0.20828566
82	0x3fa40b37	1.2815922
83	0x3f1b38d9	0.6063362
84	0xbebf4343	-0.37356004
85	0xbf647b37	-0.8925051
86	0xbf1bea12	-0.6090404
87	0x3e1aae08	0.1510545
88	0xbfc75cc7	-1.5575188
89	0x3f1d664d	0.61484224
90	0x3cdcacc1	0.026937844
91	0xbf2a2c7b	-0.6647412
92	0x3f1406d7	0.57822937
93	0x3f35a188	0.709496
94	0xbb97dd4c	-0.004634535
95	0x3f2d2278	0.6763072
96	0x3e55edee	0.20891544
97	0xbfaf92f1	-1.3716718
98	0x3f6acd6f	0.91719717
99	0xbf133ff2	-0.5751945
100	0x404d7885	3.210481
101	0x3e82b9af	0.2553229
102	0xbf2383a6	-0.63872755
103	0x3f8ead85	1.1146704
104	0xbebeed00	-0.37290192
105	0x3dd7942b	0.10526308
106	0x3eafa7b0	0.34307623
107	0x3f45e10f	0.7729654
108	0xc010bc1c	-2.2614813
109	0x3f7c9eb0	0.9867964
110	0xbeb9aeb6	-0.36266106
111	0xbeac253e	-0.33622164
112	0x3f9fc88c	1.2483077
113	0x3ef9e0bd	0.48804274
114	0x3fd68c9e	1.6761663
115	0xbfedbee8	-1.8573885
116	0x400e221a	2.2208314
117	0x3f657c43	0.89642733
118	0xbf8f150d	-1.1178299
119	0xbe6b2be3	-0.2296596
120	0x3f100254	0.5625355
121	0xbf698661	-0.9122067
122	0x3f7e2b6e	0.9928502
123	0x3cb3eeb0	0.021964401
124	0x3e91bdc6	0.28465098
125	0xbf6ebc77	-0.93256325
126	0xbea29d69	-0.3176072
127	0x3f071a2e	0.5277432
128	0x3fa0e2d8	1.2569227
129	0x3ee0dc4e	0.4391808
130	0x3f7520a1	0.9575291
131	0xbe1c2144	-0.15247065
132	0xbf1cfc35	-0.6132234
133	0x3f899ad2	1.0750372
134	0xbeae593f	-0.34052464
135	0xbf163f6b	-0.5869052
136	0x3fc43812	1.5329611
137	0x3f4fa556	0.8111166
138	0xbfcb81c2	-1.5898974
139	0x3fa8f742	1.3200457
140	0x3eb530cc	0.35388792
141	0x3f5771a2	0.84157765
142	0x3e70a0de	0.23498866
143	0xbf5badc7	-0.8581204
144	0x3f67013d	0.90236264
145	0x3dd8ea77	0.105915956
146	0x3f1412ef	0.5784139
147	0xbf3c26e6	-0.73496854
148	0x3f86bf2a	1.0527089
149	0x3fc577c0	1.542717
150	0xbf36e4bf	-0.7144279
151	0x3f5a5527	0.8528618
152	0xbe80c1f7	-0.25147983
153	0x3e843292	0.25819832
154	0x3feafff9	1.8359367
155	0xbf0539e6	-0.5204147
156	0x3f2c95a8	0.6741586
157	0x3eb7843f	0.35843083
158	0xbf7b2a5c	-0.9811151
159	0x3e10aecb	0.14129178
160	0x3f676d2d	0.90400964
161	0xbfc98bca	-1.5745785
162	0xbf663c8b	-0.8993613
163	0x3f18bdeb	0.5966479
164	0xbff05658	-1.877635
165	0x3f15d6bd	0.5853079
166	0xbfe19ae6	-1.7625396
167	0xbe5c2234	-0.21497422
168	0x3ffb8104	1.9648747
169	0xbe4b11b4	-0.19830972
170	0x3e3c750b	0.18404023
171	0x3f96fd48	1.1796045
172	0xbdab6244	-0.08368352
173	0x3f4884db	0.7832772
174	0xbd95d424	-0.07315853
175	0x3f5ebccc	0.8700683
176	0x3fb07421	1.378544
177	0xbe4f65e7	-0.20253716
178	0xbd23a988	-0.0399566
179	0xbf4802ff	-0.7812957
180	0xbe82305d	-0.25427523
181	0xbdd67dda	-0.10473223
182	0x3ec13f55	0.3774363
183	0x3f154990	0.5831537
184	0xbe7a4a23	-0.24442343
185	0xbe52f61b	-0.20601694
186	0x3fb77366	1.4332092
187	0x3f884af8	1.0647879
188	0x3ea13f09	0.31493405
189	0xbf9af961	-1.2107354
190	0xbfd1ebf7	-1.6400136
191	0xbebbe961	-0.3670149
192	0xbe858fd0	-0.26086283
193	0xbe4a92b6	-0.19782528
194	0xbf549b51	-0.83049494
195	0xbf68d56b	-0.9095065
196	0x3fb8ccce	1.4437501
197	0xbeee2b17	-0.4651725
198	0xbf87d814	-1.0612817
199	0x3f5dbc3e	0.8661536
200	0x3e884331	0.26613763
201	0x402bccf3	2.684384
202	0xbf940f69	-1.1567203
203	0xbfb39ec6	-1.4032829
204	0x3f2c81b6	0.67385423
205	0xbc6de90a	-0.014520893
206	0xbf7850b5	-0.9699815
207	0xbeff48e1	-0.4986029
208	0x3ecd64d3	0.40115985
209	0x3fdbc059	1.7168075
210	0xbe07ab4a	-0.13248935
211	0x400253e1	2.0363696
212	0xbe806805	-0.2507936
213	0x3dbc5789	0.091963835
214	0x3f43f29e	0.7654208
215	0xbfb9ee36	-1.4525821
216	0x3c00faa2	0.0078722555
217	0x3fd1e002	1.6396487
218	0xbd71bc24	-0.059017316
219	0xbf508228	-0.814486
220	0xbd22bfd6	-0.03973373
221	0x3f42ceeb	0.7609698
222	0x3f373f47	0.7158093
223	0x3ed82b87	0.4222071
224	0x403dfc5b	2.9685276
225	0xbf1011ca	-0.56277144
226	0x3ff4c186	1.9121559
227	0x3ed4d4a4	0.41568482
228	0xbea3237c	-0.3186301
229	0x3cbf98bb	0.023388257
230	0xbf4a6c02	-0.79071057
231	0xbefa5de5	-0.4889976
232	0x3ffcf5d4	1.9762521
233	0x3f041089	0.5158773
234	0x3faa2b28	1.329442
235	0x3f8b6303	1.0889591
236	0xbf0efd9e	-0.5585574
237	0x3ff3f625	1.9059492
238	0x3ed36c92	0.4129377
239	0x3efc8031	0.49316552
240	0x3f1a4baf	0.60271734
241	0xbef0f423	-0.47061262
242	0x3ea9eadc	0.33186996
243	0x3edfaaf8	0.43685126
244	0xbf538ff2	-0.8264152
245	0x3f6361c6	0.88821065
246	0xbe7ced2e	-0.24699852
247	0xbf533f96	-0.825189
248	0x404d8ef2	3.2118497
249	0x3fbc8fa8	1.473134
250	0xbdcf0f2f	-0.10110318
251	0xbe5ce371	-0.21571137
252	0xc0521b1b	-3.2829044
253	0x3f992a3e	1.1966016
254	0xbf4d1adf	-0.8011913
255	0x3f5a64fa	0.8531033

blocks.0.attn.W_V f4 [8, 32, 4]
0	0xbf3271de	-0.69705
1	0x3f151b80	0.58245087
2	0x3b7ac461	0.0038264024
3	0x3dbbd09c	0.091706485
4	0x3f4ddc3b	0.8041417
5	0xc00b13cb	-2.173083
6	0x3f01b74c	0.50670314
7	0xbf9e6772	-1.2375319
8	0xbce9edd1	-0.028555783
9	0xbe8e76db	-0.27825055
10	0xbf35bf80	-0.7099533
11	0x3e864f81	0.26232532
12	0x3d857713	0.06516852
13	0x3f021d5e	0.5082606
14	0x3f0b2b59	0.5436302
15	0x3fa9a1d5	1.3252512
16	0x3fec6637	1.8468693
17	0x3f38e957	0.7223105
18	0xbed9d163	-0.42542562
19	0x3f1a2971	0.60219485
20	0xbeb00fe3	-0.3438712
21	0x3fcb07df	1.5861777
22	0xbf91f948	-1.14042
23	0x3f9d5cf7	1.2293996
24	0x40260144	2.5938272
25	0x3fb6d605	1.4284064
26	0xbf880690	-1.0627003
27	0xbd873cab	-0.06603368
28	0xbdac96a0	-0.08427167
29	0x3e7457a3	0.23861556
30	0x3f49e3fc	0.788635
31	0x402b3c21	2.675545
32	0x3e498665	0.19680174
33	0x3f8aa465	1.0831419
34	0xbeb48a10	-0.35261583
35	0xbf538cd1	-0.82636744
36	0xc00390f3	-2.055722
37	0xbe81802c	-0.252931
38	0x3f9e4899	1.2365905
39	0xbf42aa55	-0.76041156
40	0x3f413226	0.75467145
41	0x3f94ebbd	1.1634442
42	0x3f8bfe51	1.0936986
43	0x3e62ac86	0.22136125
44	0xbfb46bdb	-1.4095415
45	0x3d84e280	0.06488514
46	0x3f21855e	0.6309413
47	0x3f59757a	0.8494488
48	0x3f8b2e26	1.0873458
49	0x3eba9c73	0.36447486
50	0x3faa7765	1.3317686
51	0xbeacd8ee	-0.33759254
52	0xbf69bbad	-0.91301996
53	0xbf8b0e5a	-1.0863755
54	0x3fe0a14c	1.7549224
55	0x4013d8a0	2.3100967
56	0x3f91ea05	1.1399542
57	0x3fb45b5d	1.4090382
58	0xbe6618bf	-0.22470377
59	0xbea64feb	-0.32482848
60	0x3f2a9fbe	0.6665
61	0xbfb04b1a	-1.3772919
62	0x3e9edab2	0.31026226
63	0xbf9f5239	-1.2446967
64	0xbe30cd02	-0.17265704
65	0xbf8696e7	-1.0514802
66	0x3f27f1fe	0.65603626
67	0x3f5a3364	0.85234666
68	0x3f46d613	0.776704
69	0x3f82e975	1.0227495
70	0xbe0ad104	-0.13556296
71	0xbe803762	-0.25042254
72	0x3ffbd851	1.967539
73	0xbfbd4c49	-1.4788905
74	0xbf32f924	-0.6991141
75	0xbf9356ca	-1.1510861
76	0xbe644785	-0.22292908
77	0x3f76f898	0.96473074
78	0x3fc82201	1.5635377
79	0x3ba643f1	0.005074017
80	0x3f0aef8a	0.5427176
81	0xc001fe21	-2.0311358
82	0x3fc5c587	1.5450906
83	0x3ffd3989	1.9783183
84	0xbfdf94b1	-1.7467252
85	0xbf9921c5	-1.1963431
86	0xbe85a9c4	-0.26106083
87	0xbec057f2	-0.37567097
88	0x3f8094bf	1.0045394
89	0xbf3fd58d	-0.7493523
90	0x3eae7d44	0.34079945
91	0x3e29f1b8	0.16596115
92	0xbdbc35aa	-0.09189923
93	0xbe622734	-0.22085267
94	0x3fbcb87f	1.4743804
95	0x3fc3d43c	1.5299144
96	0xbf43032c	-0.76176715
97	0x3e3505f6	0.17678055
98	0x3db2044f	0.08692228
99	0xbe2ef230	-0.17084575
100	0xbfde0c53	-1.7347511
101	0xbf25e142	-0.6479684
102	0x3f0d500c	0.55200267
103	0x3fab9eea	1.3407872
104	0xbf5c8849	-0.86145455
105	0xbf959c45	-1.1688315
106	0x3f54d51e	0.8313769
107	0xbc92ce7a	-0.017920721
108	0xbfbe936b	-1.4888738
109	0x3f5b5e76	0.8569101
110	0x3e9eccd8	0.31015658
111	0x3e06292e	0.13101646
112	0x3fdba6f7	1.7160329
113	0xbedd6359	-0.4323986
114	0x3fa363cf	1.2764834
115	0xbe47564b	-0.19466512
116	0xbf3e3f8d	-0.7431572
117	0x3f352cce	0.7077149
118	0x3f4ee342	0.8081552
119	0x3f67da48	0.90567446
120	0x3e5ba5ff	0.21450041
121	0x3f753f44	0.9579966
122	0x3d891d0e	0.06694995
123	0xbe3a6b3b	-0.18204968
124	0x400d4358	2.2072353
125	0xbe6a438e	-0.22877333
126	0x3fa6ec69	1.3040897
127	0x3f1a9950	0.60390186
128	0xbca1eae9	-0.019765334
129	0x3fe53915	1.7908045
130	0xbfbf9050	-1.4965916
131	0xc0027c29	-2.0388281
132	0x3f5f07f2	0.871215
133	0x3e31f247	0.17377578
134	0x3fbd693d	1.4797741
135	0x3f0b5654	0.544286
136	0x4039eb4b	2.9049861
137	0x3ec68c1e	0.38778776
138	0x3fd657ce	1.6745546
139	0x3e9067fb	0.2820433
140	0xbf48b20a	-0.78396666
141	0x3fa6ea62	1.3040278
142	0x3fe2d32f	1.7720698
143	0xbfa98a2a	-1.3245289
144	0xbe8450c4	-0.2584287
145	0xbf63bc24	-0.88958955
146	0xbf3fd145	-0.74928695
147	0xbf831099	-1.023944
148	0xbf494b36	-0.7863039
149	0x401da2b4	2.4630556
150	0x3f87d5d4	1.061213
151	0xbe0a4fd3	-0.13507013
152	0x3f7aa4d0	0.97907734
153	0x3f3cca6c	0.7374637
154	0xbdc1dc82	-0.09465887
155	0x3fb58923	1.4182476
156	0x3c861eda	0.016372133
157	0x3f788b65	0.970877
158	0x400d5b56	2.2086997
159	0x3f846c97	1.0345639
160	0x3dd191f2	0.10232915
161	0x3f403a9e	0.7508944
162	0xbf9199ad	-1.1375023
163	0x3f948a91	1.1604787
164	0x3f0e8881	0.5567704
165	0xc012e843	-2.2954261
166	0xbe0d590b	-0.13803498
167	0x3f612f68	0.8796296
168	0x3fc5531d	1.5415989
169	0x4019e0c4	2.4043436
170	0x3f582124	0.8442557
171	0x3f792bb2	0.973323
172	0x3f626ebb	0.8845021
173	0x3f865378	1.0494223
174	0xbe0c753f	-0.13716601
175	0xbf7fdbc2	-0.999447
176	0x3faee169	1.366254
177	0x3f0660b5	0.52491313
178	0xbfe87dfa	-1.8163445
179	0x3f73b456	0.95197046
180	0xbe87e941	-0.26545146
181	0x3f4d95c1	0.8030663
182	0xbf0ac709	-0.54209954
183	0xbfa2aed1	-1.27096
184	0x3e245baa	0.16050592
185	0x3f42f72f	0.7615842
186	0xbd5fac71	-0.054607812
187	0x3ff24065	1.8925902
188	0x3f871bdb	1.0555376
189	0xbf2dc143	-0.6787302
190	0x3ee033df	0.43789575
191	0xbdeb14b8	-0.11478561
192	0x3f5853dc	0.8450296
193	0xbf3b8649	-0.7325178
194	0x3e33ae72	0.17547014
195	0x3f958b4a	1.1683133
196	0x3f84af24	1.0365949
197	0x404b494f	3.1763494
198	0x3f4dacf2	0.8034202
199	0xbfefb9b0	-1.8728542
200	0x3f61f4cd	0.8826416
201	0x3f337205	0.70095855
202	0x3f89ac72	1.0755751
203	0xbd95e4ea	-0.073190525
204	0x3e0015c3	0.12508301
205	0xbee53575	-0.44767347
206	0x3f2a7900	0.6659088
207	0xbf0f64ab	-0.5601298
208	0xbd818fb0	-0.06326234
209	0x3fe11d75	1.7587115
210	0x3f39f0f2	0.7263328
211	0xbe28dad2	-0.16489723
212	0xbf836adb	-1.0266985
213	0x3edc2f0a	0.43004638
214	0xbff8965c	-1.9420886
215	0x3f41df68	0.75731516
216	0x3df0a956	0.11751048
217	0x3f86f7fb	1.0544428
218	0x3ebcb70c	0.36858404
219	0xbf4f644f	-0.81012434
220	0xbea8f5a5	-0.32999912
221	0xbfa43144	-1.2827535
222	0x3f224ab6	0.6339525
223	0xbf3a9bfb	-0.7289426
224	0x3dcc6282	0.099797264
225	0x40228d4a	2.5398736
226	0x3fc9f422	1.5777628
227	0xbebc922f	-0.3683028
228	0x3fa9df7f	1.327133
229	0x3ea6566e	0.32487816
230	0xbe179b6c	-0.14805382
231	0xbf81ff9b	-1.015613
232	0x3fbe17e5	1.4851042
233	0x3fd4cb32	1.662451
234	0xbe5380da	-0.20654622
235	0x3e998f22	0.29992014
236	0x3ec23c4d	0.3793663
237	0x3f38c69a	0.7217804
238	0x3fa83865	1.314221
239	0xbee301f9	-0.44337443
240	0xbf129b06	-0.57267797
241	0x3e58cd54	0.21172076
242	0xbe7fb71c	-0.24972194
243	0xbfb7ad84	-1.4349828
244	0xbc6190d7	-0.013767443
245	0xbfaeb200	-1.3648071
246	0x3eed994a	0.46406013
247	0x3f13da92	0.57755387
248	0x400aeaca	2.1705804
249	0x3fc058f1	1.5027143
250	0x3e2931b2	0.16522864
251	0xc01f094a	-2.484942
252	0xbee726ef	-0.4514689
253	0x3eab47ea	0.33453304
254	0xbf8ea980	-1.1145477
255	0x3fc20a7a	1.5159447

blocks.0.attn.W_O f4 [8, 4, 32]
0	0xbfe23d27	-1.7674912
1	0x3fc89716	1.5671108
2	0xbf871918	-1.0554533
3	0xbe755fc4	-0.23962313
4	0x3fb1b52e	1.3883417
5	0xbfc7cf59	-1.5610152
6	0xbfac8c14	-1.3480248
7	0xbf34d754	-0.70641065
8	0x3fa659d7	1.2996167
9	0x3fdf07cc	1.7424254
10	0x3f92ae9a	1.1459534
11	0x3eeef671	0.46672395
12	0x3f95fa64	1.1717038
13	0x3f97631f	1.1827124
14	0x3ee1cd19	0.4410179
15	0x3dba9790	0.091109395
16	0xbf8c5501	-1.0963441
17	0x3e2f749a	0.17134324
18	0x3f9aabaa	1.2083638
19	0xbf47cf9a	-0.7805115
20	0x3db82f94	0.0899345
21	0x3fd5ff89	1.6718608
22	0xbfb76ca2	-1.4330027
23	0x3faa8492	1.3321707
24	0xbeba6444	-0.36404622
25	0x4005645e	2.084251
26	0x3f528d0e	0.8224648
27	0x3f00919b	0.50222176
28	0x3f0c5863	0.5482237
29	0xbed98397	-0.42483208
30	0xbf8c63bc	-1.0967937
31	0xbf4f4a32	-0.8097259
32	0xbf6cacf0	-0.9245138
33	0x3effff56	0.49999493
34	0x3f8677e0	1.0505333
35	0xbf8c200b	-1.0947279
36	0x405c9d2e	3.4470935
37	0x3eeb57fe	0.4596557
38	0x3e3906e3	0.18069033
39	0x3ec40c67	0.38290712
40	0x400d8488	2.211214
41	0x3f571b8b	0.840264
42	0x3e91eb8c	0.2850002
43	0x3f7ecabe	0.9952811
44	0x3fd7369c	1.681354
45	0x3f4e1821	0.8050557
46	0xbfcc86b6	-1.597861
47	0x3ef5fcae	0.48044342
48	0x3ea8141c	0.32827842
49	0x3fccbced	1.5995156
50	0x401ee40c	2.4826689
51	0x3dc01a80	0.093800545
52	0x3f4bf29a	0.79667056
53	0xbee4c24e	-0.44679493
54	0xbfa8834b	-1.3165067
55	0x3f22dd74	0.6361916
56	0x3dd0df5d	0.10198853
57	0x3fd9f9a6	1.7029312
58	0xbfe609d5	-1.797175
59	0xbd47871e	-0.048712842
60	0x3fd1a568	1.6378603
61	0xbe90d005	-0.28283706
62	0xbf87b8ba	-1.0603249
63	0x3efe2240	0.49635506
64	0x3fcca6d0	1.5988407
65	0xbfe84995	-1.8147455
66	0x3e99f283	0.30067834
67	0xbd844460	-0.06458354
68	0xbfc507cc	-1.5393004
69	0x3f94c221	1.1621743
70	0x3e156488	0.14589131
71	0xbf37eb79	-0.7184368
72	0xbe4f74da	-0.20259419
73	0x3f63ae95	0.88938266
74	0x3f1f32f7	0.6218714
75	0xbad5a350	-0.0016299281
76	0x3e8cc9aa	0.27497607
77	0xbd0d5f26	-0.03451457
78	0x3f5906f4	0.84776235
79	0xbd001c93	-0.03127725
80	0x3f8c9d2e	1.0985467
81	0xbdf1ad06	-0.1180058
82	0xbfc1da33	-1.5144714
83	0x3eabed53	0.33579502
84	0x3e20e6cb	0.1571304
85	0x3faecad8	1.3655653
86	0x3eb821e1	0.35963348
87	0x3eccec3d	0.40023986
88	0x3fec39c8	1.8455133
89	0x3da6382a	0.08116181
90	0x3f5bf057	0.85913604
91	0x3f79b710	0.97544956
92	0xbe3c31d7	-0.18378387
93	0x3f4b4fce	0.7941865
94	0xbea363c8	-0.31912065
95	0x3f768ce8	0.96308756
96	0x3f8a4ef5	1.0805346
97	0x3f1e9f5e	0.61961925
98	0x3f977fd5	1.1835886
99	0x3fdc3ea8	1.7206621
100	0xbfc1b350	-1.5132847
101	0x3edae623	0.42753705
102	0x3fdba298	1.7158995
103	0x3fd2d809	1.6472179
104	0xbf1e201a	-0.61767733
105	0xbfb3ad70	-1.4037304
106	0x3e94bd50	0.29050684
107	0x3f6a3474	0.9148629
108	0x3ff63969	1.923627
109	0xbd5bf14f	-0.053696927
110	0xbe2f5865	-0.17123564
111	0x3f18401a	0.5947281
112	0xbfe0d62d	-1.7565361
113	0x3ed69450	0.41910028
114	0xbd1b1893	-0.037865233
115	0x3ddf4c68	0.10903245
116	0xbfccfdbc	-1.6014934
117	0x3fffc75f	1.9982718
118	0x3ffd4333	1.9786133
119	0x3fff52a6	1.9947097
120	0x3d36f021	0.0446626
121	0x3f4cbd79	0.7997661
122	0x3efa9c5f	0.48947427
123	0xbf85cb43	-1.0452656
124	0xbee89a8a	-0.45430404
125	0x3f612cfa	0.87959254
126	0xbf7b951e	-0.9827441
127	0xbf8db3a1	-1.1070443
128	0x3f040c12	0.5158092
129	0x3fb36a84	1.4016881
130	0xbe82ca8e	-0.25545162
131	0x3fdf3b4f	1.7439975
132	0x4030846d	2.7580826
133	0x3fa5d3f1	1.2955304
134	0xbf9240ef	-1.1426066
135	0x3e9b3e32	0.3032089
136	0x3f275cbc	0.65375876
137	0xbf4d83cb	-0.80279225
138	0x3ef3d5bd	0.47624007
139	0xbfe402e5	-1.7813383
140	0xbf844ed8	-1.0336561
141	0x3feda46a	1.85658
142	0xbeac2780	-0.33623886
143	0x3ffb13b6	1.961539
144	0x4015aeac	2.3387861
145	0x3f876f71	1.0580884
146	0x3fa3f860	1.2810173
147	0xbce0bbce	-0.027433302
148	0x3fa560a4	1.2920117
149	0xbf184485	-0.5947955
150	0xbff66dac	-1.9252219
151	0x3f8a4132	1.0801146
152	0xbe8eeb76	-0.27914017
153	0x40611afe	3.5172725
154	0x3f4f7612	0.81039536
155	0x4027f4c5	2.6243145
156	0xbf0179d8	-0.50576544
157	0xbf02da15	-0.51114017
158	0x3effdf88	0.49975228
159	0x3fde6d38	1.7377081
160	0xbf1d22cb	-0.61381215
161	0x3d7a8823	0.061164986
162	0x3f92d161	1.1470147
163	0xbf964df6	-1.1742542
164	0x3fa0f95f	1.2576102
165	0xbed2b0bf	-0.41150472
166	0xbf2a5abd	-0.66544706
167	0x3ef01885	0.46893707
168	0x3cc1a8d7	0.02364008
169	0xbe9f75cd	-0.31144562
170	0xbea2eb96	-0.31820363
171	0x3d9d64a8	0.07685214
172	0x3fe76811	1.8078634
173	0x3eb2e67c	0.3494147
174	0xbe355c4b	-0.17710988
175	0xbf80fefb	-1.0077814
176	0xc00130f8	-2.0186138
177	0x3f2d4d1b	0.6769578
178	0x40486630	3.131237
179	0xbea558d4	-0.32294333
180	0x3fcc7c47	1.5975426
181	0x3f7d5921	0.98964125
182	0x3f858816	1.0432155
183	0xbf729254	-0.9475453
184	0xbea866ab	-0.3289083
185	0x400854d1	2.1301768
186	0xbe78afc4	-0.242858
187	0x3fb8d77f	1.4440764
188	0x3fc5ead9	1.5462295
189	0xbeb35869	-0.3502839
190	0x3f8e53b9	1.11193
191	0x3fcd8a58	1.6057844
192	0xbf6c5167	-0.9231171
193	0xbf2b46d5	-0.66904956
194	0x3f4021f1	0.7505179
195	0x400c2188	2.1895466
196	0x404a3105	3.159242
197	0xbea2e5f0	-0.31816053
198	0x3efaaca5	0.48959842
199	0x3e707bfd	0.23484798
200	0x3fec0cb3	1.8441375
201	0x3f6866c6	0.9078182
202	0x3e87fd59	0.26560476
203	0x3f8d2b51	1.1028844
204	0x3f340abe	0.7032889
205	0x3e19d302	0.150219
206	0x3fe3736e	1.7769601
207	0x40095853	2.146016
208	0x3f10ca56	0.5655874
209	0x3cc9b41a	0.024622012
210	0xbfa38b36	-1.2776859
211	0x3f930ba5	1.1487929
212	0x3ed32008	0.41235375
213	0x3fed8a44	1.855782
214	0x3f3a3598	0.7273803
215	0x3f9c64f0	1.2218304
216	0xbeefe6c8	-0.4685576
217	0xbf1d8842	-0.6153604
218	0x402e7e27	2.7264497
219	0x3f051ecd	0.52000123
220	0xbf3ccb44	-0.7374766
221	0x3e925246	0.28578395
222	0x3ec0f583	0.3768731
223	0xbf9812c2	-1.1880724
224	0x3f9e7002	1.2377932
225	0x40203b41	2.5036166
226	0x3cda211e	0.02662712
227	0xbdae925a	-0.08524008
228	0xbffb6d05	-1.9642645
229	0x402c11ff	2.6885984
230	0x3f25ea1d	0.64810354
231	0xbee1f350	-0.44130945
232	0x3ca90023	0.020629948
233	0x401ff762	2.499474
234	0x3dab5b01	0.08366967
235	0xbf8e2bc9	-1.1107112
236	0xbe91072f	-0.28325793
237	0x3f30c431	0.69049364
238	0xbf3eef86	-0.74584234
239	0xbea02927	-0.31281397
240	0x3ff5aee8	1.9194002
241	0x3fc65299	1.5493957
242	0xbeca6e17	-0.39537117
243	0x3f656368	0.89604807
244	0x3f958cf4	1.168364
245	0xbe8a78bc	-0.27045238
246	0xbf715945	-0.9427684
247	0x403e780d	2.9760773
248	0xbcdf418c	-0.027252935
249	0x3ffb5b0c	1.963716
250	0xbf25760b	-0.64633244
251	0x3eae30ae	0.34021515
252	0x3f9cfe91	1.2265188
253	0x40015911	2.0210612
254	0x3fccd63b	1.6002878
255	0xbf55aaf0	-0.83463955

blocks.0.attn.b_Q f4 [8, 4]
0	0xbd358489	-0.04431585
1	0xbe40b3af	-0.18818544
2	0x3f32d690	0.69858646
3	0xbe9b0eb0	-0.30284643
4	0x3eea9158	0.45814013
5	0x3d8cc03e	0.06872605
6	0x3e86404d	0.26220933
7	0xbeaca7c9	-0.3372176
8	0x3f5c588b	0.86072606
9	0xbc221459	-0.009892547
10	0x3eae69c2	0.34065062
11	0x3ddcdce0	0.10784316
12	0x3e5aca98	0.21366346
13	0x3dae0bb4	0.08498326
14	0x3e31fa8a	0.1738073
15	0xbf44d7ee	-0.7689198
16	0x3dc333f9	0.09531397
17	0x3e614a33	0.22000961
18	0xbecf72be	-0.4051723
19	0xbdc17d44	-0.09447721
20	0x3e23a5be	0.15981194
21	0xbc23129d	-0.009953168
22	0x3e1290ac	0.14313
23	0x3d5875db	0.05284677
24	0xbed87791	-0.42278722
25	0x3f087eed	0.53318673
26	0x3ef65fdd	0.48120013
27	0xbe83ad51	-0.25718167
28	0x3e46794e	0.19382212
29	0x3ec5d510	0.38639116
30	0xbf30b556	-0.69026697
31	0x3f2d94de	0.6780528

blocks.0.attn.b_K f4 [8, 4]
0	0xbcfa25b4	-0.030535556
1	0x3d740fdd	0.05958544
2	0xbe00174b	-0.12508886
3	0x3e33d8a9	0.17563118
4	0xbd9eec47	-0.0775991
5	0xbcf8d9db	-0.03037732
6	0xbdf3f90b	-0.119127356
7	0xbdcae8b7	-0.09907668
8	0x3c85005a	0.01623552
9	0xbcf5456a	-0.029940326
10	0x3cffb3ac	0.031213604
11	0xbc2f458d	-0.010697735
12	0xbd720705	-0.059088726
13	0xbd2a121c	-0.041521177
14	0xbbbba6cd	-0.0057266713
15	0xbe102c31	-0.14079358
16	0xbd3c5f95	-0.04598959
17	0xbb3f898e	-0.0029226276
18	0x3be78d42	0.0070664
19	0x3c97f1e7	0.018547965
20	0xbd185303	-0.03718854
21	0x3cfdc6ab	0.030978521
22	0xbd82ba87	-0.063832335
23	0xbe03b72f	-0.12862848
24	0xbaf3340d	-0.0018554941
25	0x3c84a14b	0.016190192
26	0x3c51d9e9	0.0128083015
27	0xbbd3b115	-0.006460319
28	0x3d0f21bc	0.03494428
29	0x3d41a094	0.04727228
30	0x3c5f4140	0.013626397
31	0x3cad74ae	0.021173801

blocks.0.attn.b_V f4 [8, 4]
0	0x3da987c7	0.082778506
1	0xbd0821eb	-0.03323547
2	0x3e2db7c8	0.16964638
3	0xbe47fb75	-0.19529517
4	0x3d820ec1	0.0635047
5	0x3e86f146	0.26355952
6	0xbddc5ecc	-0.107602686
7	0xbdae3ba2	-0.08507468
8	0x3da3bc77	0.07994931
9	0xbe71c1c5	-0.23609073
10	0xbdbafa87	-0.091298155
11	0x3e427719	0.18990745
12	0x3e98ec9c	0.2986802
13	0xbd05b9a8	-0.03264776
14	0xbd51ccc7	-0.05122068
15	0x3e1736d7	0.14767013
16	0x3e1837cc	0.14865035
17	0xbe928d92	-0.28623635
18	0x3da05a88	0.078297675
19	0xbe8cd13b	-0.2750338
20	0x3ca11ccf	0.019667057
21	0x3e17b114	0.14813644
22	0xbdd484a6	-0.10376863
23	0x3d684545	0.056706686
24	0x3e163a43	0.14670663
25	0x3d3c0c2a	0.045910038
26	0x3e369d32	0.17833403
27	0xbe839b89	-0.257046
28	0xbea5cebc	-0.32384288
29	0xbca56e23	-0.020194119
30	0x3d4c8a16	0.049936377
31	0xbe6420f0	-0.2227819

blocks.0.attn.b_O f4 [32]
0	0x3d5108a0	0.051033616
1	0x3cd780ed	0.026306594
2	0xbe2ce93d	-0.16885848
3	0xbe08c985	-0.13358124
4	0xbdac0906	-0.084001586
5	0xbe1cf4db	-0.1532778
6	0xbdb67653	-0.08909287
7	0xbde2639b	-0.110541545
8	0x3c099e70	0.008399591
9	0xbdb94ce1	-0.090478666
10	0xbdc9de91	-0.09856904
11	0x3e3e3d16	0.1857799
12	0xbe066019	-0.13122596
13	0xbcd258e4	-0.025677152
14	0xbdfb4683	-0.122693084
15	0x3d951631	0.07279623
16	0xbef7b025	-0.48376575
17	0xbe560d1c	-0.20903438
18	0x3e9416e7	0.28923723
19	0x3d987818	0.07444781
20	0x3e494bc3	0.19657807
21	0x3d5c8379	0.05383632
22	0xbe96cc96	-0.29452962
23	0xbeb5b7f1	-0.354919
24	0xbc5419a2	-0.012945564
25	0x3d9c5c19	0.07634754
26	0x3dc12f39	0.09432835
27	0x3e8d6fd4	0.2762438
28	0x3d571ff4	0.052520707
29	0xbe1651f0	-0.14679694
30	0x3e8e682e	0.27813858
31	0xbe1b4ab9	-0.15165223
